LTNtorch/LTN_IoMT/model/LTN_6classes_big.pth (torch, 10338 bytes, 6 tensors)

linear_layers.0.weight f4 [32, 18]
000000 dc 90 72 be c8 da c8 be de 50 4a be f2 1f 01 bd
       -0.23688072 -0.39229417 -0.19757411 -0.031524606
000010 ca fd 60 bd aa bd 11 3e d3 0e 43 3d a0 8f 95 be
       -0.054929532 0.14232507 0.04762156 -0.2921114
000020 97 37 55 3e d9 c2 a5 bb 50 5b 30 bc d1 9d e2 bc
       0.20821987 -0.005058628 -0.010763958 -0.027663143
000030 49 6d 06 3e cd 1c a2 be 81 17 83 be b5 c5 07 bd
       0.13127626 -0.31662598 -0.2560387 -0.033147532
000040 7a 69 0b 3e 2e b7 6b bd 39 87 f0 3e f7 dc 25 bd
       0.13614455 -0.05754774 0.46978167 -0.04049393
000050 a2 a9 36 3d 84 c5 33 be 01 0c 47 be df b0 61 bd
       0.04459537 -0.17555815 -0.19438173 -0.055100318
000060 b9 26 b5 3d 19 a8 46 3e 69 31 7b 3e 0e 09 bd bd
       0.088452764 0.19400062 0.24530567 -0.09230243
000070 74 34 0c 3e 2f 76 af bd 95 d2 c4 bd 64 29 d7 bd
       0.13691884 -0.085674636 -0.09610478 -0.105059415
000080 f8 ed a5 3d 11 92 30 3f 89 a8 c9 3d 4c c3 cb bc
       0.081020296 0.6897288 0.09846599 -0.024873398
000090 31 f9 95 be a2 3a 84 bd 8e 30 67 bd 68 cb e4 3d
       -0.2929168 -0.06456496 -0.05644279 0.11171609
0000a0 ab 44 78 3e 9a 13 2f 3d ff 8a f6 3c 1d ea ea be
       0.24244945 0.042743303 0.030095575 -0.4588174
0000b0 94 05 cb be 5d d1 e7 3d 1b 71 ed be 7f e4 60 3d
       -0.39652693 0.1131923 -0.46375355 0.05490541
0000c0 62 fc 92 be d5 c0 08 bd 7d 49 fb bd 0e a4 1c bf
       -0.28708178 -0.033387024 -0.12269876 -0.6118783
0000d0 c9 44 05 bd 82 95 1a 3e 8d 5e 03 3f 88 40 50 3f
       -0.0325363 0.15096095 0.5131615 0.81348467
0000e0 4f fb 1d 3e dc 07 8f 3d d6 3c 8d 3e 1a 7e 36 3e
       0.15427898 0.06983921 0.27585477 0.17821541
0000f0 24 17 2b be 89 9a c5 bd 21 d5 c8 bd 91 8f 9f 3d
       -0.16708046 -0.09648616 -0.09806276 0.07791055
000100 5a 11 e7 bc f1 8b e2 bd c9 aa bd 3d 10 4b c3 3c
       -0.028206516 -0.11061848 0.0926109 0.023839504
000110 6a e0 06 bc 63 12 c8 3d 46 61 02 bd 8b f4 92 3e
       -0.008232215 0.09769132 -0.03183105 0.28702196
000120 eb c4 2a 3f 93 c1 fb 3a a5 01 14 3c b6 41 0b 3d
       0.6670672 0.001920747 0.009033595 0.033998214
000130 ea 70 80 bd 35 2f 9f bd b6 f5 9e bc c6 d0 33 3e
       -0.06271537 -0.07772676 -0.019404273 0.1756011
000140 39 06 97 3d c5 bd 47 be 9a dc b6 bc 5b 1d 0b 3e
       0.07374234 -0.19505985 -0.022321988 0.13585417
000150 90 bc ab be d4 ab 4b bd e7 02 4e 3d 05 ce 0c 3f
       -0.335423 -0.049724415 0.050295737 0.5500186
000160 5d 6b 1c be 6f 3c fa bc cc 00 36 bf 0b 45 b3 3e
       -0.15275331 -0.030546395 -0.71094966 0.35013613
000170 4d 94 9b bf 8a 90 e5 3d 7e d4 cd 3d 02 4f 18 3e
       -1.2154633 0.11209209 0.10050295 0.14873889
000180 ff 52 45 3e 6e 72 6a 3d 1c cc 4a 3e 91 20 81 be
       0.19269942 0.057238035 0.19804424 -0.2522016
000190 bb 25 bf bd 45 3a 1f 3e 2f ef 3b bd df 6b 79 3c
       -0.093333684 0.15549572 -0.0458824 0.015223472
0001a0 2b de 24 bd a9 cd be bd ae d5 1c 3e 3c 34 51 3d
       -0.04025094 -0.0931657 0.15315887 0.051075205
0001b0 be 83 76 be 09 08 cc be ac 41 51 3a 09 99 62 3e
       -0.24073693 -0.3984988 0.0007982503 0.22128691
0001c0 bf a1 a4 3e 98 2a 1e bd d6 8d f8 3d 4b 74 1a be
       0.32154652 -0.03861484 0.12136428 -0.15083425
0001d0 a8 04 8a 3b a6 e6 f5 3d 16 d4 31 3d b2 cc 64 3e
       0.004211981 0.12006883 0.04341515 0.2234371
0001e0 10 33 8a 3e c2 b1 8c b9 d9 f0 cd 3c cc db 30 bf
       0.26992083 -0.0002683532 0.02513926 -0.69085383
0001f0 93 29 ba bd 3d 74 85 3d c2 b2 82 be 4f 8d 0f 3d
       -0.09089961 0.06516311 -0.25527006 0.03504687
000200 b4 97 01 3d 2e 3e 40 be 29 60 6b 3c 5c 99 c5 bd
       0.031638816 -0.1877372 0.014366188 -0.096483916
000210 dd 5b 94 3e b5 75 85 3d ca a9 04 3e 27 27 79 3e
       0.28976336 0.065165915 0.12955394 0.24331342
000220 2f 64 aa bd 42 2e 2a bd 22 d8 96 3e ec 8e 73 bf
       -0.0831989 -0.04154802 0.2946177 -0.95139956
000230 0b 39 66 bf 6a 61 35 3f b6 13 77 3c 83 f8 28 be
       -0.8993079 0.7085177 0.015080383 -0.1650105
000240 4b 53 84 be e5 97 a6 3c 4a 61 60 bf cc 28 5f be
       -0.25844797 0.0203361 -0.8764845 -0.21792907
000250 29 b3 d2 3d f2 06 41 3e 78 00 33 3e 59 03 28 be
       0.10288078 0.18850306 0.17480648 -0.16407527
000260 e0 2c 02 3e 01 e4 37 bc b2 ab 63 3e 5b b0 26 bb
       0.12712431 -0.011223794 0.22233465 -0.0025434706
000270 6b 48 84 bd 33 92 94 be b1 81 2e bf 46 aa b8 3e
       -0.06459125 -0.2901779 -0.68166643 0.36067408
000280 97 99 5b 3e 66 73 06 be 5b f5 be be c0 f4 68 3c
       0.21445309 -0.13129959 -0.37296566 0.014218509
000290 e9 59 4d bb 32 22 e5 bd 16 41 72 3d 6d 95 16 bc
       -0.0031334108 -0.11188163 0.059144102 -0.009190899
0002a0 48 1b 39 be 3b b6 8d 3e fb 02 5a bd d5 1d 1c bd
       -0.18076813 0.27678093 -0.0532255 -0.038114388
0002b0 cb 3d 65 3e ab 16 fb bd 23 4f 8e 3e 55 6e 04 3e
       0.22386853 -0.12260183 0.27794752 0.12932713
0002c0 8f ed 1e be a3 a4 19 3f d8 57 5e 3d cc bc 3b 3e
       -0.15520309 0.6001684 0.054282993 0.18333739
0002d0 02 92 11 bd 2f 2f 32 3e 28 ae 89 3c 22 aa 18 be
       -0.035539635 0.17400812 0.016806677 -0.1490865
0002e0 aa 29 b6 bc 5b 9a 11 3e de 7a 6e bb 19 1a 60 3e
       -0.022236664 0.14219038 -0.0036389153 0.21884955
0002f0 cd d6 a3 3d 12 c3 80 3d 37 f5 56 bd 6a b0 0a 3d
       0.079999544 0.06287207 -0.05247995 0.033859648
000300 a2 2b c9 bc ae ac 85 3f 7f f9 8c 3f 4d 7e 91 3e
       -0.024556939 1.0443323 1.101364 0.28416672
000310 68 b4 9c 3d 59 c3 1b bf 63 54 55 be 03 8e 3a 3c
       0.07651597 -0.6084495 -0.20832972 0.011386397
000320 08 2f a1 3c 5a 6c f2 3e da 05 59 3e 3e 0c 0a bd
       0.019675747 0.4734829 0.21193638 -0.03370308
000330 89 b6 6b 3d 2e c3 1c be 8d 1e fb be 1c ee fa bb
       0.057547126 -0.1530883 -0.49046746 -0.0076577794
000340 1b b2 27 be ff 4a 98 3c 1d b9 a4 bd 9d ab c6 3a
       -0.16376536 0.018590448 -0.0804312 0.0015157346
000350 e2 87 0f 3d 1c ce 6e bf 7e d8 33 3e fa fd 1c 3e
       0.035041697 -0.9328325 0.17563054 0.1533126
000360 7b a8 eb 3d ed 0a a7 3e 41 65 b1 be b1 4a 31 be
       0.115067445 0.32625523 -0.34647563 -0.17313649
000370 72 a1 ca be 0d d3 10 bc 02 0e e9 3d 22 51 8b 3e
       -0.39576298 -0.008839381 0.11379625 0.27210337
000380 f8 23 2e be 16 20 ee 3d 3e f9 00 be 40 df aa bd
       -0.17005908 0.11627214 -0.12595078 -0.08343363
000390 38 83 88 3e fc b8 88 3f da cd 69 3f b2 20 d7 3e
       0.26662612 1.0681453 0.9132973 0.42017132
0003a0 b8 68 2b 3d ac f3 a7 be b0 d2 1f 3e 85 a0 25 3e
       0.041847914 -0.32803094 0.15607715 0.16174515
0003b0 e4 72 56 bc a6 89 c4 3e 9b 78 84 3e 4f 01 6f bc
       -0.0130889155 0.38386267 0.25873265 -0.014587714
0003c0 40 9d 0f 3d 63 ad 80 bd 55 c1 e5 be ab 43 32 bd
       0.035062075 -0.06283071 -0.44874063 -0.043521564
0003d0 30 29 09 be fe 1a eb 3d 74 97 a9 be 55 b8 10 3d
       -0.13394618 0.11479758 -0.33123362 0.035332043
0003e0 9c 94 2e bd fe 89 91 bf 47 41 57 3e 38 21 4a 3e
       -0.042622194 -1.1370237 0.21020995 0.19739234
0003f0 78 e1 02 3f 88 31 b5 3e 8d 7a 3d 3d bb 02 15 3e
       0.5112529 0.35389352 0.04625945 0.14551823

linear_layers.0.bias f4 [32]
000000 df 1f a4 3e 7f 50 ca 3e cc 7b 68 3d 52 20 7b be
       0.32055566 0.3951454 0.056758687 -0.24524048
000010 0e d7 7f 3e e5 f2 af be 1b 1d 1a be 66 36 92 3e
       0.2498438 -0.34365 -0.15050165 0.28557128
000020 46 76 e7 bd 73 ef c0 3e f1 04 1e be 1a 7f ca be
       -0.11301856 0.37682685 -0.15431572 -0.39550096
000030 e9 d0 1c 3e 45 d7 9c be a9 8e ca be 25 42 2c 3e
       0.15314068 -0.30632988 -0.39561966 0.16822107
000040 2f 5f 5d be 6a 96 66 be f3 24 02 bf 50 71 58 be
       -0.21618341 -0.22518316 -0.5083763 -0.21136975
000050 15 12 86 be 24 91 c3 bc 1e 86 f7 3d c0 e8 55 3d
       -0.2618567 -0.02387292 0.12086128 0.05222392
000060 16 46 58 bd b1 79 9f 3e 26 c0 3d 3e b5 52 54 3e
       -0.052801214 0.3114753 0.1853033 0.20734675
000070 69 a8 94 be 80 30 b8 be 6a 5e 0b bd e8 39 de be
       -0.29034737 -0.35974503 -0.034025587 -0.43403554

linear_layers.1.weight f4 [32, 32]
000000 81 14 98 3d 87 b3 84 3e c8 8a 15 3e c3 a3 3d 3e
       0.07425786 0.25918218 0.14603722 0.18519501
000010 54 15 f3 3e 7e 28 2a bf 88 0f ca be b9 77 1b 3e
       0.4747721 -0.66468036 -0.39464974 0.1518239
000020 b7 33 c3 bc 6b 76 90 bc 38 37 80 be 87 de 14 be
       -0.02382837 -0.017634591 -0.2504213 -0.14538012
000030 2e 4c 4a be cf 67 03 3d aa 32 92 3e 0c 19 a1 be
       -0.19755623 0.03208142 0.2855428 -0.31464422
000040 58 47 db 3d 22 0a d5 bd 3b 88 02 3f 99 a1 b7 3e
       0.10706967 -0.10402323 0.5098912 0.35865477
000050 8a c4 06 3f 82 8a 75 3e 19 8f 6f 3d 4d e0 a7 3e
       0.52643645 0.23978618 0.058486078 0.32788315
000060 74 f3 8c 3e 83 2c 51 3c 28 14 80 be 46 30 14 be
       0.2752949 0.01276696 -0.25015378 -0.1447154
000070 95 0b 29 3e 43 f9 4f be 0a 70 7b 3e 7b 19 3d 3e
       0.16508324 -0.2030993 0.24554458 0.18466751
000080 1b 97 66 3d 41 35 d3 bd b7 db 32 bd b5 aa 97 3d
       0.05629645 -0.10312892 -0.043666568 0.07405607
000090 d5 0e b7 3d a1 bd 95 3a 83 6d 20 bd ba e2 b2 bd
       0.08938376 0.0011424312 -0.03916694 -0.08734651
0000a0 ee c2 36 3e a5 56 d2 bd f2 84 a9 bd 93 f2 f1 be
       0.17847797 -0.102704324 -0.082773104 -0.47255382
0000b0 f2 db 6e bd 5d 50 e9 be 15 50 82 3d 1d 49 3b be
       -0.058315225 -0.45569125 0.06362931 -0.18289609
0000c0 c3 ca 05 bf 87 7c 1e bf d9 00 74 3d 12 31 74 be
       -0.52262515 -0.61908764 0.05957112 -0.23846844
0000d0 ed 21 8d bd 46 75 02 bf ac fe 81 3d d0 b2 b3 bd
       -0.068912365 -0.50960195 0.06347403 -0.0877434
0000e0 9e 2a 64 bf 9f 5d 9c 3d 02 6b 93 bd 22 75 9c 3d
       -0.8912753 0.07635044 -0.071981445 0.07639529
0000f0 c5 6d a7 be b5 56 1d be 37 29 82 bc ff f0 25 bf
       -0.32700935 -0.15365107 -0.015888793 -0.64820856
000100 63 a9 bf 3c 35 58 53 bf c0 d9 48 3e 5c 80 cb bd
       0.0233962 -0.8255647 0.19614315 -0.09936592
000110 e0 7e 1d bf ac 1e fc 3c f3 ee 37 3f bb 8d 3f bd
       -0.6152172 0.030776344 0.7184898 -0.046766024
000120 1c fe bb be f6 92 45 bf 00 3f 02 bc dd 17 8d 3f
       -0.36717308 -0.7717737 -0.007949591 1.1022907
000130 b3 23 83 bc fc 9f be 3f fd 19 12 3e f5 24 b1 be
       -0.016008234 1.4892573 0.14267726 -0.34598508
000140 d4 c9 e3 3f fe c4 ae 3f 1e a9 44 bd 47 70 58 3d
       1.7795968 1.3653867 -0.048012845 0.05284145
000150 27 9e 6b 3e 62 a3 08 3f 7e 01 83 bf e8 6b 88 bd
       0.23009549 0.533743 -1.023483 -0.066612065
000160 47 2f 88 3f 41 e8 df 3c 08 a9 c0 bd 70 01 85 bf
       1.0639428 0.027332427 -0.0940724 -1.0391064
000170 98 ca b7 3f 99 a2 39 3f ec 87 40 3c c4 f8 12 40
       1.4358702 0.7251373 0.011751156 2.2964334
000180 ca 9b 93 be 62 e8 aa bb 8e bf 86 be 85 02 af 3e
       -0.28829795 -0.0052156905 -0.2631802 0.3418161
000190 80 bc 26 3e 32 f1 1d 3e a5 6a ab be a1 bf f5 bd
       0.16282845 0.1542404 -0.334798 -0.11999441
0001a0 ab c0 07 be c3 44 73 bd f5 f4 24 bd 6b 0e 9c be
       -0.13257091 -0.05939175 -0.04027267 -0.3047975
0001b0 b7 2a cc 3c d8 03 f5 bd a4 e7 93 3c 20 b0 83 be
       0.024922712 -0.11963624 0.01805479 -0.2572031
0001c0 d1 62 22 be ab 68 a8 be 6b 6c 76 3d a5 47 af 3e
       -0.15858008 -0.32892355 0.06016199 0.34234348
0001d0 32 d2 d7 3d 0a 65 a6 3e d6 02 d1 3d 85 58 41 3c
       0.105381384 0.32498962 0.10205619 0.01180089
0001e0 c2 20 98 3e 0a e8 04 bf d2 c4 d8 bd e6 35 da bc
       0.29712492 -0.51916564 -0.105844155 -0.026637029
0001f0 5e 9e 01 be 8c 1f a4 3d cb 05 f1 3d 36 46 37 be
       -0.12658069 0.080138296 0.11768683 -0.17897877
000200 65 81 60 bd a7 27 5b 3d ce b5 f7 bd fa 97 9c 3e
       -0.0548109 0.053504612 -0.12095223 0.305847
000210 cf 69 e8 3e 0e 4e 0b bc df 72 d7 be 6f 4c ed bd
       0.45393226 -0.008502496 -0.42079827 -0.11586844
000220 02 52 19 bd a5 91 20 bc ba 9f e1 3d bb 0c 91 bd
       -0.037431724 -0.009800349 0.110167935 -0.07082506
000230 a9 e8 3f be 20 c2 47 bd ff fe 39 3e cf 33 1c bd
       -0.18741097 -0.048769116 0.1816368 -0.038135346
000240 8a 3b 24 3d 4c 6b d6 3d 54 57 07 3e 98 74 27 3f
       0.040095843 0.10469684 0.13216907 0.6541228
000250 9e 55 d4 3d 16 b7 5b 3e b9 01 06 3e c3 ab 5c 3c
       0.10367893 0.2145656 0.13086595 0.013468686
000260 4d a2 d5 3e 62 e5 89 3d d4 dd 1b 3d 99 13 b8 3d
       0.41725388 0.067332044 0.03805335 0.08988113
000270 76 21 4e bd 1e 5f e6 bd 55 e2 0d 3d 26 35 4b be
       -0.05032488 -0.11248611 0.034639675 -0.19844493
000280 57 93 9e bf 5e 2c e6 bd d3 c9 15 bf 83 a7 de bd
       -1.2388715 -0.11238931 -0.58511084 -0.10871794
000290 51 4d 2f 3f b2 eb 0c be 57 e6 fb bc 71 9c 33 bf
       0.6847735 -0.13761786 -0.030749483 -0.70160586
0002a0 0e db 60 bf ed da ad bd 75 dc 39 3f 59 b9 2e 3e
       -0.8783425 -0.084890224 0.72602016 0.17062892
0002b0 32 76 02 3f 97 aa 80 be fe 5a 65 3f 06 98 8c bd
       0.509616 -0.2513015 0.8959197 -0.06864934
0002c0 94 5a 7e be 72 bc 72 3d b6 fb e4 be 97 d6 fd bc
       -0.2483924 0.059261747 -0.4472329 -0.030986113
0002d0 e5 e4 13 bf 88 39 d5 bd 34 9d 62 bd 00 cd 64 bf
       -0.5777114 -0.10411364 -0.0553257 -0.89375305
0002e0 a1 4a 6e 3d e2 5a c6 bf 19 de 07 3f 5f 41 32 be
       0.05817664 -1.5496485 0.5307327 -0.1740775
0002f0 ac 0c e0 be a0 8f 2c be db 21 14 bf 4e fa 14 3d
       -0.43759668 -0.16851664 -0.5786416 0.03637152
000300 29 e3 75 bd 3a 62 45 3e 57 97 0a bc 08 5e 9c 3c
       -0.06003109 0.19275752 -0.008458934 0.019087806
000310 bf 33 85 3e 40 86 62 bd 74 f8 93 be 62 5b bf 3c
       0.26016042 -0.055303812 -0.28900492 0.023359004
000320 4e 2d c2 3c dd ba 3c 3e 06 43 34 3c a2 e8 f8 be
       0.023703244 0.18430658 0.011002308 -0.48614985
000330 64 ab 88 bd 5a 72 02 bf ec 9b 33 be 11 3d 88 bc
       -0.06673315 -0.50955737 -0.17539948 -0.016630681
000340 5f 00 4a bf f1 33 07 bf 2a 93 52 be fb 76 0e 3e
       -0.78906816 -0.5281363 -0.20563951 0.13912575
000350 08 e7 41 be 78 38 01 3e 9d 24 ee 3b 0d d6 18 be
       -0.18935788 0.12619197 0.0072675482 -0.14925404
000360 07 46 cc be 28 ec c1 3d 8f 0a 0c be 26 ea e3 3d
       -0.39897177 0.09468871 -0.13675903 0.11128645
000370 57 dd d1 be fb cc 30 be f0 28 7f bd 2d 33 3c bf
       -0.4098918 -0.17265694 -0.0622949 -0.7351559
000380 38 bd 10 3d 64 80 97 3d 2f 4d e0 3d 93 57 18 be
       0.035336703 0.073975354 0.109522216 -0.14877157
000390 bb 95 ad 3d dc 0d 01 3c 0a 77 44 be c1 21 af 3e
       0.084758244 0.0078768395 -0.19186035 0.3420544
0003a0 48 fe 11 3e 6c 64 ba 3d 47 cd a2 3e 2f a8 ae be
       0.14257157 0.09101185 0.3179724 -0.3411269
0003b0 51 f8 eb 3e e1 ba 40 be 16 96 08 3f 68 66 f2 3d
       0.46087888 -0.18821289 0.5335401 0.11835939
0003c0 24 09 0a be c0 89 ce be 3f f6 cf 3e f4 1e 50 be
       -0.1348005 -0.4033947 0.40617558 -0.20324308
0003d0 30 e0 cf 3e d7 61 17 3e 56 3f 86 3e 7b a4 c5 3e
       0.4060073 0.14783417 0.26220196 0.3860205
0003e0 2b f0 23 be e8 c9 86 bb bf 4a ef 3e 14 35 15 3d
       -0.16009586 -0.0041134246 0.46736714 0.036427572
0003f0 95 01 16 be c3 ea b2 be 47 a9 36 3e 78 db 7a be
       -0.14649041 -0.34944734 0.17838012 -0.24497783

linear_layers.1.bias f4 [32]
000000 1e 2d 5e 3e 3f 43 77 3d 01 88 07 be 06 6a c4 be
       0.21696898 0.060366865 -0.13235475 -0.3836214
000010 c1 ab 47 be b2 02 df be 08 b1 3a 3e 44 14 c0 3e
       -0.19499113 -0.43556744 0.18231595 0.3751546
000020 9f 5e 99 bd e4 20 8d 3e 89 1f c8 3e 90 fb b8 bd
       -0.07488751 0.27564156 0.3908656 -0.09032357
000030 88 e0 be be b4 84 d6 be 14 54 13 3e b6 16 78 be
       -0.3728068 -0.4189812 0.14387542 -0.24227414
000040 91 0c 4d 3e a2 27 8a bd 13 af db 3c 44 38 09 bf
       0.20024325 -0.067458406 0.02681688 -0.5360148
000050 c4 ad 5d 3e b7 99 7a bf c5 ee 78 3e d8 d8 43 bd
       0.21648318 -0.978908 0.24309833 -0.04781422
000060 f5 e7 8a bd 96 0d e5 bd da 77 d8 3c 40 b8 f5 be
       -0.067825235 -0.11184232 0.026424337 -0.47992134
000070 22 06 5d 3d 5c 5a 9f 3e ee f8 2a 3d 70 8c ec 3d
       0.053960927 0.31123626 0.041741304 0.11550224

linear_layers.2.weight f4 [6, 32]
000000 7c 32 73 3e d5 07 00 3e e5 c3 1b bf 8b 67 ae 3e
       0.23749727 0.12502988 -0.60845786 0.34063372
000010 4d e7 a9 3e d2 11 81 3e 0b d7 ee 3d 18 22 8b 3e
       0.3318428 0.25208908 0.1166211 0.2717445
000020 bd 2f b3 be fc ba aa bd da c8 5d 3e d0 a3 ec be
       -0.3499736 -0.08336446 0.2165865 -0.4621873
000030 7f d2 ee be 97 2c 9d 3e 81 4f 17 bf 6d 1e bb be
       -0.4664497 0.30698082 -0.5910569 -0.3654665
000040 c9 33 b1 3d 3a 0d d5 be 6b 34 b3 be 9e ac cf 3e
       0.08652455 -0.41611654 -0.3500093 0.40561384
000050 92 2c 2c 3e b1 d5 85 3e ca 4e 72 3e 2e aa d0 be
       0.16813877 0.26139596 0.23662868 -0.40754837
000060 77 9c ef bd 1c 27 8d 3e ae f4 0c 3e 54 5a 80 3e
       -0.11699765 0.275689 0.13765213 0.25068915
000070 a6 78 f7 3d 4f 5f 8d 3e 30 5c be 3c 44 64 27 bf
       0.12083559 0.27611777 0.023237318 -0.6538737
000080 b3 31 63 3e db a6 11 3e 77 a5 1e bf d7 d8 0b bd
       0.22186927 0.14223807 -0.6197123 -0.03414234
000090 d3 1d 19 3e 0a 66 81 3e 8a f0 46 3d 53 0a 83 3e
       0.14952783 0.25273162 0.04856924 0.25593814
0000a0 37 2a b1 be c5 51 47 3e a9 ce 4e 3e 05 5d 11 bf
       -0.3460252 0.19464786 0.20196022 -0.5678256
0000b0 00 9d 04 bf 92 d8 9b 3e 25 2c 20 bf 83 dc d5 be
       -0.51802063 0.30438668 -0.6256736 -0.417698
0000c0 54 4b 91 3d 03 ac f5 be 83 49 b0 be 36 99 8a bc
       0.07094446 -0.47982797 -0.34431085 -0.01691876
0000d0 25 4e 0d 3e ec 2b 86 3e 59 b6 63 3e 74 34 eb be
       0.13799341 0.26205385 0.22237529 -0.45938456
0000e0 fa 06 76 bd cc 9a 8c 3e 08 75 24 be e9 26 81 3e
       -0.060065247 0.2746185 -0.16060269 0.25225
0000f0 82 d6 09 3e 8e c9 84 3e 53 0e 00 3e a0 27 34 bf
       0.13460734 0.25935024 0.12505464 -0.7037296
000100 94 de 2f bf 41 29 cd 3e c0 84 79 bf 0f 19 24 be
       -0.68699 0.40070537 -0.97468185 -0.16025184
000110 76 36 a8 be 97 f4 0e bf a0 91 a6 3e 57 95 39 be
       -0.3285405 -0.55841964 0.32532978 -0.18123375
000120 c0 8d a7 bf 20 d9 c5 bd 40 03 26 3d cf a8 05 bf
       -1.3090134 -0.09660554 0.040530443 -0.52210706
000130 a2 73 7e bf b5 25 03 bf 0a 56 c4 3d 55 f1 a7 be
       -0.9939519 -0.5122941 0.09586723 -0.3280131
000140 90 34 2c 3d 32 f1 4a bf ad 52 f5 3e 17 d4 27 be
       0.042042315 -0.79274285 0.4791464 -0.163895
000150 19 3d 69 3e 57 a1 15 bf a8 f8 96 3e 79 66 7d be
       0.22777213 -0.5844931 0.29486585 -0.24746121
000160 2a 7c 68 3d 90 0f 18 bf 6b e9 c2 3e 00 6b 1b bf
       0.056759037 -0.59398746 0.3806871 -0.60710144
000170 fc e5 3b bf ae a7 89 3e 80 8f 84 3d 8f df b3 be
       -0.73397803 0.26885742 0.06472683 -0.351315
000180 0a eb 33 3e 15 11 f7 be 49 ae 38 bd c4 1a 87 be
       0.17570129 -0.4825522 -0.045088086 -0.26387608
000190 19 ec 3f be 60 fd 8c 3e 26 75 1b bf 5d 27 79 3e
       -0.18742408 0.2753706 -0.6072563 0.24331422
0001a0 98 1a c2 3e c6 da 6c 3e 0c 3a bd 3d 5b 37 86 3e
       0.37910914 0.2313033 0.09239587 0.26214108
0001b0 16 e7 e1 be 31 72 a1 3e 2b 6e d5 be 13 ea 1f bf
       -0.44121617 0.31532434 -0.41685614 -0.62466544
0001c0 21 be dd 3d 15 a5 c5 3e 65 e1 a8 bd 4a 60 6f be
       0.1082728 0.3860251 -0.082461156 -0.23376575
0001d0 e6 e0 28 bf 57 5e 94 3e 6e 0d 93 bf 16 6e 72 3e
       -0.6596817 0.28978226 -1.1488473 0.23674807
0001e0 86 2c f0 be d3 6c 8c 3e 37 66 3a be cc ab 8f 3e
       -0.4690897 0.27426776 -0.18203054 0.28060758
0001f0 c9 dd fd 3d 20 9f 19 bf 80 b1 4c 3e 5b d3 a8 3c
       0.12395818 -0.6000843 0.19989586 0.020608595
000200 29 ad 88 bc cf 1c 9f be 43 f9 54 3e f4 9f 8c bb
       -0.016684132 -0.31076667 0.20798211 -0.004291529
000210 8c 73 0f bc ea 5c e5 be 77 5c 8d be 6c 49 ce be
       -0.008755576 -0.4479745 -0.27609608 -0.4029039
000220 5e ef 2e 3d bc 7c a5 3d 89 5d 0c bf a9 20 3e 3e
       0.042708747 0.08080432 -0.54830223 0.18567146
000230 2f 13 92 3e 8f b0 d9 be 67 99 82 3e ac 3f 97 3e
       0.2853026 -0.42517516 0.25507662 0.29540765
000240 b9 83 30 bf d5 a0 08 3e 73 90 80 3d 98 fe aa bd
       -0.6895099 0.13342603 0.062775515 -0.08349341
000250 4e 04 97 be 0d 59 3a be 46 c9 d0 be c5 96 73 3e
       -0.29495472 -0.18198033 -0.4077856 0.23787983
000260 51 8a 71 3e d6 36 ab be 45 f1 9c bd c0 4e b0 be
       0.2358792 -0.33440274 -0.07663206 -0.3443508
000270 e7 1a 04 be 23 98 26 bf 4e 27 9e be de 3f 87 3e
       -0.12900887 -0.6507589 -0.30889362 0.26415914
000280 ee d6 13 3d 1e cb 87 be 16 55 54 3e 81 fe c2 bd
       0.036093645 -0.26522154 0.20735583 -0.09521199
000290 52 5c d5 3c 72 d7 ea be 65 d8 20 be a6 df a6 be
       0.026044998 -0.45867497 -0.15707548 -0.32592505
0002a0 bc 53 1c 3d e9 e3 8b bb 73 d2 f0 be 45 8c 3e 3e
       0.038165793 -0.0042691124 -0.4703556 0.18608196
0002b0 84 e4 91 3e 33 bb ed be 68 e1 83 3e 41 8c 95 3e
       0.28494656 -0.46431884 0.2575791 0.29208568
0002c0 a0 d3 1e bf 7c 12 0c 3e 62 b6 0d bc 24 8e 87 bd
       -0.62041664 0.13678926 -0.0086494405 -0.06618908
0002d0 65 88 5a be e6 c1 86 be 6a 4e b1 be 31 1a 70 3e
       -0.21341093 -0.26319808 -0.34630138 0.23447491
0002e0 25 e2 4d 3e 58 75 c3 be 5a 49 36 be 3e 1d a7 be
       0.20105799 -0.38175464 -0.17801419 -0.32639498
0002f0 b2 b3 98 be 8e c9 19 bf 80 f3 78 be 99 b0 87 3e
       -0.29824597 -0.60073173 -0.24311638 0.2650192

linear_layers.2.bias f4 [6]
000000 6e 4f 6b be 0a 3c 5d 3e 8a 1b 4d 3d 2b 66 11 be
       -0.22979519 0.21604934 0.05007509 -0.1419913
000010 a7 9f 5b be d1 46 02 3e
       -0.21447621 0.12722327
