LTNtorch/LTN_IoMT/model/LTN_19classes_small.pth (torch, 25728 bytes, 6 tensors)

linear_layers.0.weight f4 [64, 46]
-0.20388848 -0.20048136 -0.0059117614 0.05621106 -0.0015384977 -0.13062878 0.007138367 0.50352246
0.42870578 -0.11126974 0.0744807 -0.068395324 0.05788269 0.005480084 0.2270078 0.24423681
-0.15319766 -0.17351633 -0.24107732 -0.05556504 -0.15248486 0.09931615 0.11513779 0.03192447
-0.2385408 -0.13179764 0.09315774 -0.12126042 0.42528766 0.10596153 0.12142944 0.13476796
-0.050529823 0.03287035 -0.031895135 -0.104962066 0.08590913 -0.03208673 -0.098390274 0.029171642
-0.09675528 -0.038281772 0.08104242 0.22897826 0.021057285 0.016694823 -0.12356647 0.039326884
-0.15723424 0.0006666423 0.0007151711 0.08763905 -0.18822435 -0.27370226 -0.07646837 0.05535419
-0.23071298 0.080185294 0.058197293 -0.0028225917 0.20570916 0.36421394 0.12225597 0.027387356
0.12621872 0.039468512 0.10730094 -0.022689385 -0.11590849 -0.08244556 -0.1485776 -0.042865243
-0.13235277 -0.20289959 0.20104036 0.061729144 0.10895366 0.038522553 0.008629046 -0.117013365
0.04118523 0.13672358 -0.011025186 -0.031339712 0.0729257 -0.043515183 -0.1996929 -0.03978375
0.0012806609 -0.3606557 0.015838174 -0.59557736 -0.0017311986 0.08112053 -0.19474375 0.041303467
-0.04608726 -0.08265178 -0.0571077 -0.09332137 -0.19341128 -0.020303022 -0.0021701255 -0.13394934
-0.031117652 -0.069104336 -0.1234321 -0.43650845 0.23427443 0.22327818 0.19129393 0.0356213
-0.16266824 -0.059371468 0.08828783 -0.00590169 0.029123783 -0.07153276 0.1166785 -0.03463545
0.1351188 -0.2532717 -0.13889083 0.04707729 -0.017084815 -0.101135515 0.062276334 0.080507606
-0.035564046 0.0011859731 -0.030580392 0.07947786 -0.14126675 0.027045319 -0.0715268 -0.12616834
-0.08012767 -0.573293 -0.072409034 0.05773938 -0.10367943 0.07448431 -4.6608886e-05 -0.07931788
0.09465824 0.31617427 0.064205095 -0.12245848 0.13829611 -0.036472548 -0.02374277 0.16538781
0.31312743 -0.093182825 0.116863474 0.10043098 -0.22625189 -0.038311683 0.014998448 -0.10022267
-0.1555271 0.031741627 0.0016545245 -0.06509382 -0.13955092 -0.17285942 -0.06942764 0.028028438
0.18290947 0.10901943 0.028903164 0.057297286 0.13247193 -0.10037053 -0.042938374 -0.023253333
0.07668877 0.12137502 0.032778546 0.17148028 -0.13823059 0.3454615 0.06900671 0.5957728
-0.35587302 0.073471665 -0.31418228 0.029676737 0.08180553 -0.050348885 0.16179596 -0.34342656
-0.25360915 0.026306575 -0.006541014 -0.10097509 0.040392973 0.2996365 -0.4179422 0.04981618
-0.26754585 -0.17305696 -0.1735125 0.021521278 0.03013131 -0.06990075 -0.16572256 0.043188132
0.09816731 0.089475885 -0.024611121 -0.23624963 -0.39228037 0.033633225 0.1108099 0.16298902
-0.12039668 -0.14271823 0.042257406 0.08637642 0.07554349 -0.019974692 -0.026715862 -0.058593135
0.07499097 0.030482193 0.067162186 -0.41621184 0.08398769 -0.021223268 0.06407429 0.19024645
0.25133812 -0.27138272 -0.3558568 -0.08070839 -0.055118073 -0.18909761 0.090877324 0.09238569
0.119336195 -0.36752212 -0.22942983 -0.12097954 -0.38512814 0.24182929 -0.3719921 -0.16062212
-0.022405524 0.01705206 0.0682687 -0.21686286 0.020032289 -0.08896192 0.13654684 0.08717383
00000000: 24c8 50be fc4a 4dbe 73b7 c1bb 923d 663d
00000010: 6ba7 c9ba 8dc3 05be f6e8 e93b d9e6 003f
00000020: 537f db3e 64e1 e3bd 5689 983d d912 8cbd
00000030: 6616 6d3d 4792 b33b bc74 683e 3719 7a3e
00000040: d9df 1cbe 44ae 31be f9dc 76be 2b98 63bd
00000050: fe24 1cbe 4466 cb3d 5dcd eb3d 3cc3 023d
00000060: 0a44 74be f6f5 06be 7cc9 be3d 6257 f8bd
00000070: 4ebf d93e 5c02 d93d 00b0 f83d 9d00 0a3e
00000080: 5cf8 4ebd 0fa3 063d 79a4 02bd 5af6 d6bd
00000090: 20f1 af3d 606d 03bd d780 c9bd 5ef9 ee3c
000000a0: a227 c6bd 59cd 1cbd 91f9 a53d 4779 6a3e
000000b0: 5480 ac3c 95c3 883c 6b10 fdbd 3a15 213d
000000c0: 0302 21be 9cc1 2e3a 527a 3b3a 1a7c b33d
000000d0: e2bd 40be b422 8cbe 739b 9cbd 13bb 623d
000000e0: 0640 6cbe 3038 a43d 4960 6e3d 3bfb 38bb
000000f0: 6ca5 523e 407a ba3e 5761 fa3d 735b e03c
00000100: 7b3f 013e bca9 213d 98c0 db3d 17df b9bc
00000110: 6e61 edbd 38d9 a8bd ba24 18be 7793 2fbd
00000120: 7c87 07be e9c4 4fbe 86dd 4d3e b3d7 7c3d
00000130: 1923 df3d d3c9 1d3d d860 0d3c b4a4 efbd
00000140: d8b1 283d 4401 0c3e fba2 34bc 125e 00bd
00000150: 125a 953d fa3c 32bd 4c7c 4cbe 49f4 22bd
00000160: d9db a73a dda7 b8be 0fbf 813c c277 18bf
00000170: 63e9 e2ba 8522 a63d e86a 47be d32d 293d
00000180: ffc5 3cbd 5645 a9bd c3e9 69bd 461f bfbd
00000190: 9b0d 46be 8652 a6bc aa38 0ebb 042a 09be
000001a0: 72ea febc 9386 8dbd f8c9 fcbd 097e dfbe
000001b0: a3e5 6f3e 09a3 643e 8ee2 433e a4e7 113d
000001c0: 8192 26be 7f2f 73bd 40d0 b43d f762 c1bb
000001d0: 0095 ee3c c57f 92bd 23f5 ee3d e7dd 0dbd
000001e0: 955c 0a3e d4ac 81be 6639 0ebe 1ed4 403d
000001f0: 74f5 8bbc 2320 cfbd 7815 7f3d 2ce1 a43d
00000200: 9bab 11bd a772 9b3a bb83 fabc 4ac5 a23d
00000210: 3ba8 10be 258e dd3c a57c 92bd 4632 01be
00000220: fa19 a4bd 54c3 12bf 304b 94bd 2180 6c3d
00000230: e255 d4bd 3b8b 983d e97d 43b8 6a71 a2bd
00000240: 2edc c13d 98e1 a13e f67d 833d 83cb fabd
00000250: 7f9d 0d3e 3d64 15bd 3380 c2bc 6c5b 293e
00000260: 3d52 a03e a3d6 bebd 1e56 ef3d c2ae cd3d
00000270: 93ae 67be b6ec 1cbd 0dbc 753c 8b41 cdbd
00000280: 7f42 1fbe 8203 023d a1dc d83a e94f 85bd
00000290: 70e6 0ebe 0f02 31be 1430 8ebd e59b e53c
000002a0: 9f4c 3b3e 9445 df3d 54c6 ec3c 8fb0 6a3d
000002b0: b9a6 073e 108f cdbd 26e0 2fbd c67d bebc
000002c0: 000f 9d3d 7793 f83d cc42 063d 8798 2f3e
000002d0: 528c 0dbe 54e0 b03e 6453 8d3d 9184 183f
000002e0: fd34 b6be 5078 963d 80dc a0be a11c f33c
000002f0: a889 a73d a23a 4ebd d7ad 253e 9bd5 afbe
00000300: 0fd9 81be e380 d73c 0156 d6bb 07cc cebd
00000310: 1a73 253d f569 993e 85fc d5be 0d0c 4c3d
00000320: c5fb 88be d835 31be 43ad 31be 644d b03c
00000330: f0d5 f63c 2028 8fbd 2db3 29be 0ae6 303d
00000340: f10b c93d 223f b73d 439d c9bc 6ceb 71be
00000350: f9d8 c8be fec2 093d 4df0 e23d 98e6 263e
00000360: 8992 f6bd ba24 12be 1a16 2d3d 1fe6 b03d
00000370: 8cb6 9a3d f7a1 a3bc 39db dabc 5bff 6fbd
00000380: de94 993d cbb5 f93c 548c 893d b819 d5be
00000390: bd01 ac3d 6bdc adbc 6239 833d f7cf 423e
000003a0: 64af 803e adf2 8abe dd32 b6be 714a a5bd
000003b0: 7dc3 61bd cea2 41be e41d ba3d b534 bd3d
000003c0: 8966 f43d dc2b bcbe a7ef 6abe 1fc4 f7bd
000003d0: 842f c5be 19a2 773e c075 bebe 207a 24be
000003e0: ca8b b7bc c3b0 8b3c 76d0 8b3d 4c11 5ebe
000003f0: c11a a43c ab31 b6bd efd2 0b3e 3188 b23d

linear_layers.0.bias f4 [64]
0.16623558 0.010266586 0.2044708 0.06709269 0.0019546023 0.2377972 -0.0010626196 -0.01770597
0.24801554 0.251631 0.22070178 0.06899126 0.08375879 0.01750837 0.07254911 0.11010209
0.17509396 -0.12636963 0.20050538 0.18495947 -0.07444525 0.054038785 -0.08279812 0.036322124
0.24246965 -0.10329264 0.17415695 0.123563156 0.088889666 -0.19666009 -0.05202181 -0.13011417
0.036649927 0.12997553 0.10149887 -0.09225809 0.13299732 0.12120118 0.13331357 -0.037771802
-0.022861443 0.008084533 0.2261558 0.007905333 -0.00013051795 0.04305828 0.0392943 -0.17642388
0.036496267 0.037293307 0.12816656 -0.0586645 0.05080937 0.19878328 0.18106289 0.24443755
-0.0009747483 0.00033100386 0.22205772 0.31426188 0.2810499 0.09000326 0.05521994 0.12355333
00000000: a939 2a3e 2f35 283c cb60 513e e467 893d
00000010: c918 003b 1c81 733e 9947 8bba 1c0c 91bc
00000020: c9f7 7d3e c7d5 803e a6ff 613e 4a4b 8d3d
00000030: ba89 ab3d b76d 8f3c a194 943d 347d e13d
00000040: d54b 333e 0a67 01be 4851 4d3e 0466 3d3e
00000050: c076 98bd c657 5d3d 1092 a9bd 82c6 143d
00000060: f749 783e 178b d3bd 3356 323e ae0e fd3d
00000070: c90b b63d 4361 49be d214 55bd a63c 05be
00000080: 3c1e 163d 4e18 053e a4de cf3d cff1 bcbd
00000090: 7330 083e 5338 f83d 5a83 083e 9bb6 1abd
000000a0: ec47 bbbc fd74 043c 6395 673e 5f85 013c
000000b0: a5db 08b9 e15d 303d 0ff3 203d 76a8 34be
000000c0: 1c7d 153d dec0 183d 183e 033e 304a 70bd
000000d0: 7c1d 503d d88d 4b3e 8d68 393e d64d 7a3e
000000e0: 4086 7fba 968a ad39 1963 633e efe6 a03e
000000f0: c6e5 8f3e a153 b83d 4e2e 623d 8709 fd3d

linear_layers.1.weight f4 [32, 64]
-0.13956109 0.17048925 0.27529338 -0.041744083 -0.066520296 0.060935464 -0.022944577 -0.06385883
0.41381836 -0.06279025 0.061116144 -0.106102824 -0.19777462 0.1596835 -0.06600382 -0.4675406
-0.032570153 0.04170814 -0.099082835 0.21840504 -0.24385665 0.08763746 -0.17771302 0.055655323
0.044696588 -0.10694929 -0.4589137 -0.35175246 -0.23556145 -0.3101605 -0.065724954 -0.17751496
0.035570234 -0.16810217 0.13367508 -0.22237508 -0.0066291452 0.05181295 0.085984685 -0.13052945
-0.21175861 0.20421872 0.19287331 -0.08087326 0.13530199 -0.07827251 0.12906562 0.035351265
0.24402696 0.050796106 0.025673531 0.071508236 -0.19824807 0.25250483 -0.13847107 0.10876734
-0.3103022 0.05256706 0.089538395 0.09157662 -0.052638713 0.044836946 -0.13661599 0.08182392
0.19028965 -0.11011201 -0.06892219 0.33335006 -0.08712014 -0.269818 0.12328201 0.049924098
0.068558306 0.20760316 0.005956878 -0.07815374 0.30381164 0.06393003 0.29512647 0.05174974
0.1349967 0.014324005 -0.6657455 0.1789894 -0.1343707 -0.13735196 0.31972557 0.11277737
-0.33372673 -0.32698944 0.030203285 -0.105932124 0.023570748 0.034360737 0.07471727 0.01973615
-0.043148413 0.0018874899 -0.19682753 -0.1389966 0.23320313 0.2764298 -0.09417124 0.013392996
-0.06115585 0.25960118 0.19570294 -0.037154768 0.20687488 -0.05333394 -0.13962878 0.13038635
-0.07550972 0.12358844 0.19471121 -0.079890154 -0.07701454 -0.18276718 -0.4442054 -0.15611602
-0.1894268 0.030987147 -0.17265002 0.19463265 0.1815702 0.3566259 0.13798492 -0.1654914
-0.0064021386 0.071812995 0.025735447 -0.23904683 0.1318333 0.22652921 0.019603293 0.11910013
0.025923304 -0.05224628 0.053709853 0.1459505 -0.00993843 0.13527486 0.05151593 0.31270605
0.17269903 0.07133931 0.16296475 -0.24036773 0.03618663 0.2969133 0.008784857 0.039334774
0.14886731 0.004207345 0.120141834 0.10668211 -0.02860113 -0.03234118 0.08878222 0.19662967
-0.08207123 0.15033317 0.15966798 0.33348367 -0.26861748 0.0048341164 0.23269238 0.22061919
-0.017203746 -0.17134194 0.0018002257 -0.09551484 -0.16966933 0.115415104 -0.028308732 0.0015270292
-0.06918239 0.041696474 0.103061266 0.04182618 0.17198904 0.055305127 0.14422524 0.06281255
0.111301415 -0.029725926 0.11911964 -0.19529846 -0.10666069 -0.24152774 0.07499668 0.17815864
0.18191692 0.34498847 0.11348435 -0.12826331 -0.102156684 -0.051320855 -0.13645725 -0.018526195
0.24969989 -0.11747733 -0.10850093 0.17061989 -0.0154700605 0.35167176 0.07726273 -0.38667592
0.14994366 0.36585286 0.15163775 0.03297579 0.15120924 0.14922814 -0.06262351 0.13607395
0.007877024 -0.01571489 -0.1356281 -0.28068778 -0.03612903 -0.30638233 -0.14572664 -0.087642565
-0.21196997 0.06189216 -0.043986704 -0.2981686 -0.01232164 -0.10898861 0.21300028 0.20528002
-0.12991256 -0.080219634 0.20619296 0.11413369 0.039165985 -0.039787788 0.04594308 -0.100045934
0.28733087 -0.3224221 -0.07088168 0.37476218 0.17613266 -0.05221213 -0.22677848 0.1624758
-0.34798032 0.11455836 -0.059736982 0.10358173 -0.20375562 -0.13472138 0.16039036 0.016323317
00000000: 1ae9 0ebe bc94 2e3e 41f3 8c3e d8fb 2abd
00000010: cb3b 88bd 7797 793d 44f6 bbbc 6bc8 82bd
00000020: 00e0 d33e 2d98 80bd ec54 7a3d 704c d9bd
00000030: 6e85 4abe 1284 233e 032d 87bd 7b61 efbe
00000040: 4868 05bd 28d6 2a3d f1eb cabd 92a5 5f3e
00000050: 8fb5 79be 457b b33d 67fa 35be d6f6 633d
00000060: c513 373d 3b08 dbbd bdf6 eabe e618 b4be
00000070: 0537 71be 5bcd 9ebe ce9a 86bd 7bc6 35be
00000080: 18b2 113d fa22 2cbe 1fe2 083e 4bb6 63be
00000090: 4d39 d9bb d139 543d bd18 b03d 83a9 05be
000000a0: 40d7 58be b61e 513e 9580 453e e1a0 a5bd
000000b0: 9b8c 0a3e 564d a0bd c729 043e 7dcc 103d
000000c0: 34e2 793e 940f 503d 4c51 d23c e972 923d
000000d0: 8b01 4bbe 5048 813e 5ccb 0dbe 69c1 de3d
000000e0: eedf 9ebe 8f50 573d e85f b73d 868c bb3d
000000f0: b19b 57bd f2a6 373d 10e5 0bbe 4d93 a73d
00000100: 4adb 423e 6882 e1bd 1427 8dbd dcac aa3e
00000110: 0b6c b2bd 9625 8abe 477b fc3d 367d 4c3d
00000120: 4c68 8c3d ec95 543e ea31 c33b 110f a0bd
00000130: 338d 9b3e bfed 823d d11a 973e 89f7 533d
00000140: 933c 0a3e 3baf 6a3c 4c6e 2abf ff48 373e
00000150: 7998 09be fea5 0cbe 12b3 a33e d2f7 e63d
00000160: 3bde aabe 296b a7be e16c f73c f1f2 d8bd
00000170: 7117 c13c d8bd 0c3d 5e05 993d b5ad a13c
00000180: 64bc 30bd a765 f73a 288d 49be 2055 0ebe
00000190: cdcc 6e3e 3588 8d3e dadc c0bd 4c6e 5b3c
000001a0: 8e7e 7abd 72ea 843e 5a66 483e 992f 18bd
000001b0: 02d7 533e b174 5abd d9fa 0ebe 0084 053e
000001c0: d7a4 9abd f01b fd3d 6062 473e 739d a3bd
000001d0: cdb9 9dbd 5227 3bbe e46e e3be e1dc 1fbe
000001e0: 19f9 41be c2d8 fd3c 2bcb 30be c84d 473e
000001f0: 8aed 393e ac97 b63e eb4b 0d3e 9476 29be
00000200: 08c9 d1bb b112 933d 25d3 d23c b1c8 74be
00000210: 4fff 063e 46f7 673e 1697 a03c c5ea f33d
00000220: 1c5d d43c 3200 56bd ddfe 5b3d 0c74 153e
00000230: ccd4 22bc 7e85 0a3e 5e02 533d 021b a03e
00000240: 04d8 303e 581a 923d 3be0 263e f522 76be
00000250: 6f38 143d 0505 983e 5cee 0f3c 801d 213d
00000260: ac70 183e c5dd 893b ec0c f63d 267c da3d
00000270: eb4c eabc 2f78 04bd 74d3 b53d 4a59 493e
00000280: f614 a8bd f0f0 193e 0180 233e 5fbe aa3e
00000290: 3b88 89be 8267 9e3b e946 6e3e ffe9 613e
000002a0: dfee 8cbc 4374 2fbe 8df5 eb3a 499d c3bd
000002b0: ccbd 2dbe c15e ec3d b7e7 e7bc 9926 c83a
000002c0: 7faf 8dbd ecc9 2a3d c911 d33d ee51 2b3d
000002d0: e51d 303e a187 623d c8af 133e dea3 803d
000002e0: fff1 e33d c983 f3bc fff4 f33d 52fc 47be
000002f0: eb70 dabd 0c53 77be dc97 993d 386f 363e
00000300: 6e48 3a3e 54a2 b03e 7c6a e83d 7557 03be
00000310: 8637 d1bd d135 52bd 73bb 0bbe 3fc4 97bc
00000320: 54b1 7f3e f497 f0bd bc35 debd fbb6 2e3e
00000330: 2376 7dbc 520e b43e ec3b 9e3d 63fa c5be
00000340: d58a 193e 1151 bb3e ed46 1b3e 9f11 073d
00000350: 98d6 1a3e 43cf 183e c140 80bd f856 0b3e
00000360: a20e 013c 83bc 80bc 18e2 0abe 4fb6 8fbe
00000370: 09fc 13bd 25de 9cbe 5d39 15be f27d b3bd
00000380: a80e 59be a282 7d3d 672b 34bd 8ea9 98be
00000390: b4e0 49bc 6c35 dfbd bf1c 5a3e ed34 523e
000003a0: cc07 05be 314a a4bd 3f24 533e edbe e93d
000003b0: 836c 203d 85f8 22bd d02e 3c3d e2e4 ccbd
000003c0: 081d 933e 8214 a5be 6a2a 91bd d4e0 bf3e
000003d0: 1f5c 343e 63dc 55bd 9e38 68be 0e60 263e
000003e0: 7a2a b2be 939d ea3d c4ae 74bd a822 d43d
000003f0: 50a5 50be 67f4 09be 5f3d 243e 7ab8 853c

linear_layers.1.bias f4 [32]
0.12509495 0.09597667 0.04297839 0.1350308 -0.013239131 -0.050445713 -0.198713 0.08411036
0.19299974 -0.11238235 0.06863492 -0.074434906 0.106680274 0.19337076 -0.07346194 -0.19013974
0.03000623 0.13460134 0.021733481 0.0988899 0.14184377 0.04404323 0.050584864 0.0039162994
0.3072647 0.2564461 -0.011217526 0.11069506 0.3046877 0.13765527 0.019940205 0.11275315
00000000: e418 003e 6b8f c43d 1c0a 303d 8445 0a3e
00000010: f1e8 58bc 2aa0 4ebd 6c7b 4bbe 0d42 ac3d
00000020: b9a1 453e b828 e6bd 7790 8c3d 5471 98bd
00000030: 307b da3d fc02 463e 3773 96bd feb3 42be
00000040: a0cf f53c efd4 093e 6a0a b23c ca86 ca3d
00000050: 7e3f 113e ad66 343d 1332 4f3d 4d54 803b
00000060: cc51 9d3e e74c 833e b7c9 37bc 17b4 e23d
00000070: 0700 9c3e 81f5 0c3e a459 a33c 20eb e63d

linear_layers.2.weight f4 [19, 32]
-0.27372512 0.16585957 -0.22505434 -0.28239727 -0.16812417 -0.15448502 -0.10837901 -0.41279173
0.20506716 0.30534673 -0.35351822 -0.37447047 -0.43752825 -0.2673429 0.024401609 -0.037458427
-0.18088016 -0.16213292 0.18645075 0.13902119 0.16368814 0.17717765 0.24624437 0.29837003
-0.38453603 0.14310394 -0.24222107 -0.32026342 0.18786944 -0.25661838 -0.18185304 -0.41422486
-0.26759645 -0.36530855 0.10374604 -0.07285109 -0.2675936 0.27291968 -0.18473741 0.13535061
0.1791894 -0.2830619 0.033157233 -0.38181803 -0.396434 -0.28804487 0.25583702 -0.067548655
0.07942915 0.24435419 -0.13386635 -0.41366425 0.26031888 0.2663284 -0.15791845 -0.23140112
0.22175588 -0.23679894 -0.26212528 -0.25398225 0.08354447 -0.2765014 -0.30393595 0.0042093713
-0.3714511 0.22418645 -0.20402561 -0.390509 0.4412347 -0.2358976 -0.2453348 0.12946567
0.23668481 -0.100762166 -0.39607322 -0.24846631 -0.17942595 -0.16429752 0.15705036 -0.21400489
-0.38235062 -0.29882795 -0.17980023 -0.48333538 0.14989904 0.11445342 0.14278734 -0.0025536118
-0.37843364 0.21511741 -0.15027767 0.20162572 0.17620772 -0.38354 -0.23979004 -0.24094866
0.18421881 -0.34872782 0.09112996 -0.24995463 -0.09337391 0.28648174 -0.15150903 -0.3575345
0.11373274 -0.51322246 0.30907455 -0.21397877 -0.4821207 -0.34550828 0.14458647 -0.19816539
-0.1827275 0.2363607 0.03438391 -0.49386725 -0.008703567 0.07151564 -0.04411101 0.18052594
0.17386593 -0.6907959 -0.05555303 0.23814483 0.19530232 -0.13125752 -0.118667625 0.19673145
-0.12777023 -0.18259822 0.15254067 -0.32855123 -0.2670196 0.022103535 -0.21940495 0.14734168
0.13154663 -0.15969194 0.1172823 -0.062417004 0.005129153 -0.48317105 -0.28738672 0.01965567
0.15231311 0.15390703 0.24790244 0.13570237 -0.11828317 0.2069034 0.16078398 0.22623257
-0.24093628 0.17004094 -0.09149206 0.17055781 0.21127282 -0.25337997 -0.060853377 0.22104716
0.176045 0.1507302 -0.15034534 0.07057874 0.10752691 -0.045906957 -0.3053764 0.2342545
0.2666672 -0.28148696 -0.32074386 0.14458784 -0.23190427 -0.4354095 0.007183643 -0.33284193
0.2213925 0.09516397 -0.18933792 -0.19352156 0.10293264 0.11753024 -0.39144725 -0.24626568
0.19939096 0.021586025 0.21512634 -0.05234298 -0.032442592 -0.14788517 0.07548787 -0.0011437482
0.19154534 0.11366684 0.0036566409 0.08136175 0.1572624 -0.16024843 -0.11025369 0.23663257
0.26091838 -0.31953326 -0.31808484 0.14377417 -0.25057364 -0.40402752 0.06049262 -0.24540566
0.20570117 -0.04902745 -0.17158738 -0.23597053 0.10140624 0.11332714 -0.24533735 -0.080801174
0.21954443 0.007277062 0.24009511 -0.015248752 -0.02795355 0.012824926 0.024910389 0.12331598
-0.41934997 -0.14962783 0.08666271 -0.056329142 -0.11513024 0.24414617 -0.3693088 0.15413949
0.14641863 -0.07317059 -0.6539782 0.29123682 0.10503464 0.090012416 -0.29591286 -0.11552915
0.04720903 0.033467595 0.21397617 0.25680473 0.22031465 0.020654768 -0.1321912 0.041510582
0.11713682 0.3086468 -0.22285339 0.01987897 -0.14861444 -0.18303297 -0.25483316 0.32513288
00000000: b325 8cbe 17d7 293e a574 66be 6096 90be
00000010: be28 2cbe 5231 1ebe d0f5 ddbd 7059 d3be
00000020: 20fd 513e 6856 9c3e 5700 b5be 98ba bfbe
00000030: b403 e0be 2be1 88be e2e5 c73c 026e 19bd
00000040: a638 39be 2c06 26be f2ec 3e3e 925b 0e3e
00000050: dd9d 273e 0f6e 353e 7c27 7c3e f5c3 983e
00000060: e8e1 c4be d789 123e cd08 78be 91f9 a3be
00000070: d960 403e 7c63 83be af37 3abe 4815 d4be
00000080: 6702 89be b909 bbbe ce78 d43d f432 95bd
00000090: 0702 89be 21bc 8b3e ce2b 3dbe 5a99 0a3e
000000a0: 6d7d 373e 7ded 90be e1cf 073d a77d c3be
000000b0: 66f9 cabe 9e7a 93be 12fd 823e f356 8abd
000000c0: c0ab a23d fc37 7a3e 4314 09be cdcb d3be
000000d0: 8448 853e 325c 883e 60b5 21be 6af4 6cbe
000000e0: f913 633e 6c7b 72be 4935 86be f609 82be
000000f0: 5d19 ab3d 9791 8dbe 7e9d 9bbe c4ee 893b
00000100: d72e bebe 2291 653e 17ec 50be ccf0 c7be
00000110: 84e9 e13e 248f 71be 0c39 7bbe a692 043e
00000120: 815d 723e 655c cebd 1cca cabe f46d 7ebe
00000130: 70bb 37be 9c3d 28be cfd1 203e 1924 5bbe
00000140: 76c3 c3be faff 98be 8d1d 38be bc77 f7be
00000150: 227f 193e 8e66 ea3d d836 123e 7f5a 27bb
00000160: 0ec2 c1be bd47 5c3e 64e2 19be f976 4e3e
00000170: cc6f 343e 5b5f c4be 858b 75be 3fbb 76be
00000180: dba3 3c3e 748c b2be 58a2 ba3d 1bf4 7fbe
00000190: d23a bfbd bcad 923e 2f25 1bbe c30e b7be
000001a0: b6ec e83d 8c62 03bf 053f 9e3e 401d 5bbe
000001b0: 86d8 f6be 76e6 b0be 7a0e 143e deeb 4abe
000001c0: eb1c 3bbe 8a08 723e 25d6 0c3d 2bdc fcbe
000001d0: 6899 0ebc cb76 923d bfad 34bd cbdb 383e
000001e0: e909 323e 00d8 30bf 938b 63bd 3ddc 733e
000001f0: 55fd 473e 5f68 06be 0308 f3bd f873 493e
00000200: 33d6 02be 07fb 3abe 9f33 1c3e de37 a8be
00000210: cbb6 88be 7912 b53c b1ab 60be bde0 163e
00000220: 29b4 063e 4986 23be b431 f03d f9a8 7fbd
00000230: 7412 a83b 3262 f7be 5a24 93be ed04 a13c
00000240: f8f7 1b3e ce99 1d3e 23da 7d3e 90f5 0a3e
00000250: 723e f2bd 7cde 533e 8ea4 243e 83a9 673e
00000260: 00b8 76be 361f 2e3e 3060 bbbd b5a6 2e3e
00000270: e757 583e 05bb 81be 6441 79bd 305a 623e
00000280: 2445 343e 0459 1a3e 21f4 19be 968b 903d
00000290: 1237 dc3d ef08 3cbd 4c5a 9cbe 69e0 6f3e
000002a0: 9a88 883e 0f1f 90be 8a38 a4be d60e 143e
000002b0: 5078 6dbe feed debe c464 eb3b 426a aabe
000002c0: b7b4 623e 54e5 c23d cde1 41be 842a 46be
000002d0: 59ce d23d b2b3 f03d c66b c8be 122d 7cbe
000002e0: 252d 4c3e 2dd5 b03c 144a 5c3e 9865 56bd
000002f0: 86e2 04bd 366f 17be 6299 9a3d d2e9 95ba
00000300: 7624 443e 29ca e83d 41a4 6f3b fda0 a63d
00000310: 6509 213e 2a18 24be b0cc e1bd cf4f 723e
00000320: 1897 853e dd99 a3be 04dc a2be 8939 133e
00000330: 304b 80be b2dc cebe 1cc7 773d 9f4b 7bbe
00000340: 54a3 523e 02d1 48bd 9ab4 2fbe 42a2 71be
00000350: 13ae cf3d 0f18 e83d b739 7bbe 167b a5bd
00000360: 41d0 603e 6c74 ee3b 7edb 753e e7d5 79bc
00000370: d8fe e4bc a31f 523c df10 cc3c 178d fc3d
00000380: 0ab5 d6be 0a38 19be 387c b13d 63b9 66bd
00000390: 67c9 ebbd 7401 7a3e 0b16 bdbe bed6 1d3e
000003a0: c4ee 153e 76da 95bd 1e6b 27bf fe1c 953e
000003b0: 671c d73d 6e58 b83d e481 97be 8c9a ecbd
000003c0: 415e 413d 5115 093d 921c 5b3e e97b 833e
000003d0: 2a9a 613e 3034 a93c 215d 07be 0007 2a3d
000003e0: 6ee5 ef3d f406 9e3e ae33 64be 39d9 a23c
000003f0: 622e 18be ff6c 3bbe 7e79 82be d177 a63e

linear_layers.2.bias f4 [19]
0.20762856 0.054169126 0.07547174 -0.046277642 0.050846063 -0.018060554 0.018490499 0.19530721
-0.08509405 0.06795681 -0.13878046 0.2403956 0.19534291 -0.0068548606 -0.17756002 -0.14017484
-0.09638732 -0.39320362 0.21144821
00000000: 959c 543e 72e0 5d3d ed90 9a3d a08d 3dbd
00000010: f643 503d baf3 93bc 6379 973c 9dfe 473e
00000020: ca45 aebd f12c 8b3d 771c 0ebe 442a 763e
00000030: f907 483e bd9e e0bb 4bd2 35be fe89 0fbe
00000040: b766 c5bd fc51 c9be e185 583e
