LTNtorch/LTN_IoMT/model/LTN_6classes_big.pth (torch, 23714 bytes, 6 tensors)

linear_layers.0.weight f4 [64, 45]
00000000: 153e adbd dc35 07bc 859c 21bd 592f fc3d
00000010: 37fb 593e d1b7 8bbd 8e4e 973e f037 f4bd
00000020: bc61 a7bc 74be f43d c7d4 513c 4510 9f3d
00000030: e151 f2bd 34b8 513e 1f15 8b3e a5d1 f33c
00000040: 10cc 5d3d 6f0a 0cbe 7bd4 d3be 9f80 cabd
00000050: b01b c63c 2d65 62bd d081 f93c c012 a43c
00000060: 2fb1 fd3b c55c 87bd 2dad c83c 3b8c fe3d
00000070: 54db 78bd c68f 063d 3f3c f1bc 5104 9e3d
00000080: d993 473d b467 c0bd 16ab 45bc 47c2 bc3c
00000090: bdaa 9a3d 3f1e 373e 4b19 0bbe c202 3cbd
000000a0: a163 29bd fb82 92bd 78b1 2abd e5ae e2bd
000000b0: 293c 253e 0c05 ddbe afd6 3cbd 9c88 78bd
000000c0: 945a fb3d 7dc7 873c 0d66 ae3d 0bd2 e3bd
000000d0: 9679 2dbe ddee f33d 576a debd 8429 84bd
000000e0: 6f4c debc ad2c c1bd 050d 213d 3b36 c43d
000000f0: c4cd 38bf e196 193e 6916 9bbd f3fc 00bd
00000100: e410 76bc 3fee 97bd 9945 c53d 2f03 9c3d
00000110: 6273 59bd 7b43 173b 5309 433d d2a9 c63d
00000120: 6ea4 04be d351 6f3e 794f 1e3d ec31 24bd
00000130: de7e 193d 786f 43bd 77ff 6e3a 886c 893d
00000140: 329a c7bc 0dd8 bdbc 22d6 36bd ab58 7abd
00000150: 0009 9d3d 84bd 37be 7bce 443d 5412 b43d
00000160: 6606 53be 4f77 55bd 737c 5dbd 32b4 8fbc
00000170: 0cc0 01be db4e 05be 49b7 803b 8293 90bd
00000180: 606b ce3d bb5c 243e 79a5 303e 8da2 fdbc
00000190: 9a34 6cbe 4349 f63d 422e a23b ca61 b5bd
000001a0: cb4b bbbe 6e55 b63e cd48 513e bd63 973d
000001b0: dbaa 783d aac7 413d 1ea4 ba3d c530 503b
000001c0: 12f0 eb3c 0c5a 9a3d af8a 84ba f4d5 083e
000001d0: 2b2a ee3d f5a7 733d a97c c23d ed91 1c3c
000001e0: 8772 143d cf53 5bbc dd25 dcbc 0142 4dbd
000001f0: 87a7 a1bd 4ae3 a23d b2bb e9bd 5600 01be
00000200: 3ab8 083e d3cc 5c3d 6577 89bd 45d3 993d
00000210: 27ea b3bd 9214 b6bd 77df b9bd b641 00bf
00000220: cf86 bb3d 341e 2cbd 190d 773c fa8b c73c
00000230: cc16 3f3d 5c05 d2bd 37fe c63d 39d2 543e
00000240: 5a03 b83c 0643 68bd e367 153e 56ef 85bc
00000250: fd57 29be be8e dc3d 647f 11be 9a50 033f
00000260: 71cb 6a3e fa24 c23d 33bd 9dbc 084a 9fbd
00000270: 5164 b23d 53f7 a43d b23e 143e 1824 00bd
00000280: 2ff2 733d dbdd 03be ddc3 a83d 4478 c9bc
00000290: fb7a 353e f993 9f3d 34ff d33b 8f96 5fbe
000002a0: c4d7 c53d ab04 e93d 5b0b 413d 1ff8 643b
000002b0: 70bb 53be 7c2b 113e 4bdf 04be cc8f 20be
000002c0: 832f 12bd 8cec 773d 68fd 423e 21e8 f5bc
000002d0: a632 453e 32e7 c13d d22c 18bd 9252 9d3d
000002e0: d031 43bd 5e88 53bd 8636 89bd 3279 c1be
000002f0: 6c7b e6be b91f bf3d f3ab 8fbd 886e e0bd
00000300: da89 993d 5f08 303e 63a1 00be 10bd 56be
00000310: 296a bc3d e9c4 70bd fe78 983e 5203 d43d
00000320: 9815 4c3d 8212 c2bb a7c6 59bc b792 563c
00000330: d692 7c3d bef8 073e 3f7c 49bc 0cb9 523d
00000340: 7f24 913d 4e0a 99bb ba00 afbd 96c6 a9bd
00000350: af65 193c 7736 be3d 9d99 623d daa4 91bc
00000360: ac5e c4bd ec19 f5bc 4d02 78bd 10b0 703d
00000370: 9005 c0bc 012f a93d 6056 33bd 9606 543e
00000380: e672 0a3d c363 103f a6af 423e 159e e03d
00000390: 93af c2bd 4ab2 3bbe 942b 013e c81c 473d
000003a0: 0166 9b3d b4e9 f2bc d641 01be b98a a83d
000003b0: a5ed edbd 8f8d 1bbd 4e2a 17bd d3e7 8abe
000003c0: 7cd6 0d3f 6df2 b8be 5cf4 d0bd d249 413d
000003d0: 1210 01bd 0070 c83c 0fdf eebd e393 9e3d
000003e0: f785 b83d ea08 763d 5bfb c0bd 91f9 eb3d
000003f0: 5074 5a3d a8a5 73bd eeae 80bd 5adc 96bd
-0.08459107 -0.008252587 -0.03945591 0.12313718 0.21287237 -0.068221696 0.2955212 -0.11924732
-0.020432346 0.119503886 0.012807078 0.07766775 -0.118320234 0.20480424 0.27164552 0.029763052
0.054149687 -0.13675855 -0.41373047 -0.09887814 0.024183124 -0.05527227 0.030457407 0.020028472
0.007742069 -0.06609491 0.02449664 0.124290906 -0.060756043 0.032851957 -0.029447673 0.07715667
0.048724983 -0.0939478 -0.012064716 0.023041857 0.07552097 0.17882632 -0.13583867 -0.045901068
-0.04135478 -0.07153889 -0.041673154 -0.11068515 0.1613623 -0.43167913 -0.046103176 -0.060677156
0.12273136 0.016574616 0.085155584 -0.11124047 -0.16940913 0.11910794 -0.108601265 -0.06453231
-0.027136056 -0.09432349 0.039319057 0.09580656 -0.72188973 0.14998962 -0.07572634 -0.03149123
-0.0150186755 -0.07418489 0.09632415 0.07617795 -0.053088553 0.0023080993 0.047616314 0.097003594
-0.1295335 0.23371057 0.03865001 -0.04008667 0.037474506 -0.047713727 0.0009117047 0.06710154
-0.024365518 -0.02317431 -0.044637807 -0.061119717 0.07667732 -0.17943388 0.048048478 0.08792558
-0.2060791 -0.052115735 -0.054073762 -0.017541979 -0.12670916 -0.13018362 0.0039280993 -0.07059385
0.10079074 0.16050999 0.17250623 -0.0309613 -0.23066941 0.12025692 0.004949362 -0.088565424
-0.36581263 0.35612053 0.20437928 0.073920704 0.060709815 0.047309555 0.09113334 0.003176735
0.028800998 0.07536706 -0.0010112132 0.13362867 0.11629137 0.05948635 0.09496433 0.009556276
0.036242034 -0.013386681 -0.026873523 -0.050111774 -0.078932814 0.07953508 -0.11412753 -0.12597784
0.13351527 0.053906273 -0.06712226 0.075109996 -0.087848954 -0.08890642 -0.09075826 -0.50100267
0.09156572 -0.04202099 0.015078806 0.024358738 0.0466526 -0.102549285 0.097164564 0.20783319
0.022462536 -0.056704544 0.14590411 -0.016349476 -0.16537471 0.107694134 -0.14208752 0.51294863
0.22929169 0.09479709 -0.019255256 -0.07777792 0.0871054 0.08054986 0.14477041 -0.03128442
0.059557136 -0.128776 0.08240483 -0.02459348 0.17722695 0.077918954 0.0064696316 -0.21834777
0.09660295 0.113778435 0.04712997 0.003493793 -0.2067697 0.14176744 -0.12975805 -0.15679854
-0.035689842 0.060528323 0.1904198 -0.030017914 0.19257602 0.09467925 -0.03715212 0.07681765
-0.047654927 -0.05164372 -0.06699853 -0.37787777 -0.45016038 0.093322225 -0.070152186 -0.10958582
0.07496996 0.17190693 -0.12561564 -0.20970559 0.09199936 -0.05878154 0.2977981 0.10352196
0.04982528 -0.0059226165 -0.013291991 0.013096503 0.06166347 0.13278481 -0.012297689 0.051446006
0.07087039 -0.004670418 -0.085450605 -0.082898304 0.009362622 0.09287732 0.05532228 -0.017778803
-0.0958837 -0.029919587 -0.06054907 0.058761656 -0.023440152 0.082609184 -0.043783545 0.20705637
0.033800982 0.56402224 0.19012317 0.10967652 -0.095061444 -0.1832973 0.1261428 0.048611432
0.07587815 -0.029652454 -0.1262277 0.08229584 -0.11617593 -0.037976798 -0.03690558 -0.27129993
0.554054 -0.36122456 -0.10202858 0.04718954 -0.031509466 0.024467468 -0.11663639 0.07743051
0.09009927 0.060067095 -0.09422942 0.115222104 0.05333358 -0.059484154 -0.06283365 -0.073662475

linear_layers.0.bias f4 [64]
00000000: 7ce6 ed3d abfe a23d 783d 89be 7fa4 f9bd
00000010: cb3f 4dbd b86c 55bc 6d69 2abe 33e7 f0bd
00000020: acd2 b2bd 22f1 943d 48c3 893d c4db 543e
00000030: 6c1a 1cbe 9720 f4bd f883 1bbe 7689 b6bc
00000040: 3eb6 32be 387b de3c acde fc3c 22ab 94bd
00000050: 78dc 133e 44bd b6bd 7280 c43d 6c00 243e
00000060: fcec d6bd 6895 a43c 55fe e1bd bcb5 f8bd
00000070: 5529 ab3d 36f5 b4bd 7b58 69bd 42e7 03bc
00000080: 2611 2cbd 2ef1 583b fc65 8cbc 981e 063e
00000090: d6e3 a1bc e5b6 ca3a dd8e 88bc 35b8 b93d
000000a0: 9db6 a13d 1950 8cbe 2bf2 46bd abdc 00bd
000000b0: 9079 ef3d 6137 723e 4189 a63d 9429 c93d
000000c0: 024a 54be ad7e 5abd 1b7b 5e3c 1dde fbbd
000000d0: 25f9 20be 4a3c 1fbc e168 ccbc 5773 a8bd
000000e0: d922 69be a9ac 3c3e a25b 60bd 9cf2 9b3d
000000f0: d0c9 d23c 29b3 823d 1e1e 23bf a119 c3be
0.11616227 0.0795873 -0.2680471 -0.12189578 -0.050109666 -0.013026409 -0.16641779 -0.11762848
-0.08731589 0.07272555 0.067267 0.20786959 -0.15244454 -0.119202785 -0.15187061 -0.022282343
-0.17452332 0.027158365 0.030867897 -0.072592035 0.14439571 -0.08922818 0.095948115 0.16015786
-0.1049442 0.020090774 -0.11034838 -0.12144038 0.08357493 -0.08835833 -0.056969147 -0.008050742
-0.04200854 0.0033102739 -0.017138474 0.13097608 -0.019761961 0.0015465884 -0.016669685 0.09068338
0.07896159 -0.2740486 -0.048570793 -0.031460445 0.11693108 0.23653938 0.08131648 0.098223835
-0.20731357 -0.053343464 0.013579155 -0.12298224 -0.15720041 -0.009718964 -0.024952354 -0.08225124
-0.227672 0.1842524 -0.054774888 0.076146334 0.025730997 0.06381828 -0.6371783 -0.3810549

linear_layers.1.weight f4 [32, 64]
00000000: 9bac a93d 0c4a 7cbe 5577 c7bd ef91 05bf
00000010: 37ad 08bd 592e 563e 7302 8cbe 2a75 05be
00000020: 67b5 43be cd37 b43d 9308 1d3e 8e00 a7be
00000030: d7b6 44bd 9fa0 263e 8b5f 32bd 6a2d 2abe
00000040: 1992 a4bd 476f ee3d c4cd 903e c689 d4be
00000050: 473e b23e ad64 41bb c1a9 5ebe 1a2a 8abe
00000060: be17 55be 11a0 02be 7587 99bc 117b fcbd
00000070: 753b 01be 6b3c bdbd 6292 903e 6f90 19be
00000080: 101e 54be a780 e0bc b9dc 4c3e 3f88 963d
00000090: 7fa3 28be e653 b13d 91e0 5bbd d9a4 e3bc
000000a0: cb6e 91bd 9207 35be 3ddf 1cbe df4f b7be
000000b0: 9198 69bd cb30 aebe 3f67 2a3e c348 da3d
000000c0: 412e 0d3e 56f7 5e3e 5527 9dbd f811 16bd
000000d0: 4dbf fcbc c28b 913e 9daf 8cbe c23e afbd
000000e0: c948 99bd a91f 673e 3f69 c4bd c677 8ebe
000000f0: 0216 90be e295 30be 5822 43be 5f55 0ebe
00000100: 4ce5 edbd fcb9 c2bd 0eae d53d 0b88 8abe
00000110: 3627 dd3d 0515 76bd cf1e a83c f455 b2bd
00000120: a68a 473d f6db 173e 78be 313d 4acb 23bd
00000130: 2c4d 023e 7164 ee3d 25dc 133e 5f68 b63b
00000140: 9ae3 03be a6cf 593d 44c4 163e 4bd4 f9ba
00000150: 0e86 b23d 7a8e 383d 7f63 84bd b62c 133e
00000160: b43e 4c3e 8930 253d 1d93 f33d af66 59bd
00000170: df9f b9bc fdc7 e93d aa3a 69bd b3c2 1cbc
00000180: f9de 30bd 05af 9cbd d705 96bb b959 09be
00000190: 260e 603d 49bf 75bd d35d 3bbd a324 9e3d
000001a0: 23dd 753e 41c0 8c3d 72dd 253d 951a ce3d
000001b0: ec8c 3dbe 471b 183d 9e50 913d 8e03 c9be
000001c0: 97eb 1f3d 85d5 af3d 428f 68be f891 643d
000001d0: 2743 da3d 273f e23b a10e a4be 14b5 d1bd
000001e0: 6dda 223e fefb 33be f3ba 66be 5560 793e
000001f0: db21 e03c 3f87 283e 29dc 583d b522 bc3c
00000200: cf63 6abd 886c acbd 7ebe 723e 11bc a23e
00000210: b40c 7abd efbf cebd 46cb 30bd cc25 b33e
00000220: 79c7 1e3c 96e5 edbe 6c81 5cbe 8227 3c3d
00000230: 92a6 523d 6eed 393e c2ef 58be 1624 953d
00000240: a63b 893d 68f2 a5bd e543 1abe 8095 bbbc
00000250: 533b a6bd 60ea 173d 3312 053e 75ba 37be
00000260: fc0d f7bc 6667 55bd 7570 08be 293d a93d
00000270: 53d1 27bd 3d82 69bd 267e 1d3d df61 a8be
00000280: 79c5 ce3d 2fac 10be 0553 8fbc 4ee3 823d
00000290: 5b3f 393e 9411 813e a1b3 77bd 3671 babe
000002a0: 117c d2bc 908e 7a3e b0b8 353c 3f35 c33d
000002b0: baf0 9fbd 0753 6e3d f777 83be 3013 b93d
000002c0: e28e 27be 8f6a a8bd 8638 c73e 9763 78be
000002d0: e770 8c3c 09cb 053d 8a73 ee3e a4f4 1cbe
000002e0: 4e15 8b3e e8cc 9bbb 6d14 153e 9104 083e
000002f0: d19c 883e 6b97 67be 5665 453e 9138 2b3e
00000300: 32ca ef3b 4103 90b8 1ed0 db3d fbdc 86be
00000310: feb4 12bd 2c5b e23d 61b9 30be 1be5 043e
00000320: b10d 533d c2c1 b6bd 8afa 713d 11f4 d9be
00000330: cbb7 61ba 232e f83e f9eb 1fbe 5e46 193d
00000340: 25e0 b7be 3bfe f5bc 703a 083e f3ff 21be
00000350: 49f2 653e 254c 023e a450 9dbc 6bec 05be
00000360: e39a e8bc 43fb 15bc f663 993c a9f7 923b
00000370: 1a7c 2a3e b6f0 9b3d ed77 513e 318d 94bb
00000380: 781d 883b f0f5 e73b 3a3f 40bd 1024 8abe
00000390: b273 cbbd 0d14 223e a450 65be 9ab1 38bd
000003a0: 74e9 5abe 80f5 40bc eec6 c93c f010 f0bc
000003b0: d8c0 b83b 56bf 133d 8110 debd 1bfa 943d
000003c0: 5133 c63d 347e 773d 31f7 913e 3151 c8bd
000003d0: c174 52be 69c9 593e 303f 3fbd 4d3d 32be
000003e0: 1cc9 443e 0d74 203e 810c df3d ab1a 6abb
000003f0: 81ce c03d 9623 05bf 57de c63d 8530 f3bc
0.08284875 -0.24637622 -0.09739558 -0.521758 -0.033368316 0.20916118 -0.2734562 -0.13032976
-0.19112168 0.08799706 0.15335302 -0.3261761 -0.048025932 0.1627221 -0.043548148 -0.16618887
-0.080356784 0.11642318 0.28281987 -0.41511363 0.3481314 -0.002950947 -0.21744443 -0.26985246
-0.20809838 -0.12756373 -0.018741349 -0.123281606 -0.12620337 -0.092400394 0.2823668 -0.14996503
-0.20714593 -0.027405096 0.20006074 0.07350206 -0.16468619 0.086585805 -0.05368096 -0.027788566
-0.0710121 -0.17678669 -0.15319534 -0.35803124 -0.057030264 -0.340216 0.16640948 0.106584094
0.13787176 0.21774039 -0.076735176 -0.03663823 -0.030852938 0.2842694 -0.27477732 -0.08556892
-0.07484586 0.22570671 -0.095903866 -0.27825755 -0.2814179 -0.17244676 -0.1905607 -0.13899754
-0.116160005 -0.0950813 0.10433589 -0.27056918 0.107984945 -0.06007864 0.020522503 -0.087078005
0.04871621 0.14830002 0.043394536 -0.039988793 0.12724751 0.116402514 0.14439447 0.005566641
-0.12879792 0.053176545 0.14723307 -0.0019060461 0.08716975 0.04505775 -0.0646429 0.14372525
0.19945794 0.04032949 0.11893294 -0.053076442 -0.02265924 0.11415098 -0.056940712 -0.009567904
-0.043181393 -0.0765057 -0.004578333 -0.13413133 0.054700993 -0.059996877 -0.045743775 0.07721832
0.24010138 0.06872607 0.04049439 0.10063664 -0.18510789 0.03713539 0.07095455 -0.39260525
0.039043035 0.085856475 -0.22710899 0.05580327 0.106573395 0.006904501 -0.3204241 -0.10239616
0.15903635 -0.17576596 -0.22532253 0.24353154 0.027359894 0.16457842 0.052944336 0.022965768
-0.05722409 -0.08419138 0.2370548 0.31784108 -0.06104727 -0.10095202 -0.043162607 0.34989774
0.009691113 -0.46464223 -0.21533746 0.045936115 0.051428385 0.18156978 -0.2118521 0.072822735
0.0670083 -0.08102876 -0.15064962 -0.022898436 -0.08116784 0.03708875 0.12995224 -0.17942221
-0.030158035 -0.05210056 -0.13324149 0.082636185 -0.04097111 -0.05700897 0.038450383 -0.3288717
0.10096259 -0.14128183 -0.017495641 0.06391011 0.18090574 0.25208724 -0.06047404 -0.36414498
-0.025693925 0.24468446 0.011091396 0.0953164 -0.07809587 0.05818465 -0.25677463 0.09036863
-0.16363099 -0.082234494 0.3891031 -0.2425674 0.01714368 0.032664333 0.46572524 -0.15327698
0.27164692 -0.0047546513 0.14558573 0.13282992 0.2668214 -0.22616355 0.19276938 0.16720797
0.0073178047 -6.867061e-05 0.107330546 -0.2634047 -0.03581714 0.11052546 -0.17258216 0.12978022
0.05152673 -0.08923675 0.059076823 -0.4256902 -0.0008610456 0.484727 -0.1561736 0.037420623
-0.35913196 -0.030028453 0.13303542 -0.15820293 0.22455706 0.1272436 -0.019203492 -0.13078468
-0.028394168 -0.009154144 0.018724423 0.00448509 0.16648903 0.07614271 0.20455904 -0.004533433
0.0041539036 0.0070788786 -0.046935298 -0.26980639 -0.099341765 0.15827961 -0.22394043 -0.04509125
-0.21378118 -0.011777282 0.02463099 -0.029304951 0.005638223 0.036071144 -0.108429916 0.07274266
0.096777566 0.06042309 0.28508905 -0.09781111 -0.2055235 0.21268238 -0.04669112 -0.17406197
0.19217342 0.1566927 0.10891057 -0.0035721462 0.094143875 -0.52007425 0.09710377 -0.029686222

linear_layers.1.bias f4 [32]
00000000: 530d 643c 5154 403e 26d6 e8bd 1e12 d23d
00000010: 5182 773d fddc 2b3e 152b dabd 50f8 593d
00000020: 23ce 8ebd de46 563e 2737 f93d b95c a83d
00000030: 8df9 593e cdcf 373d 0495 32be b886 dc3d
00000040: 0de3 3b3d d2a4 64bd 0144 743e a98b adbd
00000050: 5cf9 e73d b63c 853d 2d24 96bd 2de5 173d
00000060: 5333 9239 3ad2 d13d 789e 633d 7f28 143d
00000070: 6d33 58bd 3286 f13d 3f12 7ebc ee37 f23d
0.013919192 0.18782164 -0.113689706 0.10257362 0.060427014 0.16783519 -0.106527485 0.053215325
-0.06972911 0.20925471 0.121687226 0.082208104 0.21286602 0.04487591 -0.17439657 0.10767883
0.04587083 -0.055821247 0.23854066 -0.08473904 0.113268584 0.0650572 -0.07331119 0.037083793
0.0002788553 0.10245176 0.05557105 0.036171433 -0.05278342 0.11793174 -0.01550728 0.11827074

linear_layers.2.weight f4 [6, 32]
00000000: d7be 2e3e 70de 653e 4f2c b0bc 1a10 e4bd
00000010: 60f5 963d 4298 89be 5ca0 dabd 7f3e 443e
00000020: 2ab2 2e3e dbb1 2c3e ce2a c3be ce9a 52be
00000030: 7bba a4be 2a42 963d de04 00be 3fba 9e3e
00000040: 25c8 3f3c e9b5 593e 9420 543d 17ce c2be
00000050: c3e1 dabe 3051 763e c9ef 993c 940d 7bbe
00000060: 67a9 533e 4f7d 3d3e 7bb6 2b3e e2e2 9b3d
00000070: 7db4 213e ff17 8f3d 1dd9 92be 08cf fc3d
00000080: 5316 b2bd c81b 91be c9a9 703e 4bc4 e0bd
00000090: 9de2 4ebe 0b28 4fbe 5f61 853e 6e3b 1cbe
000000a0: 03e2 2a3e bb47 2c3e b3de b9be 8287 773e
000000b0: 24f1 babe 6df6 653e 84ae ecbd 22cf 0bbe
000000c0: 5c46 37be ff9b 58be 0cd6 4f3d 47de bfbe
000000d0: 5a65 903d 7153 773e 708f 74be 156c 91be
000000e0: 61a1 563e 79f1 2f3e 5aa5 82be 6a3e bbbb
000000f0: 7597 1c3e f89c fcbb 536f 67be 0070 44be
00000100: 28ea ed3e 3d62 3cbf b840 86be 2083 753e
00000110: 465e f23e ab1a 15bf 434b 96be c472 253e
00000120: 4b5e 57bf cfd4 ed3d b78d 87be a6d5 8e3e
00000130: f541 ffbe 1694 09be ae85 033f 5c33 1f3e
00000140: 7de9 ce3e 61f0 9fbe 060d fd3d b1cb f2be
00000150: 2cd4 fbbe 737d ee3c 3fa9 95be 0269 573e
00000160: c505 b1be 6a74 71bf 9234 b7be 60a2 d83e
00000170: 83bf afbe e44b 10bf a902 db3e 17e0 00bf
00000180: aaf3 d0bd 2e81 f9bd a9b4 0b3f 621b 953e
00000190: d5da 803e 46bf 1d3e 7925 ca3e 4409 ab3e
000001a0: 9f99 b73c dcb8 a8be 284e 593e a106 7d3e
000001b0: 31a9 473e b852 3bbf 3fe9 cdbe a072 513e
000001c0: c166 c4bd 3e06 333e 0484 c8be 0287 c6bd
000001d0: e7df 1dbd e59a e6bd 82a4 d13e c980 6ebf
000001e0: d3c4 7dbe 9014 26be 0528 9abe 4866 8cbd
000001f0: b343 bfbd ef35 953e 0875 54bf 61ad 4dbe
00000200: 3dbb 0cbe c8cb b53d 6cad 99bc 92f5 b03e
00000210: 0257 95bc d0d4 043e cacc 08be 7590 9fbe
00000220: abb9 a4bd 46c0 abbe 1ad0 863d 992c 65bd
00000230: 640a 633e 7295 543e 64d1 c63b fabf 99be
00000240: b855 32bd 3e56 90be 4a60 b2be a3ad 893d
00000250: 2d6a 613e 8612 b2be a462 24bd 84ed 533e
00000260: ad85 50bd 94cd 433d 52d1 d83d fb42 bf3c
00000270: c12a a4be 9a01 dbbe e8fb 653e a257 3a3e
00000280: 55c8 1fbe ac9f 513d 31f5 55be 915e c2bd
00000290: 3bc2 10be 7506 003e fc3c d1be 821a b7be
000002a0: 27c8 b7bd 3ae4 a3be 27ca c13d b15e afbd
000002b0: 2eca 5d3e 8ac0 4c3e dacc 953d 00ec 93be
000002c0: f28e 82bd 80d9 69be b55e b1be af7e 823d
000002d0: c4e2 653e 6ae5 a8be 08e1 6dbe cce6 473e
000002e0: 3284 29be 018a 763c 0b63 ad3d 36de 96be
000002f0: 68b7 8dbe c0ea 0c3e a95f 543e c637 383e
0.17064987 0.22448134 -0.021505503 -0.11135884 0.0737102 -0.26873976 -0.106751174 0.19164465
0.17060152 0.16864721 -0.38118595 -0.20566866 -0.32173523 0.073368385 -0.12501857 0.3100147
0.011705433 0.212608 0.05178888 -0.3804786 -0.42750368 0.24054408 0.018791096 -0.24516898
0.2067009 0.18504833 0.1676883 0.07611634 0.15791507 0.06986999 -0.2868127 0.123441756
-0.08695664 -0.28341508 0.23502268 -0.1097494 -0.20203634 -0.20230119 0.2605085 -0.15257046
0.16687779 0.16824238 -0.3630272 0.24172786 -0.365121 0.22457285 -0.11556724 -0.13653234
-0.17897934 -0.21153258 0.05074124 -0.37474272 0.07050581 0.24152924 -0.23882842 -0.28402773
0.20959999 0.17181958 -0.25516778 -0.0057142274 0.15292151 -0.007709142 -0.2260106 -0.1918335
0.4646771 -0.735874 -0.2622125 0.23975801 0.4733755 -0.5824382 -0.29354295 0.16157061
-0.84128255 0.11612856 -0.26475307 0.27897376 -0.4985501 -0.13435397 0.51375854 0.15546936
0.40412512 -0.31238082 0.12356 -0.4742103 -0.49185312 0.029112553 -0.29230687 0.21036151
-0.34574714 -0.9431826 -0.35782295 0.42311382 -0.343258 -0.563658 0.42775467 -0.50341934
-0.10202725 -0.12182842 0.5457254 0.29122454 0.25166956 0.15404996 0.39481714 0.33405507
0.02241212 -0.32953537 0.2122122 0.2470956 0.19498135 -0.73173094 -0.40217015 0.20453882
-0.09589911 0.1748285 -0.3916322 -0.096937194 -0.038543608 -0.112600125 0.40945822 -0.9316526
-0.24782114 -0.16218781 -0.30108657 -0.06855446 -0.093390845 0.2914271 -0.82991076 -0.2008567
-0.137433 0.08876759 -0.018759452 0.34562355 -0.018229965 0.12971807 -0.13359371 -0.311649
-0.08043226 -0.3354513 0.06582661 -0.055950735 0.22171932 0.20760134 0.006067442 -0.3002928
-0.04353878 -0.28190798 -0.34839088 0.06722572 0.22013159 -0.34779757 -0.040133134 0.20696074
-0.050908733 0.047803476 0.105868 0.023347368 -0.3206387 -0.4277466 0.22459376 0.18197492
-0.15603764 0.051177666 -0.20894314 -0.09490693 -0.14136593 0.12502463 -0.4086684 -0.3576241
-0.08973723 -0.3201006 0.094623856 -0.08562983 0.21659157 0.19995323 0.07314463 -0.2889099
-0.06374921 -0.22836876 -0.34642568 0.06371819 0.22449785 -0.3298753 -0.23230374 0.19521636
-0.16554335 0.015047551 0.084661566 -0.29466408 -0.2767899 0.13761425 0.20739616 0.17990026

linear_layers.2.bias f4 [6]
00000000: e6f1 1d3d a9cc 303d 3b3a 50be 5c81 a3ba
00000010: 35cb b7bd f044 7fbb
0.03856077 0.04316393 -0.20334713 -0.0012474465 -0.089743055 -0.0038951002
