LTNtorch/LTN_IoMT/model/LTN_19classes_med.pth (torch, 25708 bytes, 6 tensors)

linear_layers.0.weight f4 [64, 46]
000000 83 ae c4 bd 60 6b 67 bb 28 4e 22 3e bd 93 b5 bc
       -0.09603598 -0.0035311803 0.15850127 -0.022165174
000010 23 fc 0d 3d 84 ca c0 3d 67 7b 58 be 48 40 10 3e
       0.034664284 0.09413627 -0.21140824 0.14087021
000020 5c a5 61 3d c0 00 c4 bd 85 09 38 bb 14 08 90 bd
       0.05508934 -0.095704556 -0.0028081846 -0.07032791
000030 1f 17 4b 3e 98 ac 04 bf d3 89 97 be d8 13 2d be
       0.19833039 -0.5182586 -0.2959734 -0.16902101
000040 f6 08 92 3d d0 bf 7b bd b9 e3 11 bd 1d 97 31 3d
       0.071306154 -0.061462224 -0.035617564 0.043357003
000050 15 5d d0 3c da aa fe 3c 6f 32 ad 3e 70 fc e0 3b
       0.02543501 0.031087328 0.3382754 0.0068660304
000060 55 6d 78 3e 30 c0 84 3d c2 63 b9 be 9b 01 fe 3d
       0.24260457 0.06481969 -0.36208922 0.1240265
000070 c0 c1 8c be f8 6b aa 3d 75 b6 a8 3d 08 6f c1 bc
       -0.2749157 0.08321375 0.08237926 -0.023612514
000080 99 30 57 3d 5d fa 26 be 33 3e 23 3e f2 7e 2c be
       0.05253658 -0.16306444 0.15941696 -0.16845301
000090 fb 12 df 3d 1d 9d 87 bd a5 db f5 3b 70 ab c1 bc
       0.10892292 -0.06621764 0.0075029903 -0.023641318
0000a0 1c da d1 3d 80 09 d6 bd 09 4d 0d be 2d 8b 01 3e
       0.10246679 -0.10451031 -0.13798918 0.12650748
0000b0 6b 98 b1 bc 00 91 46 bf 5a a7 56 3d c9 68 d3 bd
       -0.021679124 -0.77565 0.052405693 -0.103227206
0000c0 9d 72 21 3e 4a 41 90 3d 87 54 0c bd e0 1c b5 bd
       0.15766378 0.07043703 -0.0342603 -0.08843398
0000d0 d1 71 53 be 9f 7f 84 be d3 c2 ad be 5c c9 27 3d
       -0.20648886 -0.25878617 -0.33937702 0.040963516
0000e0 a3 73 95 be bf 57 be 3d 18 c9 e3 3c 87 bb 14 bd
       -0.29189786 0.0929408 0.02780585 -0.036311653
0000f0 d3 8c 8b be b8 da 96 3e fe a0 6a be 8a 57 59 bd
       -0.27255878 0.29463744 -0.22912976 -0.053062
000100 87 cb 11 3e 6d b8 2d bd ad 4f 5f bc 3a 8e 2e bc
       0.14237796 -0.04241221 -0.013629836 -0.010654027
000110 f2 9d 22 be cd 43 82 3d 89 a5 28 3e 83 24 af bc
       -0.15880564 0.06360588 0.16469397 -0.021379715
000120 63 36 a2 be 3f ca e1 3c bf c8 c2 3d f5 2e cc bc
       -0.3168212 0.027562259 0.095109455 -0.024924735
000130 93 d2 b9 bc 2b 27 d0 3c 79 58 4f 3d 85 55 c6 bc
       -0.022683417 0.025409302 0.050621483 -0.0242107
000140 78 73 23 3e 69 99 97 3c 89 dd 9d bd a6 26 a3 bd
       0.15962017 0.018505769 -0.0770827 -0.07966356
000150 f4 47 94 bd 62 11 d9 3d 72 0a 0c 3c dd 42 0d 3c
       -0.072402865 0.10599019 0.008547412 0.0086218985
000160 64 1f 70 3c ef e0 a9 3d 69 9f f3 bd b4 3c 60 bf
       0.014655922 0.08294856 -0.118956394 -0.87592626
000170 55 b8 c7 bd 4e 85 68 be 87 58 2e 3d c6 35 a2 3c
       -0.097519554 -0.22707102 0.042564895 0.019801032
000180 9b 65 29 bd ff c5 13 3e 42 4d 3a 3e 97 ff 84 be
       -0.041356664 0.14430998 0.18193534 -0.2597625
000190 2f f5 bc be 53 17 f3 3b 15 08 27 bc 28 1d 01 3e
       -0.3690581 0.007418552 -0.010194798 0.12608778
0001a0 2e 78 3c bd 6f 97 ba 3d 33 e3 db bd f3 d9 4d bf
       -0.04601305 0.09110915 -0.10736694 -0.8041069
0001b0 1f b0 08 3e f2 73 d7 3d 10 ef 6c 3e ac a9 3d be
       0.13348435 0.10520162 0.2313807 -0.18521756
0001c0 f1 fe 5c 3d d2 a3 90 3c a4 7b fe 3d bd 00 cf bd
       0.05395407 0.01765624 0.12425926 -0.10107563
0001d0 ad 61 e1 3d bc 7f c8 be c2 da 9a bb 57 00 63 bd
       0.11004958 -0.39159954 -0.004725785 -0.055420246
0001e0 94 ac 95 3e 3b 09 cb 3d 0f 4c 5c 3d 67 e2 48 3d
       0.2923323 0.0991387 0.053783473 0.04904404
0001f0 8b 14 98 bd ab 2c 54 bc a7 05 47 3c 20 85 e0 bd
       -0.07425793 -0.012950103 0.012147344 -0.109628916
000200 4f 2d ec 3d 17 8c 31 be 6c eb 3c 3d c4 27 04 bc
       0.115320794 -0.17338596 0.046122953 -0.0080661215
000210 54 7e a6 bd 1f 98 a7 bc 04 3d 08 3e f4 32 b6 be
       -0.08129564 -0.02045828 0.13304526 -0.3558575
000220 26 d1 ca bc 48 5f 10 3e 5e 0b 60 3d 05 0c 26 3c
       -0.024757933 0.14098847 0.05469834 0.010134702
000230 dc 7d b5 be 98 64 f0 3d 8e 35 dd bd 84 b1 05 3d
       -0.35447586 0.11737937 -0.1080123 0.032639995
000240 d6 10 5e bd 2e 11 4c 3d 21 81 5b 3e cb 0b a2 3c
       -0.054215275 0.04982107 0.21435978 0.019781014
000250 0f 90 02 3d 43 fd 09 be 28 fb ac bd 1d 27 44 be
       0.031875666 -0.13475518 -0.08446342 -0.19155546
000260 c8 05 0c 3f 0f fb 77 3e df 50 4e be e6 08 23 bd
       0.5469632 0.24216865 -0.20148037 -0.039803408
000270 f4 d2 7a be a6 36 1f 3b a2 cc 0a bc dc f3 e5 3c
       -0.24494535 0.0024294048 -0.00847164 0.028070383
000280 16 d3 22 be 76 10 9e 3b e1 39 6f be 4d 1a 4e bd
       -0.15900835 0.0048237396 -0.23361923 -0.05031805
000290 bf bc 36 3c 96 8e b5 3c 8e 24 15 3e 48 28 3c bd
       0.011153399 0.022162717 0.14564726 -0.045936853
0002a0 8b 9e ff bd 0a f3 2a 3c 19 01 3a 3d ae 80 d3 3d
       -0.124814115 0.010433922 0.045411203 0.10327278
0002b0 ff 0a bc 3d ad 40 5b 3c ea 44 bf 3d e8 51 03 be
       0.09181785 0.013382119 0.09339316 -0.12824214
0002c0 06 a4 4b bd 64 13 8d bc c3 c9 79 bd bb 5a 5a bd
       -0.04971697 -0.01722116 -0.06098343 -0.053309184
0002d0 4e e0 2e bc 5c 01 66 3e 9d 0c df 3c 79 59 1d 3f
       -0.010673596 0.22461456 0.027227694 0.6146465
0002e0 74 97 17 3e 7f ef 22 3d a8 31 4c 3e 5d 35 ae bd
       0.14803869 0.039779183 0.19940817 -0.08506272
0002f0 ad 50 ef 3d 25 54 4d bd f5 6c 46 3e 20 d5 90 3e
       0.116853096 -0.050129075 0.19377501 0.282876
000300 c2 12 bf 3a e3 33 62 3c d1 78 b7 3e 33 95 9b 3d
       0.0014577734 0.013806316 0.35834363 0.07596817
000310 7d eb 5a bd 4f d4 b5 bd 95 4d b9 3e 64 f0 84 be
       -0.053447235 -0.08878385 0.36192003 -0.25964653
000320 99 78 8d bd f3 9f f5 3c 20 a2 00 be 65 fc 84 3c
       -0.06907768 0.029983496 -0.12561846 0.016233632
000330 6f 5f 19 3c 6b 4b 97 3b 1e fb 6a 3d ae 1e 84 bc
       0.009361132 0.004617145 0.05736839 -0.01612791
000340 6a 55 c8 3d 22 09 86 bd 83 ff 05 3e 39 0b c8 3d
       0.097819164 -0.06544711 0.13085751 0.097677656
000350 5d 89 cc 3c 80 07 52 3d 56 1c 7a bd 15 0f d6 ba
       0.024967844 0.051276684 -0.06106218 -0.0016331399
000360 b2 ff 50 be 57 67 85 bd f4 da 88 be ad 0e c6 bd
       -0.2041004 -0.06513851 -0.26729548 -0.09670768
000370 41 00 13 be 5a da bb be 8a 02 3b bd 89 1c c1 3d
       -0.14355566 -0.36690027 -0.04565672 0.09429271
000380 60 80 b2 be bb 73 fe bd e8 3b 9b be 86 79 62 3e
       -0.34863567 -0.124244176 -0.30319142 0.2211667
000390 ab c1 07 be b0 6c 34 3f 45 7c 47 bd a0 0c 33 3e
       -0.13257472 0.70478344 -0.048702497 0.17485285
0003a0 48 c9 f8 be d1 cc de bd b6 f4 0a 3e d0 f3 38 bc
       -0.48591065 -0.108789094 0.13569912 -0.011288598
0003b0 2f 9a 0f bd ab 12 54 3e 13 ba 82 3e 34 50 24 be
       -0.03505915 0.20710246 0.25532588 -0.1604622
0003c0 aa 53 35 3c b9 7f a1 3c c8 bd 0d 3e 0b 06 19 be
       0.01106731 0.019714223 0.13841927 -0.14943711
0003d0 0f e7 4e 3e 0c 73 e6 bd 1d 81 84 3e e9 f5 c6 3d
       0.2020533 -0.11252412 0.25879756 0.097148724
0003e0 93 51 45 be 9e f9 85 bd 87 d5 3e 3d 5e ec f2 3c
       -0.192694 -0.06541751 0.046590354 0.029653724
0003f0 f7 e2 38 3e 34 20 91 3d a6 13 db ba fd 27 cc 3e
       0.1805533 0.070862204 -0.001671423 0.3987426

linear_layers.0.bias f4 [64]
000000 d9 19 c5 3e 6c 61 79 3e 2f 19 0f 3e a8 2d e0 3b
       0.38496283 0.2435357 0.1397445 0.00684138
000010 70 28 1d be 7d ab 94 bd 1c 23 d0 bd 23 08 f8 3d
       -0.15347457 -0.07259271 -0.101629466 0.12110927
000020 18 0c 96 be e7 4f 55 3e 92 79 0e 3e 84 8c d5 3d
       -0.29306102 0.20831262 0.13913563 0.10427192
000030 a4 d1 a4 bc 27 e7 09 3f 5f f6 cd be 0b a5 ec 3d
       -0.020119496 0.53868335 -0.4022703 0.11554917
000040 b0 f0 24 3d 1d b9 38 be 7b fa b2 3d 6f 16 55 bd
       0.0402686 -0.18039365 0.087391816 -0.052023347
000050 c4 94 94 3d 21 6d 17 3e 73 25 80 3e 74 f2 2f 3d
       0.07254937 0.14787723 0.2502857 0.04295583
000060 94 0f 9b 3d ce e5 8a bd 11 76 a9 3e 9e 50 02 3e
       0.07571331 -0.06782113 0.3309789 0.12726066
000070 cf 86 23 3e 5f e3 28 bc 8b 13 48 3d 81 30 44 3e
       0.15969394 -0.010308116 0.048846763 0.19159128
000080 3c f1 31 be 2b e1 89 bc 76 1d 7d 3e c8 db fb 3c
       -0.1737718 -0.016831001 0.2471827 0.030744448
000090 33 60 60 be 28 26 2a be ac 21 99 3d d4 e9 20 3e
       -0.21911697 -0.16616118 0.074771255 0.15714198
0000a0 fb 1d 56 3e 6a b6 88 3e 83 74 be 3d ea cb 49 3e
       0.20909874 0.2670167 0.092995666 0.19706693
0000b0 c6 52 89 3c a0 2a 60 be d1 f5 9b be 94 05 e6 3d
       0.016763102 -0.2189126 -0.3046098 0.11231533
0000c0 af ba 8e be fb ff 61 3e 85 98 10 be 3c 7d 02 3e
       -0.27876803 0.22070305 -0.14120682 0.12743086
0000d0 5e 93 ff 3d b9 32 ce 3d be f5 82 b9 a5 fb ab 3e
       0.1247928 0.10068268 -0.00024978624 0.33590427
0000e0 64 cd 73 bd 14 57 28 be 0e 50 56 3e 17 db 66 3e
       -0.059522048 -0.16439468 0.20928976 0.22544514
0000f0 a6 e6 f3 3d 7f fc 1e bd e0 e7 a1 3d 68 a9 7e be
       0.11909227 -0.038815018 0.07905555 -0.24869311

linear_layers.1.weight f4 [32, 64]
000000 94 85 ad bd 08 1d cd be 28 3d 0f 3d b5 13 46 3f
       -0.08472744 -0.40061212 0.034970433 0.7737382
000010 1d f4 40 3d 3c a3 6a 3e 0e 36 24 be 3f 01 51 bc
       0.047107805 0.22913831 -0.16036245 -0.012756645
000020 4b 87 9e be f5 13 d4 bb f6 a5 64 3d 0c e8 60 3d
       -0.30962595 -0.0064721056 0.055822335 0.054908797
000030 db 56 bf 3e 5d cf 70 be 31 20 35 3e 08 d3 05 be
       0.37370953 -0.23516603 0.17688061 -0.13068783
000040 bb 1c e7 bd 1d 59 a5 bd 45 ab 1d bf 38 e9 43 3c
       -0.11284777 -0.08073638 -0.6158946 0.011957459
000050 90 34 31 bf 95 3b 89 be bb 11 f9 bd 70 30 57 3e
       -0.6922083 -0.2680327 -0.12161585 0.21014571
000060 5c 5c 15 3e b8 e1 05 bf 14 cc 3a be 53 06 86 3d
       0.14586014 -0.52297544 -0.18241912 0.06544175
000070 42 0f 49 3e 26 2e 60 3e 3c bd 3b bd 0c e4 98 3d
       0.19634727 0.21892604 -0.045834765 0.074653715
000080 5b 88 64 3e 3c 42 2d 3d 96 71 2a be dd 97 8c bd
       0.2231764 0.042299494 -0.16644892 -0.06864903
000090 13 c7 d3 3d 22 8a 4d 3d 5e 47 bb 3d 45 01 c5 bc
       0.10340705 0.05018056 0.091444716 -0.024048457
0000a0 95 2a 88 3c ed 05 66 3c b7 a3 1f 3e e7 ec 8b 3e
       0.016621867 0.014039499 0.15589796 0.2732918
0000b0 2a eb b5 bc c2 64 30 bd e8 58 4b 3d ea e5 f9 bd
       -0.022206862 -0.04306484 0.049645334 -0.12202056
0000c0 87 ef d2 3d 07 1c e5 3d 09 77 7e 3d c5 cc 8c be
       0.102995925 0.111869864 0.06212524 -0.27499977
0000d0 b1 97 9a be 44 d7 1e be a4 83 82 bc 52 5f 0a 3d
       -0.30193856 -0.15511805 -0.015931912 0.03378231
0000e0 b3 ca 0d 3e 0f 34 6d 3d 57 2f ae 3e dd 71 4a bc
       0.13846855 0.057910975 0.34020492 -0.012356249
0000f0 6a f0 10 3e 8c fb 98 ba 34 cc 19 3f 9a f4 2b 3d
       0.1415421 -0.0011671646 0.60077214 0.041981317
000100 2c dc db 3d c3 15 ac bd b6 76 b0 be a4 06 ef bd
       0.10735354 -0.08402588 -0.3446557 -0.116711885
000110 be 2e c9 be 69 75 cc 3d 5c bb 2a 3e 01 5a 94 be
       -0.39293474 0.09983332 0.16673034 -0.28974918
000120 23 cb a3 be 4d 1d 99 bd cb ba 25 be c1 9d 8c 3e
       -0.3199092 -0.07476292 -0.16184537 0.27464107
000130 a9 c2 8b 3d df 66 8c 3d a4 34 1d 3d 6b 40 31 be
       0.06824238 0.068555586 0.03838028 -0.1730973
000140 f0 af f2 3e 26 85 dd be bb 1e 34 3e e2 44 9b be
       0.47399855 -0.43265647 0.17589848 -0.3032599
000150 40 86 3a be b2 20 f6 bc 68 a6 ae 3e 3a 97 ad bc
       -0.18215275 -0.030044887 0.34111333 -0.021190275
000160 25 38 e4 3e 8f f3 f1 be 14 b9 f1 bc bc 15 ae 3d
       0.44574085 -0.47256133 -0.029507197 0.08500239
000170 b6 82 8c 3e 30 2e 9d bc 30 79 91 be 28 90 af 3e
       0.27443475 -0.019187063 -0.2841277 0.3428967
000180 e2 e1 c7 be 5d 68 24 3e 8d 18 c6 3d a5 dc 0a be
       -0.39039522 0.16055436 0.096726514 -0.13560732
000190 f5 96 66 be 5e db 58 3e 60 34 30 be 61 9f dd 3e
       -0.22518523 0.21177432 -0.1720748 0.4328566
0001a0 0e d5 a8 3d e5 ad 1c 3e 52 22 cf 3d e9 ef b2 3e
       0.08243762 0.1530071 0.10113968 0.34948662
0001b0 8e 98 71 bb 06 0d 24 bf 55 ca c4 be 09 7c 6e bc
       -0.0036864611 -0.6408237 -0.38435617 -0.0145559395
0001c0 95 5c 0c bf f6 84 e3 3d d1 6b d5 be 7e de 08 bf
       -0.5482877 0.11109345 -0.4168382 -0.53464496
0001d0 0c c7 e9 bb c7 80 84 be 3b d0 b6 3e 53 27 33 3e
       -0.007134324 -0.258795 0.35705742 0.1749547
0001e0 ea f5 4c 3e 42 68 19 3e c1 60 7b 3e d3 d8 b6 3e
       0.20015684 0.14981177 0.24548627 0.357123
0001f0 29 57 14 bf 34 1b b1 3d af 32 0a 3e 01 5d c2 3d
       -0.57945496 0.08647767 0.13495897 0.09490395
000200 43 46 c9 bd 61 61 31 be b6 ab df be fd 11 05 3f
       -0.098278545 -0.17322303 -0.43685693 0.5198057
000210 c0 f5 3a 3e 43 c6 88 3e be eb 84 be e0 40 04 bd
       0.18257809 0.26713762 -0.25961107 -0.032288432
000220 11 a5 42 be 81 ee f1 3d 0a 20 28 be 68 df 2b 3f
       -0.1900828 0.11813069 -0.16418472 0.67137766
000230 32 31 44 3e a7 95 cf 3c 0d ea bf 3e 05 49 18 be
       0.19159392 0.025339914 0.37483254 -0.14871605
000240 1a 85 49 be c4 26 da be fd 62 02 bd 1b ef 62 bc
       -0.1967968 -0.426077 -0.031832684 -0.0138509525
000250 93 d6 55 be d1 30 38 be 62 65 12 3e f0 36 c1 3e
       -0.20882635 -0.17987372 0.14296487 0.37737226
000260 c6 88 19 bc ee 65 36 be 26 ba e7 3d bc fc 69 3d
       -0.009370988 -0.1781232 0.11314802 0.057125792
000270 5e a9 bb 3e a0 5b 94 be 77 54 0f 3e 8e 1a 46 3d
       0.36652654 -0.28976154 0.13997065 0.04836517
000280 b3 a9 b0 3d ac b4 94 bd 92 0d 70 3e f6 bb 0c 3e
       0.086261176 -0.07261023 0.23442677 0.13743576
000290 46 e3 86 bd a3 26 d2 bd c4 69 16 3d 98 20 4b 3e
       -0.06586318 -0.102612756 0.03672196 0.19836652
0002a0 7c 9d 85 3e d5 f5 9c bc a1 c7 bb 3e 87 17 83 3e
       0.26096714 -0.01916019 0.36675742 0.25603887
0002b0 c6 ed a3 3d 2b 63 88 be 6e dc 92 be e5 97 91 3e
       0.08004336 -0.2663816 -0.286838 0.284362
0002c0 bc fb 00 bd 2d 6f 02 be 39 34 b3 bd 6b 10 07 be
       -0.031490073 -0.12737723 -0.08750195 -0.13189857
0002d0 e7 e8 e1 bd d7 13 7d 3d d2 54 e1 be ea 51 33 3d
       -0.11030751 0.0617865 -0.44010025 0.04377929
0002e0 4a ed 83 bb 2e cc 4f bd 66 63 4e 3e 5d 7b 06 be
       -0.00402609 -0.05073183 0.20155105 -0.13132997
0002f0 22 ff 9a bd a8 27 83 bd 63 7f 00 3f d6 63 86 bd
       -0.07568194 -0.06404048 0.50194377 -0.06562011
000300 6f 90 f1 3c d9 48 f0 bb 74 6f cd be 75 ba 0a 3d
       0.029487817 -0.007332903 -0.40124094 0.033869226
000310 7f a2 24 3e a9 0f d4 3d d0 9e aa bd e1 74 48 3d
       0.16077612 0.103545494 -0.08331072 0.04893959
000320 d3 24 0c bd 2e a3 54 3e de bf aa bd de 10 bd 3e
       -0.034214806 0.20765373 -0.08337377 0.3692693
000330 26 79 e2 3d 1e 6c f4 3c de 85 1a be 7f 3b 42 3e
       0.110582635 0.02983671 -0.15090129 0.18968008
000340 26 3e 18 be d3 2d ec be 14 d8 30 be b2 fd 1f 3e
       -0.14867458 -0.4612871 -0.17269927 0.15624121
000350 03 2a 22 be 41 be ff bc 53 7c 00 be 13 6f 3b be
       -0.15836339 -0.03121865 -0.12547426 -0.1830409
000360 e9 2c 82 be 75 c9 80 3d 44 41 29 3e a4 c9 8b bd
       -0.2542489 0.06288425 0.16528803 -0.06825569
000370 38 07 66 3d ed ca 8b be f6 24 ca 3e 70 2b 61 bd
       0.056159228 -0.27303258 0.39481324 -0.054973066
000380 5f d2 43 3d 10 92 b1 bd f4 ba fa 3d 6d 1b ca 3e
       0.047808047 -0.08670437 0.1224269 0.3947405
000390 f4 29 f5 3d 62 a1 80 be 34 9f af 3e 68 a1 9b 3d
       0.119708925 -0.25123125 0.3430115 0.07599145
0003a0 cb f3 0d bd 40 2f 05 3d 06 fd b5 3b df 9a c0 3c
       -0.034656327 0.032515764 0.0055538444 0.023511348
0003b0 cb 55 51 3e 3f 91 60 be e3 3c b4 3d e6 6b 53 3e
       0.20442884 -0.21930407 0.08800676 0.20646629
0003c0 96 19 23 3e b4 40 1c be 07 38 98 3e 4a 23 81 3e
       0.15927729 -0.15259057 0.29730245 0.25222236
0003d0 b6 f0 f8 3d 0d 85 ce 3e b3 f5 8f be b4 37 1e 3e
       0.12155287 0.40335885 -0.2811714 0.15450937
0003e0 73 c4 de be 83 ff 72 be ea c8 5d be 64 23 1e be
       -0.43509254 -0.23730282 -0.21658674 -0.15443188
0003f0 1a 13 63 3e 4a 59 ce 3d 61 ec 39 bd c4 5f 9d be
       0.22175255 0.10075624 -0.045391444 -0.30737126

linear_layers.1.bias f4 [32]
000000 64 3a c1 3c 52 d8 92 3b 81 8c 67 3e b7 01 57 3e
       0.023587413 0.004481354 0.22612192 0.20996748
000010 60 21 33 be 43 27 db 3e d3 3c 5a 3e 44 81 39 3e
       -0.174932 0.42803392 0.21312265 0.18115717
000020 78 ac 1e 3e 99 f1 7c bc 60 aa 81 3e 57 62 58 3e
       0.15495479 -0.015438461 0.25325298 0.21131264
000030 01 c7 6a 3e e7 83 f3 bd 04 3d a9 3d 53 73 14 bf
       0.22927476 -0.11890393 0.08263591 -0.5798847
000040 21 ff a2 3e 52 13 dd bc f9 b7 56 be e9 cd 0d 3e
       0.31835273 -0.026986752 -0.20968617 0.1384808
000050 4f b6 a4 3e f7 af 44 bd ad 35 bc be 4c 24 2e be
       0.3217034 -0.048019376 -0.367597 -0.17006034
000060 e6 09 1c 3e d8 e4 83 be fa ef da 3e de f2 a6 3d
       0.15238151 -0.2576053 0.42761213 0.08151792
000070 28 af 8b 3d a3 1c 41 3d df c9 ce 3d f2 7e 18 be
       0.06820518 0.04714645 0.100970976 -0.14892176

linear_layers.2.weight f4 [19, 32]
000000 04 00 1b bf 52 d5 ac be 45 2a 42 bb e9 d8 39 3e
       -0.605469 -0.337565 -0.0029627245 0.18149151
000010 30 aa 87 3e 4c 1d 0e bf 81 2d 43 3e 95 7d de 3d
       0.2649703 -0.55513453 0.19060327 0.108637966
000020 04 3b b5 bc 0b 26 8c 3e eb dc 5e 3e 74 0d ed 3e
       -0.022122867 0.27372774 0.21763961 0.46299326
000030 03 e5 a6 3e ae b4 b3 be 1a 74 75 3d 41 71 06 bb
       0.32596597 -0.35098785 0.059925176 -0.0020514282
000040 4c dc a2 be 62 3c 83 3e f4 ea 95 be b4 7a 21 bf
       -0.31808698 0.25632006 -0.29280818 -0.63077855
000050 b8 df 37 3e c4 39 13 3e 9a 57 8a be 66 5f 16 be
       0.17956436 0.14377505 -0.2701996 -0.14684829
000060 b3 28 c1 3d b8 7e 67 3e a2 a6 07 bf 01 88 e2 be
       0.09431591 0.22606933 -0.52988636 -0.44244388
000070 b2 b1 a8 be bb 7f fa be 79 18 bc be 46 34 b6 be
       -0.3294807 -0.48925576 -0.3673742 -0.35586756
000080 f2 eb ed 3d 68 2b 8c 3e dd 74 5b 3e 3d 7c 16 be
       0.116172686 0.27376866 0.21431299 -0.1469583
000090 82 f1 5e 3e 39 c2 a7 bd e9 33 53 3e c3 6a f2 bb
       0.21771815 -0.08191342 0.20625271 -0.007397981
0000a0 62 01 fb be a2 a5 4c 3e 94 87 88 3e a4 b3 bf be
       -0.49024493 0.19985059 0.26665938 -0.37441742
0000b0 7a 30 05 be 7a 96 35 bf 3c 20 80 3d 27 05 19 be
       -0.13006774 -0.70932734 0.06256148 -0.14943372
0000c0 f5 73 f7 3e d5 9c e7 be 15 73 50 be 1f 82 d8 be
       0.48330656 -0.4523684 -0.203564 -0.42286775
0000d0 9e 31 8e 3d d5 aa 99 3e b0 37 03 3e b1 4f 9b be
       0.069430575 0.30013147 0.12814212 -0.30334237
0000e0 23 5f 46 bf 92 a6 4a be 27 b1 76 3e d4 ba de be
       -0.7748892 -0.19790104 0.24091016 -0.43501914
0000f0 12 68 5a bd a1 40 e1 3d 1f bf 84 3e bb 8e 37 be
       -0.053321905 0.10998655 0.25927064 -0.17925541
000100 49 10 04 3f 26 ca e5 be 53 11 cc 3d 01 07 2d 3e
       0.5158735 -0.4488079 0.09964242 0.16897203
000110 8c ba 85 3e 54 e1 0a bf b6 28 4d 3e 82 ed 28 be
       0.26118886 -0.54250073 0.20035061 -0.16496852
000120 48 7a 96 be ba 04 89 3e f8 b7 61 3e d3 57 23 bf
       -0.29390168 0.2676142 0.22042835 -0.63805884
000130 ad d1 91 be d2 7f 70 be 2d 7e 5f 3e 25 79 3e 3e
       -0.28480282 -0.2348626 0.21825476 0.186009
000140 95 ed 1c bd 59 66 6e 3e 6b 53 8c be 94 62 9f 3d
       -0.038312513 0.2328123 -0.27407393 0.07782474
000150 03 c3 5f 3e 1a 30 30 3e 21 03 6b be 6c 39 30 be
       0.21851735 0.1720585 -0.22950412 -0.17209405
000160 23 79 ed 3c 28 0b 48 3e 07 40 df be 85 5e ca be
       0.028988427 0.19535506 -0.43603536 -0.39525238
000170 e6 db 85 be 51 f1 98 be 70 d0 53 3e 28 8f 83 3e
       -0.26144332 -0.2987161 0.20684981 0.25695157
000180 ee 80 7e bd 7d 50 37 3e a3 f1 9d be b1 0f 13 bf
       -0.062134676 0.17901798 -0.30848417 -0.5744582
000190 56 05 e1 be 48 7e 34 3d b6 35 5a 3e 96 a8 87 be
       -0.43949383 0.044065744 0.21309552 -0.26495808
0001a0 57 2a c5 be e4 f4 5f 3e f6 51 83 3e f3 60 d2 bd
       -0.38508865 0.21870762 0.2564847 -0.10272398
0001b0 49 ef ac bc 37 55 96 be ae 6e 47 bf c8 5a 6e be
       -0.021110194 -0.2936189 -0.7790326 -0.23276818
0001c0 23 71 b5 3e c6 26 00 bf 94 df 81 be 91 3c da be
       0.3543788 -0.50059164 -0.2536589 -0.42624334
0001d0 de 0a c8 3d b0 a5 43 3e 92 09 40 3e b2 1a bc be
       0.09767698 0.19106174 0.18753651 -0.36739117
0001e0 7e 08 56 bf 61 5d 78 be cb f7 6b 3e c0 e0 92 be
       -0.8360671 -0.24254371 0.23043744 -0.28687096
0001f0 f0 df c6 3e a2 56 04 3e 34 6f 7e 3e 7c 98 44 be
       0.38842726 0.12923673 0.24847108 -0.19198793
000200 ca 30 91 be 39 da 09 bf 72 3f ca be 11 89 1d be
       -0.28357536 -0.53848606 -0.3950153 -0.15384318
000210 12 b5 47 3e d6 2a 68 3d 98 92 4b 3e 3c d0 12 bf
       0.19502667 0.056681477 0.1988014 -0.5734899
000220 88 6f 0e bd 0b 22 47 3e c1 41 69 3e 3c 6c 02 be
       -0.034774333 0.1944658 0.2277899 -0.127366
000230 bc da ab bd ec 96 7b 3e f7 a2 09 be b0 df a1 be
       -0.0839133 0.24569291 -0.13441072 -0.31615973
000240 22 59 0d bf 13 7b 02 3d a5 b3 20 bf a6 e9 e0 be
       -0.5521413 0.031855654 -0.62774116 -0.4392826
000250 23 27 2e 3e 96 61 41 be 20 8f 8d 3e fb a0 00 3e
       0.17007117 -0.18884882 0.27648258 0.12561409
000260 15 c4 d5 3d af e2 1a be 94 fd ff 3d 87 9c 0e 3e
       0.1043779 -0.15125535 0.12499538 0.13926898
000270 96 5c aa be b9 09 fb 3d a1 cf 4d 3e c7 a0 ab be
       -0.33273762 0.12257714 0.20098735 -0.335211
000280 6d 37 e6 3d 2f 0e 9b 3e 65 41 7f 3e e9 b0 6f bd
       0.112410404 0.3028426 0.2492729 -0.058518324
000290 23 0f ae be 0c 81 90 bd 5e 63 14 3e 3b 3d 20 be
       -0.33995923 -0.07055864 0.1449103 -0.15648358
0002a0 25 24 9a be 3d f1 e1 be ee 8e bf be 20 d4 a1 bd
       -0.301057 -0.44129363 -0.37413734 -0.07901788
0002b0 f6 48 9a 3e 46 5a 72 bd ec 83 97 3e af ba a7 be
       0.3013379 -0.059168123 0.29592836 -0.32759616
0002c0 e5 89 0a bc 94 62 d2 3d e2 8a bd be d2 c0 4c 3e
       -0.008455728 0.102727085 -0.37020022 0.1999543
0002d0 77 ef 94 3e db c2 7a 3e bf eb 81 be a0 78 95 be
       0.29088947 0.24488394 -0.25375172 -0.29193592
0002e0 c1 76 3b 3c 5b dd ae be 4a 42 71 be 90 51 a8 be
       0.011441887 -0.34153256 -0.23560444 -0.32874727
0002f0 66 c9 0f 3e 43 27 9b be 90 91 36 3d 07 a6 00 be
       0.14041671 -0.30303392 0.044572413 -0.12563334
000300 71 21 bd 3d 09 16 98 3e 88 74 24 3e 94 12 32 be
       0.09234894 0.2970431 0.16060078 -0.173899
000310 4d 2c a5 be e1 98 fc bb 3d dd 13 3e f2 36 44 be
       -0.3226036 -0.0077086543 0.14439864 -0.19161585
000320 37 79 9e be 3d ab db be 54 a9 57 be 4d b9 3d bd
       -0.30951855 -0.42904082 -0.21060687 -0.046319295
000330 f2 fa 99 3e 1c cd 60 3d 2f 6c 99 3e c4 23 b6 be
       0.3007427 0.054883108 0.2996535 -0.35574162
000340 a1 9c 67 3d a0 33 21 3e 23 2c cf be ca 03 3f 3e
       0.056545857 0.1574235 -0.4046336 0.18653789
000350 a1 bd 96 3e 25 d6 81 3e 4e 84 81 be 0e f5 a5 be
       0.2944155 0.25358692 -0.25296253 -0.32413524
000360 3c 19 79 bd ad d6 b3 be 3a 15 cb bd 66 87 b6 be
       -0.06081508 -0.35124722 -0.09916158 -0.35650176
000370 eb fd 69 3e d5 40 61 be da a0 61 be 33 5f 06 be
       0.22850768 -0.21997388 -0.22034016 -0.13122253
000380 14 61 c6 be b6 4d 71 be d0 77 39 be 9b 78 50 3e
       -0.3874594 -0.235648 -0.18112111 0.20358507
000390 bc 24 07 3e 39 7b 38 3e 8d 8c ec 3d a3 ea 27 3e
       0.13197607 0.18015756 0.115502454 0.163981
0003a0 95 01 27 3e 22 98 25 3d ce df 89 3e 7b 6b 0d bf
       0.16309197 0.04042829 0.26928562 -0.5524213
0003b0 bb e8 7a be cd 7c db 3d 40 b3 36 3e b9 00 9e be
       -0.24502842 0.10717163 0.17841816 -0.30859926
0003c0 49 4c 8f be 68 47 af 3d d2 32 02 bf a2 70 95 3e
       -0.27987888 0.085585415 -0.50858796 0.29187495
0003d0 e5 67 4e 3e 09 b2 3b bf 85 f8 f2 be 52 cd 28 be
       0.2015682 -0.73318535 -0.4745523 -0.16484573
0003e0 0f 8a 9e 3d 3e 55 05 be f0 24 65 3e 46 f2 8e 3e
       0.07741176 -0.13020799 0.22377372 0.27919215
0003f0 9c dc 96 bd 09 8c 88 3d 44 79 1f bc 4c 95 88 be
       -0.07366297 0.066673346 -0.009733502 -0.26676404

linear_layers.2.bias f4 [19]
000000 14 cf eb bd 98 f0 9e 3c a0 6c 9e bd 79 fc af 3d
       -0.115141064 0.019401833 -0.07735562 0.08593077
000010 5f dd 05 3e 81 90 65 3e c1 cf 19 3e 8b 6a 96 3e
       0.13072728 0.22418405 0.15020658 0.2937816
000020 97 18 7b 3e a4 c7 1c 3e 35 f3 de bc 76 ab e5 3d
       0.24521099 0.15310532 -0.02721558 0.11214344
000030 59 c9 90 3c bb 05 0a bf a2 b7 a5 3b 3d 09 ae be
       0.017674135 -0.53914994 0.005057291 -0.33991423
000040 9f 8f cb be aa 68 25 bf 28 34 00 bd
       -0.39758012 -0.6461283 -0.03129974
