LTNtorch/LTN_IoMT/model/LTN_6classes_med.pth (torch, 23714 bytes, 6 tensors)

linear_layers.0.weight f4 [64, 45]
0.46748912 -0.08001388 0.054130018 -0.009804293 -0.09842255 0.074216016 0.08184046 -0.08694327
0.09717577 0.009169888 -0.08488388 -0.15535118 0.07809488 -0.06667555 -0.06546684 -0.035021253
-0.34192947 -0.1622718 0.02819261 0.035818566 0.07899185 0.019857725 0.1036034 0.06944241
0.015090174 -0.031378318 -0.14442745 -0.040559728 0.11756407 -0.01990126 -0.013867842 -0.04185531
-0.018204428 -0.06410284 -0.124831975 0.056215614 -0.10548224 -0.0024752903 0.10506188 -0.12527663
0.22065365 0.020450603 0.054498646 0.07576781 0.032017875 0.06228009 0.006247705 0.13584347
-0.1057608 -0.19376789 0.10710675 -0.110138245 -0.028349921 0.058606602 0.06260898 -0.10413323
0.05220156 -0.05091911 0.026433123 -0.13846712 -0.14844328 0.2960559 0.14731044 0.22659811
0.05781501 0.03097765 0.0136535 -0.040153157 0.12005277 0.055192824 0.036803473 -0.036982443
0.10466106 0.10080086 0.06001236 -0.015042758 -0.0063960776 -0.029406838 -0.31222627 0.12038749
-0.23184606 0.0062326635 -0.4414426 0.04606346 -0.13117772 -0.38289553 0.08946204 0.12736812
0.2865192 -0.011753873 0.117397495 -0.22457612 0.059329472 -0.23929793 -0.26672226 0.07972222
0.10366169 0.13279355 0.091767564 0.030312609 -0.019189695 -0.08955404 -0.037842307 0.10640197
-0.009986606 0.55072564 0.071472034 -0.00079975877 -0.27343658 0.08155309 0.09397069 0.009136269
0.109081425 -0.04368928 -0.04693803 -0.19531256 -0.026578274 -0.006255344 0.058667753 -0.067664035
-0.0014748111 0.04528963 0.01081536 -0.038706094 -0.11629076 -0.10114764 0.07054232 0.092390224
-0.09161245 0.048828926 0.2925154 0.05815126 -0.0068125776 -0.08901846 0.07587069 -0.27214825
0.080950685 -0.12870194 -0.31271636 -0.30925518 -0.11044775 0.19911532 -0.17704953 -0.22259462
-0.007148181 0.11503689 -0.059788693 0.011194138 0.105721705 0.073061004 0.22176337 0.44465607
0.20617563 -0.078458264 0.075214006 0.103429444 0.045910474 -0.08665336 0.07368872 0.0027175313
0.1704919 -0.018597994 -0.045818422 -0.11568186 0.14327782 -0.12539762 0.047300976 0.052592676
-0.030104399 0.0801151 0.008752988 0.043642882 0.034291066 -0.092049554 -0.06845983 -0.020298958
-0.08076004 0.03189008 0.06266693 -0.05610826 -0.5764152 0.1542704 -0.04772619 -0.078072086
-0.094014205 -0.14148645 -0.14836913 0.11565367 0.16705185 -0.11961074 -0.15454766 0.044070154
-0.1399054 -0.13631713 -0.19003698 0.17542663 0.47591478 0.17267431 0.10629764 -0.043259557
0.12793197 0.09932747 -0.13460617 0.020820942 0.051139995 0.029455494 -0.004660815 0.033700477
-0.061487794 0.014093499 0.018278042 0.049917143 0.06289767 -0.05210673 -0.024091396 -0.18310434
-0.025484163 -0.13351636 -0.11879564 -0.029020036 -0.23373555 -0.040670257 0.12198346 -0.013115968
0.1478778 0.28862992 0.06153257 0.064751655 0.14747575 0.06364518 0.0028159407 -0.08902406
-0.033882983 0.10906393 0.02540489 -0.14802384 -0.16815907 -0.13934478 -0.14801674 0.077925265
-0.6713051 -0.34920534 -0.071821705 -0.002945986 -0.05624154 0.026911855 -0.06554301 0.06143318
0.0962578 0.059801552 0.013266437 0.0057051824 -0.03482977 0.119002104 -0.03537195 0.057416808
00000000: bc5a ef3e 51de a3bd 70b7 5d3d 2fa2 20bc
00000010: c391 c9bd 91fe 973d f99b a73d 500f b2bd
00000020: 1704 c73d 4c3d 163c 9ad7 adbd 6114 1fbe
00000030: 35f0 9f3d 318d 88bd 7b13 86bd 7272 0fbd
00000040: 6111 afbe 942a 26be 30f4 e63c 7db6 123d
00000050: 7bc6 a13d abac a23c 052e d43d d237 8e3d
00000060: c73c 773c 8d86 00bd cae4 13be f521 26bd
00000070: 6ec5 f03d f807 a3bc f235 63bc 7970 2bbd
00000080: 7421 95bc 5a48 83bd e8a7 ffbd 5842 663d
00000090: 1307 d8bd 7b38 22bb af2a d73d 8448 00be
000000a0: 08f3 613e 0688 a73c f939 5f3d 272c 9b3d
000000b0: 2d25 033d 6819 7f3d 8cb9 cc3b 8d1a 0b3e
000000c0: 1e99 d8bd 176b 46be c95a db3d 2990 e1bd
000000d0: 183e e8bc 7a0d 703d 2339 803d ce43 d5bd
000000e0: 4ed1 553d 8f90 50bd 478a d83c 53ca 0dbe
000000f0: 8401 18be a494 973e 8cd8 163e 5609 683e
00000100: 6fcf 6c3d d7c4 fd3c eeb2 5f3c a377 24bd
00000110: 3ade f53d df11 623d 3dbf 163d e77a 17bd
00000120: 8a58 d63d ae70 ce3d 85cf 753d e675 76bc
00000130: 3096 d1bb 9ce6 f0bc 1fdc 9fbe b78d f63d
00000140: 0e69 6dbe 5f3b cc3b c404 e2be 0aad 3c3d
00000150: 7453 06be e20a c4be e037 b73d ca6c 023e
00000160: a5b2 923e 5193 40bc 196e f03d 48f7 65be
00000170: 7603 733d 840a 75be d28f 88be 6745 a33d
00000180: 954c d43d 08fb 073e a2f0 bb3d 2652 f83c
00000190: b533 9dbc 1c68 b7bd 8900 1bbd 47e9 d93d
000001a0: dd9e 23bc 5bfc 0c3f ee5f 923d e7a6 51ba
000001b0: e1ff 8bbe 4e05 a73d b573 c03d 4ab0 153c
000001c0: 1566 df3d 88f3 32bd 1742 40bd 0400 48be
000001d0: aeba d9bc a1f9 ccbb 994d 703d 7193 8abd
000001e0: 734e c1ba 9e81 393d e832 313c 488a 1ebd
000001f0: da29 eebd 7e26 cfbd 7e78 903d 1637 bd3d
00000200: 4f9f bbbd d700 483d 94c4 953e 0430 6e3d
00000210: 0b3c dfbb 4f4f b6bd 1862 9b3d 0457 8bbe
00000220: 79c9 a53d 71ca 03be 5c1c a0be b256 9ebe
00000230: 6e32 e2bd e3e4 4b3e 794c 35be d8ef 63be
00000240: 4a3b eabb 7698 eb3d fde4 74bd 9e67 373c
00000250: 9f84 d83d 02a1 953d f015 633e f6a9 e33e
00000260: b41f 533e baae a0bd cd09 9a3d d1d2 d33d
00000270: 9f0c 3c3d 5177 b1bd 1dea 963d 9c18 323b
00000280: 6e95 2e3e d25a 98bc 19ac 3bbd 9cea ecbd
00000290: 6cb7 123e 3c68 00be abbe 413d 6b6b 573d
000002a0: 809d f6bc 6313 a43d b168 0f3c e1c2 323d
000002b0: ca74 0c3d 7a84 bcbd ab34 8cbd 004a a6bc
000002c0: 8565 a5bd 2c9f 023d 8557 803d c6d1 65bd
000002d0: f28f 13bf 0ff9 1d3e 8a7c 43bd 42e4 9fbd
000002e0: 858a c0bd d3e1 10be 14ee 17be d5db ec3d
000002f0: a40f 2b3e 7af6 f4bd be41 1ebe e882 343d
00000300: 5c43 0fbe b896 0bbe 0e99 42be 0aa3 333e
00000310: 1aab f33e 89d1 303e 94b2 d93d ef30 31bd
00000320: 9900 033e 336c cb3d 33d6 09be ae90 aa3c
00000330: 2c78 513d a64c f13c c0b9 98bb 8309 0a3d
00000340: a0da 7bbd 6be8 663c d5bb 953c eb75 4c3d
00000350: 7ed0 803d de6d 55bd 525b c5bc b47f 3bbe
00000360: 2ac4 d0bc 83b8 08be 214b f3bd 6dbb edbc
00000370: 5f58 6fbe db95 26bd 77d2 f93d 5be4 56bc
00000380: 476d 173e 4dc7 933e 9309 7c3d 849c 843d
00000390: e203 173e 6758 823d a58b 383b 3f52 b6bd
000003a0: e2c8 0abd e95c df3d ea1d d03c 9093 17be
000003b0: e431 2cbe 66b0 0ebe b391 17be 4897 9f3d
000003c0: a7da 2bbf 0bcb b2be 4217 93bd 7211 41bb
000003d0: 875d 66bd 4076 dc3c 6a3b 86bd 5ca1 7b3d
000003e0: cf22 c53d 79f2 743d 785b 593c 8af2 ba3b
000003f0: a9a9 0ebd 60b7 f33d 2ee2 10bd e32d 6b3d

linear_layers.0.bias f4 [64]
0.028945662 -0.08333762 0.094294876 0.06843394 0.104345456 0.07381339 0.07942419 0.05828558
0.0010468429 -0.030375937 -0.030373264 0.05015254 -0.09182191 -0.030915914 -0.09927214 0.11301973
-0.033720654 -0.038952816 0.0879711 -0.19451347 -0.15274087 -0.07877225 0.029980408 -0.03689248
0.0036911918 0.04007087 0.1848082 -0.030419081 0.14664206 0.13803695 -0.008540729 -0.099025376
0.13067245 0.052808218 0.054522358 -0.014051957 0.13211232 -0.06970226 -0.062491216 0.07965955
0.19141625 -0.03282438 -0.09338428 0.11576029 -0.15355946 -0.23962761 0.042762652 -0.00024719982
0.09816659 0.0589988 -0.10321443 -0.23881724 0.09693625 0.044584204 0.20328185 0.16691674
-0.053947955 -0.014878641 -0.022364704 0.048266128 -0.017487613 0.05911361 -0.023557331 0.07487289
00000000: 741f ed3c eaac aabd ac1d c13d 1827 8c3d
00000010: 12b3 d53d 7a2b 973d 26a9 a23d dcbc 6e3d
00000020: 3836 893a f5d6 f8bc 5ad1 f8bc c06c 4d3d
00000030: 200d bcbd 5f43 fdbc 314f cbbd e376 e73d
00000040: ab1e 0abd fd8c 1fbd 312a b43d 8a2e 47be
00000050: 1a68 1cbe 5853 a1bd 7999 f53c 921c 17bd
00000060: ece7 713b 5a21 243d 5c3e 3d3e 7031 f9bc
00000070: 5629 163e 8f59 0d3e 6aee 0bbc d1cd cabd
00000080: 00cf 053e 6e4d 583d d652 5f3d 2e3a 66bc
00000090: 7448 073e 0fc0 8ebd caf6 7fbd 8c24 a33d
000000a0: 9f02 443e db72 06bd 4240 bfbd bb13 ed3d
000000b0: b13e 1dbe f160 75be e427 2f3d 999a 81b9
000000c0: 910b c93d baa8 713d 1662 d3bd 828c 74be
000000d0: 8386 c63d ed9d 363d 1e29 503e 39ec 2a3e
000000e0: 88f8 5cbd 8bc5 73bc 2f36 b7bc b4b2 453d
000000f0: 2f42 8fbc 1d21 723d 4efb c0bc f556 993d

linear_layers.1.weight f4 [32, 64]
0.21016645 -0.1512549 0.14846173 -0.030767249 -0.21444453 -0.038159985 0.033900924 -0.040567983
0.00041880514 -0.43627906 -0.07900777 0.00027378328 0.20955648 0.23942627 -0.09799412 0.19745736
0.064353935 -0.038866274 0.27550557 -0.3493019 0.010946605 0.07705854 -0.0679146 -0.20155123
0.06988629 -0.09362151 -0.19393761 -0.07850078 0.12320312 0.18514802 -0.020159876 -0.17709967
-0.10107284 -0.0665086 0.005628228 0.30911055 -0.11254237 0.024646182 0.04909098 0.089986704
0.12945089 0.19440016 -0.092429735 0.08498446 -0.06954448 0.028919013 -0.2648428 0.12647986
-0.10453226 0.08803275 -0.09490876 -0.15012237 0.123557694 -0.08188743 0.018391207 0.2081422
0.0293553 -0.023026481 0.040771935 0.112770595 -0.033218194 -0.017117357 0.12414045 -0.23138402
-0.19917746 -0.16993277 0.26155573 0.022519086 0.30166146 -0.32234567 0.17671041 0.05425318
-0.055522963 0.18938412 -0.1766786 0.115647756 0.06975707 -0.2537804 0.07122351 0.021061998
-0.3360303 0.029571122 -0.07189454 -0.1756728 0.052560892 -0.1010362 -0.15713471 0.0748784
-0.1611922 -0.12485366 0.006341312 0.0993812 0.06712913 -0.07221601 -0.041333754 -0.17206207
0.088603236 -0.06671857 -0.024339665 -0.23065041 0.20044994 0.08036956 -0.022165222 0.02472166
0.04235272 -0.052081 -0.19552541 -0.103928916 -0.0032665727 -0.01298115 0.1937135 -0.0038344339
-0.08393953 -0.014300334 0.012370474 0.03913141 0.04471996 -0.06654791 0.08994398 -0.15406848
-0.059533644 -0.071814254 0.096473545 0.10736239 -0.02724805 0.42553774 -0.090699255 0.18434586
0.30633914 -0.11572904 0.27236053 -0.04035565 -0.17663413 -0.04679028 0.10525498 0.086976446
-0.18584993 -0.19863155 -0.18212457 -0.108420834 0.13508604 -0.023151984 -0.05717131 0.17139752
0.0216799 -0.08691602 0.3110509 0.01888088 -0.1477489 -0.016990924 -0.03576359 -0.23222975
0.010806635 0.024290143 -0.13933434 -0.10129681 -0.014980181 0.09093165 -0.22392024 -0.17026298
-0.020376785 -0.0433565 0.052585967 0.28218922 0.063971356 -0.14934039 0.012839772 -0.08349776
-0.046208728 0.044472627 -0.041560575 -0.18623035 -0.18855093 -0.060727928 -0.2900439 -0.09882764
0.14027081 0.0022228754 0.094237454 -0.24485956 0.017515067 -0.23984022 -0.068489045 -0.04504077
-0.15152377 0.023759509 0.044999037 -0.021790624 -0.13876699 -0.010315377 -0.024991129 -0.0021421101
-0.1331035 0.21792847 -0.45955133 0.17538993 0.14760633 -0.081958465 -0.3184703 0.018503811
0.10378076 0.26720843 0.060619757 -0.2500524 -0.06691543 -0.115688846 -0.23132683 -0.1292881
-0.12104199 0.107811496 -0.46245372 0.11315491 0.27272418 0.094657876 0.045011897 0.3330204
-0.14295965 0.14527424 0.144141 -0.11119349 0.035892345 -0.027260682 0.24519299 0.35021698
-0.22013083 -0.22073185 0.06412973 -0.3490939 -0.11173669 -0.078026295 -0.09284617 0.18789077
0.23330581 -0.08457195 -0.039375894 0.05372907 0.19857007 0.09602212 0.15596293 0.28036878
0.1779651 0.08648798 0.24182041 0.19878416 0.028088102 0.3294687 0.21051937 -0.10542165
0.19255446 -0.052887086 0.0006634981 0.06548247 0.07278066 -0.1599602 -0.13678491 -0.007905734
00000000: e035 573e 91e2 1abe 5a06 183e 990b fcbc
00000010: 5997 5bbe a54d 1cbd b2db 0a3d 9d2a 26bd
00000020: 1393 db39 f85f dfbe d3ce a1bd 928a 8f39
00000030: f995 563e 292c 753e 24b1 c8bd 4332 4a3e
00000040: ffcb 833d 3e32 1fbd 110f 8d3e b3d7 b2be
00000050: 6459 333c ded0 9d3d cf16 8bbd 7263 4ebe
00000060: 8b20 8f3d a2bc bfbd 9597 46be 04c5 a0bd
00000070: eb51 fc3d 7197 3d3e 5326 a5bc 9e59 35be
00000080: 47ff cebd a935 88bd 006d b83b bd43 9e3e
00000090: 9d7c e6bd cae6 c93c a013 493d f34a b83d
000000a0: c68e 043e d610 473e cd4b bdbd 550c ae3d
000000b0: 566d 8ebd 91e7 ec3c 7a99 87be f083 013e
000000c0: 0215 d6bd 844a b43d 865f c2bd aeb9 19be
000000d0: d10b fd3d 99b4 a7bd 28a9 963c 3b23 553e
000000e0: 877a f03c 08a2 bcbc 7900 273d 45f4 e63d
000000f0: cd0f 08bd b339 8cbc 593d fe3d efef 6cbe
00000100: 2df5 4bbe db02 2ebe a2ea 853e f279 b83c
00000110: 5f73 9a3e 7e0a a5be 93f3 343e 9538 5e3d
00000120: 0c6c 63bd e9ed 413e 3ceb 34be bbd8 ec3d
00000130: cbdc 8e3d 81ef 81be a2dd 913d 368a ac3c
00000140: 2a0c acbe 233f f23c 723d 93bd 92e3 33be
00000150: 174a 573d 11ec cebd ece7 20be d959 993d
00000160: 910f 25be 47b3 ffbd c8ca cf3b 5f88 cb3d
00000170: ff7a 893d fde5 93bd 954d 29bd 0a31 30be
00000180: 9d75 b53d bfa3 88bd fa63 c7bc 9f2f 6cbe
00000190: c042 4d3e cc98 a43d d793 b5bc 1485 ca3c
000001a0: 0c7a 2d3d e352 55bd d037 48be afd8 d4bd
000001b0: ff13 56bb e4ae 54bc d55c 463e 204b 7bbb
000001c0: 7de8 abbd f34b 6abc 87ad 4a3c 4248 203d
000001d0: 472c 373d 454a 88bd 8d34 b83d 21c4 1dbe
000001e0: 8dd9 73bd 5a13 93bd ec93 c53d d0e0 db3d
000001f0: 4d37 dfbc 15e0 d93e 88c0 b9bd 29c5 3c3e
00000200: 7cd8 9c3e 5903 edbd d772 8b3e f74b 25bd
00000210: 94df 34be 2aa7 3fbd ec8f d73d b520 b23d
00000220: 724f 3ebe 1266 4bbe dd7e 3abe be0b debd
00000230: ff53 0a3e 3ba9 bdbc 772c 6abd d582 2f3e
00000240: 0c9a b13c 0701 b2bd 1042 9f3e 13ac 9a3c
00000250: 7d4b 17be 8d30 8bbc d87c 12bd a3cd 6dbe
00000260: 500e 313c 1ffc c63c a9ad 0ebe b474 cfbd
00000270: 6f6f 75bc 5f3a ba3d 594b 65be 6b59 2ebe
00000280: 37ed a6bc 9696 31bd 6264 573d 1b7b 903e
00000290: 6a03 833d b0ec 18be e85d 523c e000 abbd
000002a0: 5d45 3dbd ee28 363d 6c3b 2abd 2bb3 3ebe
000002b0: 7f13 41be d9bd 78bd a280 94be 2566 cabd
000002c0: 27a3 0f3e a9ad 113b 91ff c03d 77bc 7abe
000002d0: c27b 8f3c ad98 75be fc43 8cbd ac7c 38bd
000002e0: 0c29 1bbe 4da3 c23c e950 383d 4082 b2bc
000002f0: ef18 0ebe d401 29bc 32ba ccbc a562 0cbb
00000300: 494c 08be a428 5f3e 504a ebbe 6b99 333e
00000310: 1d26 173e d7d9 a7bd 8a0e a3be 4e95 973c
00000320: 028b d43d 8bcf 883e 6c4c 783d de06 80be
00000330: f50a 89bd 46ee ecbd f1e0 6cbe 1a64 04be
00000340: dde4 f7bd 46cc dc3d bcc6 ecbe c3bd e73d
00000350: 81a2 8b3e fddb c13d 655e 383d a681 aa3e
00000360: 0464 12be c5c2 143e b399 133e 6ab9 e3bd
00000370: da03 133d cb51 dfbc df13 7b3e a44f b33e
00000380: fa69 61be 8807 62be 7356 833d 70bc b2be
00000390: 35d6 e4bd 40cc 9fbd 2226 bebd 7066 403e
000003a0: b8e7 6e3e 0f34 adbd 9e48 21bd 0313 5c3d
000003b0: f455 4b3e 3fa7 c43d bfb4 1f3e 7f8c 8f3e
000003c0: 7c3c 363e 9c20 b13d c59f 773e 138e 4b3e
000003d0: 0519 e63c 1fb0 a83e 6492 573e 4ee7 d7bd
000003e0: ff2c 453e 21a0 58bd 9bee 2d3a ac1b 863d
000003f0: 070e 953d 9bcc 23be 5811 0cbe 0d87 01bc

linear_layers.1.bias f4 [32]
0.1409813 0.15491907 0.07317788 -0.005806518 0.1151206 0.22981112 0.27841908 0.09530708
0.08590237 0.03191954 -0.048733894 0.14452073 0.06865977 -0.040326796 0.08615911 0.05911892
-0.03562594 0.18759412 0.027657257 0.02356515 0.1529508 0.08226409 0.15305477 0.108868904
0.26811862 0.120323785 -0.07217731 -0.03504039 0.22189392 -0.022038568 0.057459544 0.17645516
00000000: 675d 103e 1ba3 1e3e 49de 953d 9a44 bebb
00000010: 59c4 eb3d 9b53 6b3e f28c 8e3e 5c30 c33d
00000020: 95ed af3d 10be 023d 319d 47bd 3efd 133e
00000030: 7e9d 8c3d b62d 25bd 3074 b03d ae26 723d
00000040: 81ec 11bd ac18 403e 7991 e23c b40b c13c
00000050: 229f 1c3e 137a a83d 64ba 1c3e a9f6 de3d
00000060: d846 893e 516c f63d b3d1 93bd 8386 0fbd
00000070: 2938 633e 3a8a b4bc b35a 6b3d a9b0 343e

linear_layers.2.weight f4 [6, 32]
0.30409476 -0.28860208 -0.012432327 0.1724512 0.027327085 0.038360443 0.21552435 -0.015598913
0.13602856 -0.2034811 0.28964916 0.2076135 -0.08479633 0.0025775258 0.21072033 0.07421884
0.22776926 -0.32478863 -0.30454245 0.3888538 -0.033003464 -0.28249478 -0.2830073 -0.2098423
0.21676946 0.21650848 -0.24548486 0.106357604 0.14759472 0.27987826 0.23414293 0.032225072
-0.23482294 0.17060716 -0.36570823 0.20665449 0.11283359 -0.08927153 0.23441203 -0.19951151
0.22696826 0.24582331 -0.15126638 0.20604922 -0.08822818 0.2521609 0.21563724 0.044071507
0.22753449 -0.28431293 -0.102315664 -0.3359074 -0.28446957 -0.21745986 -0.29128438 0.15846053
-0.003105658 -0.13340963 0.3082297 0.031259313 -0.31111348 0.28513232 0.11545314 -0.21941617
0.31511194 0.39615458 0.5158388 -0.74459213 0.42258584 -0.9544428 0.13626061 0.320271
0.1770507 0.021012083 0.34454662 -0.17172204 -0.4218664 0.3431988 -0.67594504 -0.25724873
-0.5107195 -0.38196874 0.3475309 0.26819557 0.23665747 -0.2821304 -0.17153637 0.3667289
0.2335011 -0.7111897 -0.06188233 -0.2507407 0.39022166 -0.16871607 -0.15320653 -0.4270089
0.08180142 0.19247182 0.15748979 -0.23138136 -0.29505298 0.09750727 -0.17507477 0.1577126
-0.4453941 -0.7523148 -0.2784786 -0.0057691303 0.16320185 -0.44791192 0.2638634 -0.6445296
0.02328496 0.108672105 -0.4285045 0.12864509 -0.7308641 0.051303245 0.24911357 0.31211397
0.27600124 0.14341384 0.48320788 -0.48297688 0.26090252 0.0042379224 -0.12947649 0.23670283
-0.10275889 -0.0961211 -0.052576352 -0.1304006 -0.077486604 -0.04155372 -0.41766185 -0.26610482
-0.044947907 0.19415939 -0.16818346 -0.318982 0.27245185 -0.26555243 -0.28682628 0.22996409
-0.28456843 0.15865257 0.18582363 -0.16777836 0.25677237 0.122425474 0.120977335 -0.23931529
-0.10902621 0.09404989 -0.23188631 -0.16969863 -0.13636355 -0.24542806 -0.11596937 0.19423406
-0.10577158 -0.14557213 0.045267075 -0.17370814 -0.28379986 -0.09765709 0.056001466 -0.3361186
-0.22328283 0.1963098 -0.08109058 -0.29573965 0.27194816 -0.26538768 -0.11968731 0.23040633
-0.26271766 0.15853037 0.09620257 -0.16606916 0.25158548 0.1223632 0.11220962 -0.29661128
-0.30571094 0.061448082 -0.28446507 0.32006368 -0.22196993 -0.22363387 0.10501051 0.18450281
00000000: 4fb2 9b3e a7c3 93be f5b0 4bbc 0c97 303e
00000010: 0ddd df3c d71f 1d3d 6ab2 5c3e 9592 7fbc
00000020: 124b 0b3e 595d 50be e54c 943e a298 543e
00000030: b3a9 adbd b5eb 283b 12c7 573e 0c00 983d
00000040: 583c 693e b24a a6be fdec 9bbe d817 c73e
00000050: a42e 07bd 28a3 90be 55e6 90be e6e0 56be
00000060: d0f8 5d3e 66b4 5d3e 6260 7bbe 04d2 d93d
00000070: 1223 173e 344c 8f3e 2ac3 6f3e 70fe 033d
00000080: 6d75 70be a5b3 2e3e 1c3e bbbe 3c9d 533e
00000090: 4c15 e73d fed3 b6bd b509 703e bf4c 4cbe
000000a0: 5e6a 683e 1bb9 7b3e 93e5 1abe 91fe 523e
000000b0: fab0 b4bd 3c1b 813e 02d0 5c3e 5384 343d
000000c0: cdfe 683e 7791 91be e08a d1bd 0efc abbe
000000d0: ffa5 91be ccad 5ebe 3a23 95be 7a43 223e
000000e0: 4c88 4bbb 899c 08be 49d0 9d3e c409 003d
000000f0: 444a 9fbe ddfc 913e b272 ec3d a2ae 60be
00000100: 5a56 a13e c6d4 ca3e 030e 043f 979d 3ebf
00000110: 2c5d d83e 5d56 74bf e787 0b3e 8ffa a33e
00000120: c74c 353e 8821 ac3c 6a68 b03e e7d7 2fbe
00000130: dffe d7be c1b7 af3e bc0a 2dbf 1bb6 83be
00000140: 83be 02bf 6891 c3be 92ef b13e ee50 893e
00000150: 5656 723e 6573 90be 3ba7 2fbe e4c3 bb3e
00000160: ea1a 6f3e 8710 36bf 5378 7dbd 1661 80be
00000170: 22cb c73e e8c3 2cbe 2ce2 1cbe e9a0 dabe
00000180: 8187 a73d 5517 453e 0145 213e 3cef 6cbe
00000190: 2f11 97be e4b1 c73d cd46 33be 697f 213e
000001a0: b20a e4be b497 40bf bf94 8ebe f90a bdbb
000001b0: 631e 273e b654 e5be 1b19 873e e4ff 24bf
000001c0: 1ac0 be3c 7b8f de3d f164 dbbe 8abb 033e
000001d0: e919 3bbf 5a23 523d a117 7f3e 67cd 9f3e
000001e0: 0950 8d3e 14db 123e 0667 f73e bf48 f7be
000001f0: 0495 853e 45de 8a3b 7c95 04be 3a62 723e
00000200: 4173 d2bd 24db c4bd 4d5a 57bd bc87 05be
00000210: 4cb1 9ebd 3c34 2abd c6d7 d5be e43e 88be
00000220: 4c1b 38bd b8d1 463e 4938 2cbe 9c51 a3be
00000230: cf7e 8b3e 7df6 87be e5da 92be b57b 6b3e
00000240: f4b2 91be d275 223e 8d48 3e3e 17ce 2bbe
00000250: ab77 833e 35ba fa3d f7c2 f73d 110f 75be
00000260: 2249 dfbd 3b9d c03d 9b73 6dbe 7ac5 2dbe
00000270: e3a2 0bbe 7e51 7bbe 5981 edbd 4be5 463e
00000280: c59e d8bd dc10 15be f869 393d 8ce0 31be
00000290: 374e 91be 7100 c8bd cb61 653d bd17 acbe
000002a0: 41a4 64be 7005 493e d112 a6bd 306b 97be
000002b0: ca3c 8b3e e5e0 87be 9f1e f5bd a3ef 6b3e
000002c0: ee82 86be c955 223e da05 c53d 090e 2abe
000002d0: d0cf 803e 8f99 fa3d 28ce e53d 6fdd 97be
000002e0: 2586 9cbe fcb0 7b3d 68a5 91be 63df a33e
000002f0: 164c 63be 4700 65be c00f d73d 4eee 3c3e

linear_layers.2.bias f4 [6]
-0.12926468 0.020747561 -0.15580893 -0.03678307 -0.0044879857 0.014890237
00000000: f65d 04be caf6 a93c 608c 1fbe d8a9 16bd
00000010: f40f 93bb 2ef6 733c
