LTNtorch/LTN_IoMT/model/LTN_19classes_big.pth (torch, 25708 bytes, 6 tensors)

linear_layers.0.weight f4 [64, 46]
000000 4d ae 47 bd a1 58 2e bc d4 6a 72 3d 7d ce 68 bd
       -0.04875021 -0.010641248 0.05918391 -0.056837548
000010 07 24 5b 3d 0d 6b 9e 3c 50 29 90 bd 87 b2 d9 be
       0.053501155 0.019338155 -0.0703913 -0.42519018
000020 5f 7e 98 bd a9 76 29 be f6 97 40 be ae 6c 48 3d
       -0.074459784 -0.16549172 -0.18807968 0.04893177
000030 73 aa 5f bd 54 87 3a be 2c 89 49 3e 84 dc 49 3f
       -0.054605912 -0.18215686 0.19681233 0.78852105
000040 d6 c5 05 3e 59 44 f7 3d 47 ad 99 3c df 5f 01 3c
       0.1306375 0.12073583 0.018759383 0.007896393
000050 7b b5 e5 3c 12 eb 67 3b 5f 0c 03 be 04 51 62 3d
       0.028040638 0.0035387916 -0.12797688 0.055253044
000060 10 ce a6 be 1d f1 e1 3c c9 cd be bd 2e fd ac bd
       -0.32579088 0.027580792 -0.09316594 -0.08446728
000070 bd 36 6e 3e 22 85 ed 3d 4e fc 72 bc 60 d9 b3 bc
       0.23263068 0.11597659 -0.014830662 -0.021954238
000080 f0 c1 02 3d 9a ff ab 3d 2a 1f f0 3d 4c cc 86 3d
       0.031923234 0.083983615 0.11724694 0.06581935
000090 96 bc de bd 25 d7 23 be 4b f6 63 3d 63 84 08 be
       -0.10875814 -0.1600004 0.055654805 -0.13331752
0000a0 d9 bf 44 3c 5c 30 d9 3c e3 e8 3d bd cf e6 1a 3e
       0.012008631 0.026512317 -0.046364676 0.15127109
0000b0 12 35 19 3d e5 d7 4d bf ed 51 b0 3d 0f ca c9 3d
       0.037404127 -0.80407554 0.08609376 0.09852993
0000c0 e7 47 e6 3a 3d 38 d4 3c b1 c0 04 bd 12 e7 f3 3d
       0.0017569036 0.025905723 -0.032410327 0.119093075
0000d0 33 ab c7 3c 64 d3 e6 3e 97 7c e3 3e cb 10 29 be
       0.024373626 0.45083153 0.44430992 -0.16510312
0000e0 58 9d ea 3d 42 de d4 3d be ac f4 bc 2e d0 d2 bd
       0.11455792 0.10393955 -0.029867526 -0.102936134
0000f0 c6 89 2c 3e e8 5d 37 3e a8 dc 07 3e 67 32 a9 be
       0.16849431 0.17906916 0.13267767 -0.33046266
000100 d7 23 14 3d 11 2e 97 3c 0f e4 aa 3d a6 16 da bd
       0.036166992 0.018454583 0.0834428 -0.10648851
000110 f8 ca 36 3e b6 f9 03 3d ac e0 a2 bd 95 90 4b 3e
       0.17850864 0.032220565 -0.07953009 0.19879372
000120 8d ab af 3c 24 c0 26 3e 80 91 af 3d e8 7d 2d be
       0.021444106 0.16284233 0.08572674 -0.1694256
000130 54 b5 70 3d e3 3b 18 3c c3 37 0d 3e 28 c0 2a 3e
       0.058766678 0.009291622 0.13790803 0.16674864
000140 8a 07 de 3c 0c 01 be bd 4f 6b 37 3d 40 36 92 bd
       0.027103204 -0.092775434 0.04478007 -0.071392536
000150 7b ec 9b bd 62 ba 34 bd 3a 24 26 bc 1e 06 69 ba
       -0.076134644 -0.04412306 -0.010140473 -0.0008889156
000160 72 bd c8 bd fb 0d ef 3e aa 4b c2 3d b2 f5 d8 be
       -0.09801759 0.46690354 0.09487088 -0.4237495
000170 8a 61 0a bf c6 cc 65 3d e4 d7 6f 3e 62 1b c6 3d
       -0.5405508 0.05610349 0.234222 0.096731916
000180 d7 77 b3 ba 23 1b af 3d 69 15 43 bd b9 a0 cd 3e
       -0.0013692331 0.08550098 -0.04762784 0.40161684
000190 6d 3a c0 3e 43 c9 a8 bd ef 53 09 be ff 23 4e 3e
       0.37544575 -0.082415126 -0.13410924 0.20130919
0001a0 d5 3f be 3d 1a 5e ee 3d a1 be 4e 3d 91 21 44 bf
       0.09289519 0.11639042 0.050474767 -0.7661372
0001b0 7b 5e 80 3e 2a aa b4 bd 53 2e a3 be db ee a6 3d
       0.25072083 -0.08821519 -0.3187128 0.08151027
0001c0 3c 6a cf 3c 86 7d ce 3b 44 e0 7d 3e 68 9f d7 3d
       0.025319211 0.0063015847 0.24792582 0.10528451
0001d0 a2 86 3b be 6c 11 16 3e a4 72 7f 3b 61 70 ce bd
       -0.18313077 0.14655083 0.0038978243 -0.10080028
0001e0 1a 7a 72 3c ee f1 8a 3d c5 fa ac 3c 24 62 30 3d
       0.014799619 0.06784426 0.02111567 0.043062344
0001f0 7c 32 01 be 83 59 ba 3c df bf d1 be 6d cf d6 bd
       -0.12616915 0.02274776 -0.409667 -0.10488782
000200 19 ca df be fb 86 69 be e8 1b 19 3e 9d ac 0d 3e
       -0.43708876 -0.22805397 0.14952052 0.13835378
000210 87 64 19 bf fd e9 64 be 19 a8 6b 3e 64 3e a4 bd
       -0.5991902 -0.22354884 0.23013343 -0.080197126
000220 e7 f3 ac 3b 00 a6 94 be 4c 3e 94 be f7 72 41 be
       0.005278099 -0.29032898 -0.2895378 -0.18891512
000230 e1 6f e7 3d 2d d6 1c bd a9 f2 18 3d 34 4f 4d bd
       0.11300636 -0.03829019 0.037340794 -0.050124362
000240 ca ef 79 3d 51 a1 02 be 03 5e 0d bd 2d 9e 3f 3e
       0.061019696 -0.1275685 -0.034513485 0.18712683
000250 49 e3 bd be e3 49 a5 3c c7 e4 c0 3d 97 c5 df 3d
       -0.37087467 0.020176833 0.09418636 0.10926359
000260 d9 03 9d be b8 bf 82 bf 8f 6c 62 3e 9c ba 92 3d
       -0.30666998 -1.0214758 0.22111724 0.07164499
000270 23 b9 66 be 29 65 e2 3c 0d 46 1c 3d 0f c0 a0 bb
       -0.22531562 0.027636128 0.038152743 -0.0049057077
000280 44 56 2b 3c f1 6f 49 3c 6c 99 55 bd dd 3c ab bd
       0.010457579 0.012294755 -0.052148268 -0.08361218
000290 24 68 dd 3d e6 4c f7 3b c6 c9 c0 3e 9b 97 e7 bc
       0.10810879 0.007547009 0.3765394 -0.028270533
0002a0 81 cd cd 3c bb e8 09 3d 18 44 9e be 9a 7e 00 be
       0.025122406 0.033669215 -0.30911326 -0.12548295
0002b0 b7 9d 51 be f7 7e b8 be b9 9b 16 be 40 c5 10 bf
       -0.2047032 -0.36034366 -0.14707841 -0.5655098
0002c0 49 26 b5 bb 17 1c 24 3d 2a 73 66 bf a9 89 45 bd
       -0.0055282456 0.04006585 -0.90019476 -0.048226986
0002d0 1f 5b f6 3d af 14 b4 bd d1 05 13 3d a6 ce 85 bd
       0.12029099 -0.087930076 0.03589422 -0.06533556
0002e0 81 91 46 be 22 ce b6 3d 7a ed 04 3e e5 1c 03 be
       -0.19391443 0.089260355 0.12981215 -0.12803991
0002f0 7f 32 d2 bd ae 42 46 bc 66 2f a0 bb 25 ef 46 be
       -0.102635376 -0.012100859 -0.004888463 -0.19427164
000300 0a 45 b7 bd 00 5b 7e 3c 1b c5 b1 3d 38 34 96 bc
       -0.08948715 0.015524626 0.08680173 -0.018335447
000310 c5 c3 3e bc c6 fa 5d 3c 9e 13 f0 be 12 16 44 3f
       -0.011643355 0.013548559 -0.46889967 0.76596177
000320 e0 3c a4 be 35 91 b7 bc 7f c3 c1 be 57 f5 e6 bb
       -0.32077694 -0.022408107 -0.37844464 -0.0070482898
000330 a2 7d 62 3d 9e eb 55 bc 6d 99 96 ba 02 2c 3e bd
       0.055295594 -0.013056664 -0.0011489816 -0.046428688
000340 82 e2 43 3e 2d 74 55 be 84 4e 8d bd 09 79 4f be
       0.19129375 -0.20845099 -0.06899741 -0.20261015
000350 f0 74 91 be 4c 7a 19 be b8 ae ac 3e e0 6b d1 3e
       -0.2840953 -0.14988059 0.3372705 0.40902615
000360 f0 44 95 bd d8 12 6d be 95 02 9a 3d 0a 01 ac 3b
       -0.072885394 -0.2315172 0.07520024 0.0052491473
000370 01 fa 68 bd af 48 3c 3e 92 08 c7 bd 34 56 18 3d
       -0.056879047 0.18387102 -0.097184315 0.037191585
000380 bd bd 5c 3e 7f a2 0c 3e c4 cf 08 be e1 75 59 be
       0.21556754 0.13733862 -0.13360506 -0.21236373
000390 b8 3e 7d 3d 92 a4 4c be b3 dd 80 3d 7d 29 5a 3d
       0.06182739 -0.19984654 0.06292286 0.053262223
0003a0 50 ab 7b bd a6 55 dd be 9a ac f9 be ca 4f 15 3e
       -0.061442673 -0.43229407 -0.48764497 0.14581218
0003b0 36 0f f1 be 2a 22 16 3f 0b 29 44 3e 98 8d 75 bb
       -0.47081918 0.5864588 0.19156282 -0.003746843
0003c0 5b 38 41 3e 75 fb d4 bc bc 3c e2 bd af ad d2 be
       0.18869154 -0.02599881 -0.110467404 -0.41148135
0003d0 87 5e 9d be b5 c5 df 3c 54 06 db bc e5 19 42 3d
       -0.3073618 0.027315954 -0.026736416 0.047387976
0003e0 dc 24 df 3d 75 25 68 ba 92 a1 ad bd f8 51 40 3d
       0.10895702 -0.0008855679 -0.08478083 0.04695317
0003f0 f1 80 a7 3d 6d 06 cd 3d 44 e4 17 3e a6 a7 b2 bd
       0.081788905 0.10010991 0.1483317 -0.08723383

linear_layers.0.bias f4 [64]
000000 30 44 00 be 79 52 fa 3d 07 43 67 be 37 61 62 be
       -0.12526011 0.12222762 -0.22584163 -0.22107397
000010 e4 94 38 3e 48 33 a2 3d 6c e9 82 3d 24 30 16 3b
       0.18025547 0.07919937 0.06392178 0.0022916878
000020 04 7a 4c 3e 64 6b 89 3e f2 f7 97 3e 9d 9f ff 3d
       0.1996842 0.26839745 0.29681355 0.12481616
000030 b0 aa 59 3e f1 35 5e be 2e 0a 99 be ba 9d ff be
       0.21256518 -0.21700265 -0.2989058 -0.49925023
000040 a1 49 53 be 7b 9c dc 3d 62 74 4c 3e ae 69 04 3e
       -0.20633556 0.10772034 0.19966272 0.12930939
000050 f4 f0 17 bc c7 3b aa 3c 0a a0 aa 3d 2e 8b b9 3e
       -0.009273756 0.020780457 0.08331306 0.36238998
000060 26 f7 41 3e 1e 74 49 3e ed 9c 7b be d7 93 8d 3d
       0.18941936 0.19673201 -0.24571581 0.06912964
000070 1b 9f cb 3c 53 37 e1 be fb a9 f1 3d 46 df b7 3e
       0.02485614 -0.43987522 0.11799999 0.35912532
000080 a0 8e 12 3e 31 65 85 3e 94 f8 25 3e 2c 35 0d 3a
       0.1431222 0.26053765 0.16208106 0.00053866464
000090 3f eb 23 be 10 51 46 3e a5 f0 21 3d 33 e8 62 bd
       -0.16007708 0.1936686 0.039536137 -0.055397224
0000a0 41 0a a9 be f5 67 97 3e d6 1b 88 be ea 9d 4b 3e
       -0.33015636 0.295715 -0.26583737 0.19884458
0000b0 03 ae 40 3e 93 02 8f 3e c4 07 98 3d 43 47 ba 3d
       0.1881638 0.2793165 0.07423356 0.09095623
0000c0 92 c0 aa be bf 3b a1 3d b3 8c d8 be a9 65 0f 3e
       -0.33350044 0.07872724 -0.42294845 0.14003624
0000d0 00 82 6b 3e 6b ee 85 3d d7 39 dc 3b 12 13 80 3d
       0.2299881 0.06539615 0.0067207622 0.062536374
0000e0 7b 70 a0 3d 7d ce aa be b4 d4 0e 3e b1 07 17 be
       0.07833954 -0.33360663 0.13948327 -0.14749028
0000f0 cd 19 15 be 95 7c a5 3d a0 d9 57 be 3c 5b ed bd
       -0.14560623 0.08080403 -0.21079111 -0.11589667

linear_layers.1.weight f4 [32, 64]
000000 7c 00 82 be 63 45 3b be 48 6e 91 be b9 c5 30 3d
       -0.25390995 -0.18288188 -0.2840445 0.043157313
000010 d2 04 89 3d e0 ee ba 3d 6b 4a 6b be b5 13 be 3e
       0.066903725 0.09127593 -0.22977607 0.3712441
000020 73 ca 7a bd 13 b3 0b be c7 b9 76 be 59 df fc 3c
       -0.061228227 -0.1364253 -0.24094306 0.03086822
000030 3e b9 26 3e 83 cb af 3e 59 ed 33 3e 63 25 c2 bd
       0.16281602 0.34334955 0.1757101 -0.09479787
000040 88 9b a4 be 21 88 6a bd b0 fb 04 3f 52 56 15 3e
       -0.3214991 -0.05725873 0.51946545 0.1458371
000050 5a 3d b8 3e 67 a7 6c be 37 58 d1 3d c8 6d 16 3e
       0.35984308 -0.23110734 0.10221904 0.14690316
000060 8c 8f b2 3e 91 7e 7d 3e ab ae 08 bd 08 88 cf 3e
       0.34875143 0.24755313 -0.0333697 0.4053347
000070 e5 88 33 bd 16 a8 91 be dc 6d ae bd 97 8b 95 bd
       -0.043831725 -0.28448552 -0.08517048 -0.07302015
000080 d4 09 98 3d ce e5 eb 3d 4f d6 a1 bd 56 d4 bb 3d
       0.074237496 0.11518441 -0.07902204 0.09171359
000090 96 1e 7c bd 1e c8 98 bc b9 7e 01 3e e5 c1 5d 3e
       -0.061552607 -0.01865011 0.12645997 0.21655996
0000a0 c1 4d a7 bd 16 ef c3 bd 3a 19 53 be 49 30 46 3e
       -0.08169127 -0.095670864 -0.20615092 0.19354357
0000b0 3c f1 3a 3e 3b 41 cd bd fc 0a d7 3e e7 e7 89 3d
       0.18256086 -0.10022207 0.42000568 0.06733685
0000c0 2d 17 75 bf 61 3d 88 be cb 11 c5 be d1 e8 25 3e
       -0.9573849 -0.26609328 -0.38490137 0.16202094
0000d0 25 2c bd be 23 e5 40 3e f8 fe 08 3e 4d 60 86 3b
       -0.36947742 0.18837409 0.13378513 0.0041008354
0000e0 36 26 9c bc 41 fc 42 bd 35 1c 9f 3e 81 43 4b be
       -0.01906119 -0.04760385 0.31076208 -0.1984997
0000f0 08 42 3b 3d 2d 2a 18 3e 4d 77 98 be e2 7a c8 be
       0.04571727 0.14859839 -0.2977852 -0.39156252
000100 b9 6e eb 3d 20 c5 71 3e cd 22 e0 3b 1a 8f b9 bd
       0.11495728 0.23610353 0.006840086 -0.090604976
000110 2a b8 db 3d fe 49 a0 3c 9a 71 1a 3f c5 b0 99 3e
       0.10728486 0.019566532 0.6032959 0.30017677
000120 4e 7d e8 bc 07 03 a2 3c 9b a9 9a bd 13 49 ae 3e
       -0.028380062 0.019776834 -0.07551881 0.34040126
000130 f4 bc 86 3e 1c b4 a5 bd c6 75 2c bc 09 76 c5 3d
       0.26316035 -0.08090994 -0.010526126 0.09641654
000140 0e ff 61 3e f6 8e e8 be 23 f8 0e 3d 77 35 d2 be
       0.22069952 -0.4542157 0.03490461 -0.41056415
000150 b1 7f 44 bf b9 dc 0a 3f 47 a4 01 3e 64 8d 12 3e
       -0.7675734 0.54243046 0.12660323 0.14311749
000160 1f cf b6 3b 49 9b bc bb 9c ee fe bc ad e4 76 bf
       0.00557889 -0.005755816 -0.031119637 -0.9644268
000170 11 ff bb 3e 51 7f 2b be 8c b6 6e be 24 72 9c 3b
       0.36718038 -0.16747786 -0.23311824 0.004774349
000180 6c c5 29 3a fa 7c d2 3e b6 7b e1 be d9 87 ab 3c
       0.00064762565 0.41110975 -0.44039696 0.0209388
000190 83 9f d8 3d 25 f5 c5 3e f2 0a 01 be 51 10 fe bd
       0.105772994 0.38663593 -0.12601832 -0.12405456
0001a0 98 88 dd be bf 80 d9 3e 0a b1 5f be f8 5e 23 3e
       -0.43268275 0.42481038 -0.21844879 0.15954196
0001b0 bd 7f 8c 3e e6 63 98 be 3b 1e 8a bd f6 ff 9e 3d
       0.27441207 -0.29763716 -0.06744047 0.077636644
0001c0 ce d0 8f 3d b8 94 1e 3f 5f b2 93 be eb 21 d8 3d
       0.07022248 0.61945677 -0.28847024 0.10553344
0001d0 52 01 90 3e 07 ba 82 3e 7f 2c a9 be fa 2b 7b be
       0.28126007 0.25532553 -0.3304176 -0.24528494
0001e0 e6 83 b7 3c cf 30 c3 bd 5b 91 27 3e 15 c0 d8 3e
       0.022401761 -0.09530794 0.16364042 0.42334047
0001f0 18 a8 2f 3e 45 da 03 3f 04 ad ac bd d8 5a 59 3d
       0.17153966 0.5150493 -0.084314376 0.05306515
000200 f2 7d c9 be 9a 99 fc 3a 2b 58 9c 3e 7e dc 7a 3e
       -0.393539 0.0019271851 0.30536017 0.24498174
000210 81 ce d6 3d 71 94 39 3e a8 31 86 bf ed b0 c4 bd
       0.10488606 0.18123032 -1.0483904 -0.096040584
000220 1a 3b 6f 3e f7 7e 74 bd 17 f5 22 3e ff 6a d6 3c
       0.23362389 -0.059691396 0.15913807 0.026174067
000230 ec af 6d 3d ea 8c 4d be 3f 59 5b bc 07 b6 c1 be
       0.0580291 -0.20073286 -0.013387977 -0.37834188
000240 0a f3 bb 3d e5 58 4d 3e 54 1f e3 3d aa f0 c4 3e
       0.091772154 0.20053442 0.1108996 0.38464862
000250 bc 8c 1f 3f f6 bb d2 be ef 18 ee 3d b2 fb 11 3c
       0.6232412 -0.41159028 0.116258495 0.0089101065
000260 46 0f 7a 3d 79 cd 2d be 66 9b 62 3e 29 bb b7 3e
       0.061049722 -0.16972913 0.22129592 0.3588498
000270 0e 4c a5 be b4 92 3d be b7 89 0f bd 53 6c da bd
       -0.32284588 -0.18512994 -0.035043444 -0.106651925
000280 43 d8 6c be c6 04 21 be 7b be 9f 3e 0e fe 82 3d
       -0.23129372 -0.15724477 0.31200013 0.06396113
000290 7a 0c 8c 3c 8e 27 f0 be 6a d0 76 be 08 93 fb 3d
       0.017095793 -0.46905178 -0.24102941 0.12283903
0002a0 84 cb 21 3f f6 c3 55 be eb 7f 44 3d b2 6f 56 be
       0.63201165 -0.20875534 0.047973555 -0.20941046
0002b0 63 61 9f 3a 11 9e 5c 3d 1f 37 0e 3e 5d 4c 9c be
       0.0012159761 0.05386168 0.13888215 -0.3052701
0002c0 76 a9 02 3e c5 1d d6 be 12 b8 8a 3d 84 d3 6b 3d
       0.12759957 -0.41819587 0.0677339 0.057574764
0002d0 e6 6a 95 3d 8f fa 81 3e c0 25 c6 bd 75 df 9f bc
       0.0729578 0.25386474 -0.09675169 -0.019515732
0002e0 12 82 dc bd 3a fc 18 be ee 2a 17 be 29 85 70 3d
       -0.107669964 -0.14939967 -0.1476247 0.05872074
0002f0 10 fb b3 be c2 08 be be 95 70 26 3e 64 98 de 3e
       -0.35152483 -0.37116057 0.16253884 0.4347564
000300 76 df 92 bd c3 2c a6 3e b4 68 27 3e e9 05 10 be
       -0.07171528 0.32456025 0.16348535 -0.14064755
000310 ec 0d 47 3d 8f 4e 2b 3e 71 8e 48 be 09 d7 8e bc
       0.04859726 0.16729186 -0.19585587 -0.017436521
000320 ee a8 21 3f d3 e5 50 3f 41 a1 32 3f f5 8a 6f 3d
       0.6314839 0.81600684 0.69777304 0.05848213
000330 bf 79 18 3e f7 2e 06 be d1 7e f1 be 63 a9 2c bf
       0.14890192 -0.13103853 -0.47167066 -0.67445964
000340 45 2d 90 3d 4b ce e0 3d a5 a3 e3 be 9a 46 51 bd
       0.070398845 0.10976847 -0.44460788 -0.05109272
000350 d0 69 32 bc 25 8a d7 bd 5a 25 c7 3e d2 9d 2e bb
       -0.0108894855 -0.10524396 0.38895684 -0.0026644361
000360 a8 aa 54 3e 3b d3 af 3d 4e 1f 17 3e 92 f0 af 3e
       0.20768225 0.08585211 0.14758036 0.34363228
000370 4a 27 c7 be 89 2d b8 ba e6 95 b0 3e cf 1a 10 3f
       -0.38897163 -0.0014051656 0.34489363 0.56290907
000380 09 61 65 3c 36 67 1d 3d 8b ec 16 3f af 39 ec be
       0.014000186 0.038428508 0.58954686 -0.4613776
000390 8d 6d da be d4 c4 2f be e1 f5 c1 bd db 45 69 3e
       -0.42661706 -0.17164928 -0.09470726 0.22780554
0003a0 2e d2 36 3e 5d c1 c1 3d 60 e7 dc 3d 7c 0a 96 3d
       0.17853615 0.09460709 0.10786319 0.073262185
0003b0 ec 44 24 be 96 4d 5b 3f fd 51 c8 bd b3 0a 48 bd
       -0.16041917 0.8566526 -0.09781263 -0.04883833
0003c0 8c b9 bc 3d f4 cb 08 be 18 dd 1f 3e 6c 82 ba bd
       0.09215078 -0.13359052 0.15611684 -0.09106907
0003d0 80 64 78 3e 52 fd 38 3c 06 a6 e9 3c d1 cb ae 3c
       0.24257088 0.011290865 0.028521549 0.021337422
0003e0 8a 00 b2 bd 0e 3b b9 bd d3 5e 21 bc 4e 6c 24 3e
       -0.08691509 -0.09044467 -0.009849268 0.1605694
0003f0 8c 4c bb bd eb b5 b3 be 32 ee b6 3e 4a cd d7 3d
       -0.091454595 -0.3509973 0.35728604 0.10537203

linear_layers.1.bias f4 [32]
000000 2c 61 5e 3d b3 1f aa 3e 46 e7 0e 3e 3b e3 d1 3e
       0.05429189 0.3322731 0.13955411 0.40993676
000010 68 c3 d6 3e e3 6e 3e bc 50 9d 69 3e 6e f7 80 3d
       0.41945958 -0.011623117 0.22813916 0.062971935
000020 74 81 86 3d 72 33 83 be 48 08 28 be 4e a1 10 bf
       0.0656766 -0.25625187 -0.16409409 -0.5649613
000030 33 72 aa 3e f7 f6 ed 3e dd c6 ca 3e a1 d2 3a be
       0.33290252 0.46477482 0.39604846 -0.18244411
000040 7f 63 1a 3f 15 1f ce 3d 70 ab 28 3d 33 51 e6 be
       0.6030807 0.10064522 0.04117912 -0.44983825
000050 ff 39 c0 3d d0 b6 02 3e b2 16 a8 3d b2 2b 3b 3f
       0.09386062 0.1276505 0.08207454 0.7311355
000060 03 7a 59 be 6a 5a a1 3e 87 18 d8 3c ae a1 f2 3e
       -0.2123795 0.31514293 0.026378883 0.47388977
000070 80 3f dd 3d 86 00 13 3e 8a 57 9f be 24 6b f1 3d
       0.10803127 0.14355668 -0.31121475 0.117880136

linear_layers.2.weight f4 [19, 32]
000000 ee 54 66 be b3 ad ee 3d 54 d9 1b 3e 13 45 e8 3d
       -0.22493336 0.11654224 0.15219623 0.113413
000010 57 fb 0f bc fd d9 80 be 28 a4 76 3e eb 67 8f 3e
       -0.008787951 -0.25166312 0.24086058 0.2800897
000020 c3 ea 9d be 9e f9 25 3e 67 95 6c 3e 23 bd 0c 3d
       -0.3084317 0.16208503 0.23103867 0.034360062
000030 d8 d4 23 bf 60 20 5c 3e 86 f8 f7 be 6c 59 21 3f
       -0.6399665 0.21496725 -0.48431796 0.6302707
000040 3a ad 34 3d bc b3 f1 be a4 81 0c bf 8b 8f bf be
       0.044110514 -0.4720744 -0.54885316 -0.37414202
000050 f9 e7 1d bf 15 db be be 42 3d 0c bf 1a 77 02 bf
       -0.6168209 -0.3727652 -0.5478097 -0.50962985
000060 e2 d8 dd 3e 08 0b 6e 3e 4a ce fb be 73 e5 df 3d
       0.4332953 0.23246396 -0.49180824 0.10932436
000070 14 e7 3e 3e 1e 2d fe be eb c0 61 3e 64 0a 33 3d
       0.18642837 -0.49643797 0.22046249 0.04371108
000080 f9 dd 84 3e eb f3 33 3e 34 6e 58 be 8f 61 d4 be
       0.25950602 0.17573516 -0.21135789 -0.4148068
000090 75 44 4c bf d6 f3 84 3e ec 4e c0 3d 61 54 c5 be
       -0.7979196 0.25967282 0.09390053 -0.38540938
0000a0 df c2 4d 3e 1c 2d a3 3e b8 0d cc be 2f 5f ff 3c
       0.20093869 0.31870353 -0.39854217 0.031173317
0000b0 ab 97 20 3d ea db 95 3e 62 76 08 3e 31 14 91 be
       0.03920714 0.29269344 0.1332641 -0.28335717
0000c0 8b 61 21 3e b1 86 b0 3e 71 2a 1f bf 77 82 0c 3e
       0.15759866 0.3447776 -0.62174135 0.13721643
0000d0 6f 7e b9 bd 83 dd 73 3e fc 26 0e 3e 6b 5a bc be
       -0.090573184 0.23814969 0.13882059 -0.36787733
0000e0 bc ff b6 be 59 77 69 3e b0 32 bb be 6e 4b 0f 3e
       -0.35741985 0.22799434 -0.3656211 0.13993618
0000f0 c9 0c 12 3e 20 11 07 be 44 8a 4b 3e a5 e7 84 3d
       0.1426269 -0.13190126 0.19876963 0.06489495
000100 08 53 92 be a2 1d 01 3e 74 f2 12 be bc 29 cd 3d
       -0.28578973 0.1260896 -0.14350301 0.10017726
000110 8b 8d ce bd cb 47 59 3e 88 73 69 3e 3e 99 4b bf
       -0.10085591 0.21218793 0.22797978 -0.79530704
000120 f8 f3 a8 be 67 3e 33 3e b9 e4 71 3e 66 7f d4 bc
       -0.32998633 0.17504273 0.23622407 -0.025939655
000130 3c 83 f3 3d 11 58 5c 3e 42 0c 1a bd 85 3c 29 be
       0.11890265 0.2151797 -0.037609346 -0.16526993
000140 19 ca 3c 3d b0 df 9f be 9a 56 34 bf 8b f1 b9 3d
       0.046091173 -0.31225348 -0.70444643 0.09079274
000150 49 c7 c7 be d7 46 ca 3d 85 d1 17 bf cc 01 f8 be
       -0.3901923 0.09876793 -0.59304076 -0.4843887
000160 bd c4 bb 3e ea 37 73 3e b3 a8 6c 3e 53 01 06 3e
       0.36673537 0.23751798 0.23111229 0.13086443
000170 fe d7 3f 3e 8c da 81 3d 43 be 68 3e 6c ac 05 3e
       0.18734738 0.06340513 0.22728829 0.13054055
000180 02 d3 96 3e 32 69 37 3e e4 47 8d be 52 9a 64 bf
       0.2945786 0.17911223 -0.2759391 -0.89297974
000190 ef 4a 57 bf ef dc 77 3e 82 6d f1 3d 06 ea 0d be
       -0.84098715 0.24205373 0.11788465 -0.13858804
0001a0 6b a3 57 be 44 ba d4 bc 64 aa 0e bf 7e 9a 2f bd
       -0.21058433 -0.025967725 -0.55728745 -0.042871945
0001b0 00 a1 8b be 18 8b 5f 3e 46 3d 14 3e 53 e8 5d 3d
       -0.2727127 0.21830404 0.14476499 0.05417664
0001c0 dc 17 2b 3e 69 21 ae 3e e2 41 28 bf 3c 50 90 bb
       0.1670832 0.34009865 -0.6572553 -0.004404096
0001d0 9e a2 73 be 7d 08 67 3e b8 92 07 3e fc 05 1e bd
       -0.23792502 0.22561832 0.13239563 -0.038579926
0001e0 69 14 c4 be 1e 86 70 3e da 78 d2 be 8d 6c be 3d
       -0.38296822 0.23488662 -0.41107827 0.09298048
0001f0 b2 2d f3 3d 6a 00 4e be dd f8 49 bf 6f ea 22 3d
       0.1187395 -0.20117345 -0.7889536 0.039774355
000200 96 aa 13 bf c8 31 e3 3d fe d6 10 bf 33 70 93 bc
       -0.5768217 0.110934794 -0.5657805 -0.017997837
000210 4b eb 64 3d 2f 98 93 3d 1a 47 2c 3e 39 7c 36 be
       0.055888455 0.07206761 0.16823998 -0.17820825
000220 db 12 39 bf a9 ef c4 3d ec d7 b1 3d be a2 31 be
       -0.72294396 0.09616024 0.08683762 -0.17347237
000230 0e c5 21 be 0f 18 e4 3d b3 e2 1e 3e 3a 87 59 be
       -0.15797827 0.11137401 0.15516166 -0.21242991
000240 d9 46 25 3e 52 b8 16 bf f2 0e d9 3d f7 92 5f bd
       0.16140307 -0.58875 0.10598554 -0.054583516
000250 79 6d 0c 3e de 63 af be 92 cb 21 3e f2 ee dc bd
       0.13713636 -0.3425588 0.15800312 -0.10787763
000260 15 2a 06 bf 1e c5 81 3e 69 e0 45 3d 5c aa a8 bd
       -0.5240796 0.253457 0.048309717 -0.082356185
000270 6b b6 31 3e 72 72 43 bf 3c 68 eb 3d 2e 96 6b bf
       0.17354743 -0.76346505 0.114944905 -0.9202603
000280 5a 8c b5 be 2d ce c6 3d 09 7a 3c be 8c fa 3e 3e
       -0.35458642 0.09707294 -0.18405928 0.18650264
000290 6c 53 19 3e b0 d7 df bc 47 bf 76 be a7 08 99 3e
       0.14973229 -0.027324528 -0.24096404 0.29889414
0002a0 a1 57 1c be bd 2d 70 3d 63 82 c2 be aa 3c c3 be
       -0.15267803 0.05863737 -0.37990102 -0.3813222
0002b0 5c 39 58 3e ba 76 e8 be a7 a1 52 3e 91 39 aa be
       0.21115631 -0.4540308 0.20569478 -0.33247045
0002c0 85 e9 f5 3d 8f 27 e0 3d e8 9c 08 bd a7 ff c5 be
       0.12007431 0.10945045 -0.033352762 -0.3867161
0002d0 98 8c c2 bb 81 03 9c 3e 35 b9 ae be 1e b9 95 be
       -0.0059371702 0.30471423 -0.34125677 -0.29242796
0002e0 e1 76 f2 bd a8 8c 7d 3e b4 83 c6 be 09 c7 5b 3e
       -0.118390806 0.24760687 -0.38772357 0.21462645
0002f0 f8 48 db be 80 e8 6e be 1a dc c8 3c 15 2c 3b 3e
       -0.42829108 -0.23330879 0.024519015 0.18278535
000300 2e 57 95 be fa bc bc 3d 71 7b 6a be 95 0b 34 3e
       -0.29168075 0.09215732 -0.22898652 0.17582543
000310 aa c9 1b 3e 22 13 c3 be 2d 7a a6 3c af 11 9f 3e
       0.15213647 -0.38100535 0.02032193 0.3106818
000320 50 55 22 bd 38 44 db bb ac 99 d8 be 5c 91 c8 be
       -0.03963214 -0.006691482 -0.42304742 -0.391734
000330 54 f0 59 3e 34 ed d0 be 2c 6a 50 3e e2 83 ae be
       0.21283084 -0.40805972 0.20353001 -0.34084994
000340 70 50 12 3e 93 8a 0d 3e 80 c4 d4 3c 11 e4 d4 be
       0.14288497 0.13822393 0.025972605 -0.4158025
000350 c9 c2 c8 3c fc 82 97 3e 4c 2f 8f be da a6 75 bd
       0.024506943 0.2959212 -0.27965772 -0.059973575
000360 94 24 36 be eb b8 7f 3e 6a 4a 9d be 6b 6c 5c 3e
       -0.17787391 0.24972884 -0.30720836 0.21525733
000370 40 17 ac be 48 f7 b4 be 5c 26 e8 3c e5 7b 3d 3e
       -0.33611488 -0.3534491 0.028338604 0.18504293
000380 7d 9d 61 be a8 5f 45 bf 3c f3 f6 be 83 b5 52 3e
       -0.22032733 -0.77099085 -0.48232448 0.20577054
000390 86 b8 51 3d cc 8a 51 3e 12 be d3 bc 2c fd d2 be
       0.051201366 0.20463103 -0.025847469 -0.4120878
0003a0 e7 ee b1 bd b2 d5 b5 be 1b ba 4e 3e b5 5e e5 be
       -0.08688145 -0.355146 0.20188181 -0.44798818
0003b0 e0 55 46 be 5c 4d d3 3e 5d d3 b3 bd 18 b7 bc be
       -0.19368696 0.41269958 -0.08780549 -0.3685844
0003c0 49 43 1e 3d 0a 02 ac be a6 68 51 3e b7 40 5e be
       0.038638387 -0.33595306 0.20450076 -0.21704374
0003d0 2f 84 e3 3d 2b ce c4 be d9 4a 36 3e 3c 36 f4 3d
       0.111091964 -0.38438544 0.1780199 0.11924407
0003e0 c5 2d 45 be ea e3 b0 3d 1f 5d a1 be 06 c1 1d 3e
       -0.19255741 0.08637221 -0.31516358 0.15405664
0003f0 19 f5 52 3e 86 db 9b 3e 3f c0 d7 be 6a 54 60 be
       0.2060131 0.3044092 -0.4213886 -0.21907201

linear_layers.2.bias f4 [19]
000000 bc 4d ca bd c2 8e 14 be 0a 99 0c be f5 1d 0c 3e
       -0.09878108 -0.14507583 -0.13730255 0.13683303
000010 bc 44 8b 3e d2 68 e2 3c 73 9b 6a 3e 53 e6 b5 3d
       0.27200878 0.027637873 0.22910862 0.088818215
000020 d7 1e 4e 3e 58 08 8d 3e 77 2e 40 3e ed d2 25 3b
       0.20128952 0.27545428 0.18767725 0.0025302724
000030 c3 b8 18 bd 88 ca 35 be 88 21 35 be 8b f1 20 bf
       -0.037285578 -0.17753041 -0.17688572 -0.62868565
000040 f7 c7 a2 be 0d b2 16 bf 15 2c 89 3e
       -0.31793186 -0.58865434 0.26791444
