LTNtorch/LTN_IoMT/model/LTN_19classes_small.pth (torch, 25728 bytes, 6 tensors)

linear_layers.0.weight f4 [64, 46]
-0.027915535 0.23800828 0.089781374 0.083748035 -0.028952854 -0.04231817 0.14205414 0.26699147
-0.10997872 -0.027861891 0.1361663 0.03969286 -0.03188236 0.12951711 -0.28441948 -0.40666032
-0.037587203 -0.011404794 0.02648464 0.14548984 -0.0885803 0.11219343 0.069127634 0.042434793
-0.06463982 -0.031471457 -0.25632387 -0.22407682 -0.084335975 -0.16526407 0.039359674 0.14991479
0.051056433 0.09793264 0.17457402 -0.056159306 0.112124555 -0.11051979 -0.09645712 0.085728616
0.17039576 -0.042625524 -0.017337875 0.12994125 -0.09303341 -0.2799308 -0.21154515 -0.034903973
-0.1368319 0.19348192 -0.057962257 -0.06383832 -0.1617713 -0.35709155 -0.1571013 -0.16505325
-0.2957494 0.08142234 -0.038139865 -0.26761642 -0.11331659 -0.23040244 0.078901745 -0.0017854075
0.033187006 0.05093435 -0.025406513 -0.007812549 -0.02805359 -0.05990796 -0.08878215 -0.27143255
-0.011258328 -0.14842363 0.26824623 0.061852723 -0.04506683 0.043354634 -0.09159161 -0.014848205
-0.12839851 -0.03632615 0.1461389 -0.14944896 0.09819425 -0.038321305 0.039923143 0.10801086
0.17042898 -0.3741601 -0.093197204 -0.39889807 0.148756 0.17971118 0.10493557 -0.07802234
0.080682136 0.04572909 0.1663516 -0.081034094 -0.023479136 -0.06579112 0.10159982 0.055046465
-0.12854467 0.1967769 -0.25601706 -0.35252142 0.20067658 0.016771764 0.375945 0.1377219
-0.0445172 0.044321436 -0.041073512 -0.0036880614 -0.16394952 0.18928446 -0.13073581 -0.07889835
0.26544756 0.048560467 0.033792038 -0.06660042 0.025117006 -0.03834215 0.097164795 0.07043967
0.022512952 0.01797405 -0.017769024 0.07648817 -0.0197685 -0.08701132 0.07066252 0.3475702
-0.015248347 -0.30306017 0.19432257 0.23877133 0.069340475 -0.04706097 0.06462256 -0.13551365
0.18009827 -0.041713662 0.30723926 -0.17269948 -0.025588866 -0.010520582 0.033361003 0.043323413
-0.30198482 0.33663008 -0.15123364 -0.16323034 0.1558702 0.14457557 -0.17411971 -0.0074205087
0.0665884 0.029649192 0.2629449 -0.123484045 -0.18907107 -0.0160636 -0.15191159 -0.0847548
0.07431828 -0.10371921 -0.005036044 -0.09634988 -0.034532275 0.065827824 0.0023129457 0.15559272
0.0049608103 -0.12896919 -0.01715229 -0.052477147 0.157338 0.03931293 -0.05392125 -0.080269754
-0.022867491 0.017418133 0.052052315 0.07703412 0.055472575 0.06268608 0.18298677 0.2945889
0.22792926 0.13902228 -0.061337046 0.113165 -0.04473277 0.17344089 0.11861732 -0.36177456
-0.09721556 0.0551643 -0.14634132 -0.09216557 0.08789786 0.067388356 -0.08341859 -0.013150781
0.0360175 -0.11276598 -0.1833088 0.20162399 -0.051590733 -0.07762511 -0.18990663 -0.065180294
-0.36402014 -0.19330671 -0.27419296 -0.39983913 -0.33184186 -0.16465375 -0.016891567 -0.06647833
-0.46053192 -0.32275805 -0.23645595 0.34090483 -0.10110278 -0.09549169 -0.08378521 -0.19603711
0.08040285 -0.005131179 0.0005967276 0.04945992 -0.027862055 0.10835039 -0.0019431567 -0.13772668
0.047655456 -0.099733815 0.14987345 -0.12654145 0.25929627 0.41703746 0.17227677 0.018511256
-0.036408056 0.13142776 0.03169414 0.12115902 0.00943315 0.045505762 0.056732643 0.052398533
00000000: 1faf e4bc 71b8 733e 4cdf b73d 1784 ab3d
00000010: 892e edbc d155 2dbd a476 113e 1bb3 883e
00000020: 863c e1bd 9f3e e4bc 2e6f 0b3e fb94 223d
00000030: 1497 02bd 22a0 043e 6e9f 91be c835 d0be
00000040: 0af5 19bd 2cdb 3abc 51f6 d83c 4afb 143e
00000050: 9769 b5bd abc5 e53d ca92 8d3d 1bd0 2d3d
00000060: e261 84bd 37e8 00bd e23c 83be 6574 65be
00000070: 57b8 acbd fc3a 29be 9c37 213d 4383 193e
00000080: 8d20 513d e890 c83d 88c3 323e 4d07 66bd
00000090: 8fa1 e53d 3358 e2bd 4f8b c5bd 7c92 af3d
000000a0: 3a7c 2e3e 1a98 2ebd 2908 8ebc 520f 053e
000000b0: 4d88 bebd 1753 8fbe 4b9f 58be 78f7 0ebd
000000c0: a91d 0cbe 2020 463e d569 6dbd aabd 82bd
000000d0: 60a7 25be b4d4 b6be 2adf 20be b803 29be
000000e0: 776c 97be c1c0 a63d 8c38 1cbd 0505 89be
000000f0: 8712 e8bd 9eee 6bbe 3d97 a13d 5604 eaba
00000100: 19ef 073d 89a0 503d 5221 d0bc 3500 00bc
00000110: a4d0 e5bc 0d62 75bd 6ad3 b5bd 35f9 8abe
00000120: da74 38bc 5dfc 17be 9257 893e 4859 7d3d
00000130: ff97 38bd a194 313d 6294 bbbd e345 73bc
00000140: e67a 03be bbca 14bd 70a5 153e 2609 19be
00000150: 111a c93d cdf6 1cbd 7386 233d cc34 dd3d
00000160: ef84 2e3e ea91 bfbe 2dde bebd 5e3c ccbe
00000170: 7e53 183e 3506 383e 76e8 d63d 2dca 9fbd
00000180: ad3c a53d 6d4e 3b3d 1358 2a3e 34f5 a5bd
00000190: 5157 c0bc 7fbd 86bd 9113 d03d 6778 613d
000001a0: 37a1 03be e27f 493e ab14 83be b07d b4be
000001b0: 297e 4d3e f064 893c dd7b c03e f806 0d3e
000001c0: ab57 36bd 658a 353d b33c 28bd 67b3 71bb
000001d0: 62e2 27be c9d3 413e 9cdf 05be 7595 a1bd
000001e0: bee8 873e 57e7 463d 8569 0a3d cd65 88bd
000001f0: 2ec2 cd3c a90c 1dbd 56fe c63d ac42 903d
00000200: 156d b83c 513e 933c 5890 91bc d4a5 9c3d
00000210: 8df1 a1bc fe32 b2bd 83b7 903d b9f4 b13e
00000220: 34d4 79bc b42a 9bbe 7ffc 463e 7980 743e
00000230: 6102 8e3d 01c3 40bd d558 843d 17c4 0abe
00000240: ae6b 383e f2db 2abd 774e 9d3e 22d8 30be
00000250: be9f d1bc 855e 2cbc 8ca5 083d e473 313d
00000260: c19d 9abe c75a ac3e fedc 1abe db25 27be
00000270: 709c 1f3e 9e0b 143e 704c 32be bd27 f3bb
00000280: 805f 883d dde2 f23c b7a0 863e 34e5 fcbd
00000290: d99b 41be d097 83bc b68e 1bbe ed93 adbd
000002a0: 2f34 983d bd6a d4bd 6605 a5bb 1653 c5bd
000002b0: b771 0dbd bdd0 863d ca94 173b b353 1f3e
000002c0: 4b8e a23b 8010 04be f682 8cbc 47f2 56bd
000002d0: 361d 213e 9806 213d 87dc 5cbd 7864 a4bd
000002e0: 9b54 bbbc 79b0 8e3c cf34 553d 11c4 9d3d
000002f0: 3637 633d 8f61 803d e260 3b3e 5bd4 963e
00000300: 4a66 693e db5b 0e3e 8e3c 7bbd 0dc3 e73d
00000310: b639 37bd 7d9a 313e a3ed f23d 843a b9be
00000320: f418 c7bd f6f3 613d 80da 15be 4dc1 bcbd
00000330: cb03 b43d e802 8a3d 5ed7 aabd 6076 57bc
00000340: 1687 133d daf1 e6bd 4db5 3bbe 8576 4e3e
00000350: ce50 53bd eaf9 9ebd e276 42be 3f7d 85bd
00000360: d960 babe 32f2 45be 0563 8cbe b7b7 ccbe
00000370: 2de7 a9be fe9a 28be 2f60 8abc ca25 88bd
00000380: d7ca ebbe 8b40 a5be 8221 72be 148b ae3e
00000390: f90e cfbd 2691 c3bd 9597 abbd f4bd 48be
000003a0: 40aa a43d 7323 a8bb b66d 1c3a 7c96 4a3d
000003b0: f73e e4bc cfe6 dd3d 85b1 feba 3908 0dbe
000003c0: 5e32 433d 3e41 ccbd 6d78 193e 1594 01be
000003d0: 7bc2 843e ef85 d53e 5269 303e eba4 973c
000003e0: 9d20 15bd 0095 063e b7d1 013d 3822 f83d
000003f0: 808d 1a3c 4064 3a3d 7d60 683d d89f 563d

linear_layers.0.bias f4 [64]
0.10756288 0.018748136 -0.07280779 0.255631 0.07734704 0.3096556 0.10784783 0.0006422327
0.10063771 -0.0038135543 0.14434354 -0.16992645 0.08986217 0.16678008 0.11955174 0.041080654
0.06028282 0.07119113 -0.032358844 -0.12405104 0.33754703 0.06009009 0.04719615 0.16725232
-0.007806749 0.15924595 0.35545164 0.1650464 0.35461164 0.21876271 0.123448804 0.0734388
0.04853075 -0.0010860808 0.19666283 0.09661137 0.16001618 0.15596923 -0.025732726 0.027610822
0.11578666 0.08779843 0.06536406 -0.06363981 0.20169297 0.115008354 -0.047187816 0.09639196
0.083990216 0.051759623 0.06743255 -0.021382056 0.14217722 0.2016529 0.23747234 0.130111
-0.052599266 0.14928903 0.36524802 0.2528451 0.029308358 0.1710902 0.14406694 0.101483434
00000000: ed49 dc3d b195 993c 401c 95bd 11e2 823e
00000010: 2068 9e3d 2e8b 9e3e 53df dc3d 825b 283a
00000020: 251b ce3d d3ec 79bb cbce 133e 3301 2ebe
00000030: a809 b83d 66c8 2a3e 8bd7 f43d 3044 283d
00000040: 1eeb 763d a8cc 913d b58a 04bd 790e febd
00000050: f7d2 ac3e 0721 763d c050 413d 3144 2b3e
00000060: c2cf ffbb 5f11 233e c2fd b53e ec01 293e
00000070: a88f b53e 5503 603e bad2 fc3d 1567 963d
00000080: 2ec8 463d d35a 8eba fb61 493e 2fdc c53d
00000090: 48db 233e 66b6 1f3e 70cd d2bc 1730 e23c
000000a0: 8e21 ed3d aacf b33d 98dd 853d 9755 82bd
000000b0: 9a88 4e3e 8089 eb3d 0348 41bd 2669 c53d
000000c0: 1003 ac3d e601 543d 141a 8a3d 6c29 afbc
000000d0: e896 113e 197e 4e3e f32b 733e d13b 053e
000000e0: 5472 57bd 39df 183e ca01 bb3e ea74 813e
000000f0: 1518 f03c 4532 2f3e 4986 133e 8cd6 cf3d

linear_layers.1.weight f4 [32, 64]
0.013581827 0.18603617 0.13023219 -0.14353788 0.035831973 0.08614104 -0.13522829 0.031380598
0.3042891 0.17623006 -0.17386739 0.1672663 -0.18932304 -0.027777689 0.24716488 0.18739484
0.13506742 -0.26929757 0.052435745 0.011291629 0.01710055 -0.20735854 0.10849672 0.10417387
0.2835978 -0.12135157 0.12937902 -0.10787441 0.07864301 -0.30530718 -0.031116053 -0.13266899
-0.012865769 -0.17568375 0.10369558 -0.26930237 0.16497678 0.10530828 -0.034324277 0.20096937
0.18092817 -0.020507086 0.032503176 0.1506288 0.042924523 0.14915898 -0.017190812 0.0170679
0.0088485535 -0.22246267 0.011947324 -0.29278395 0.045984745 -0.3973445 0.105186194 0.024826745
0.130928 -0.16074961 0.19615887 0.2765777 0.088318974 -0.009495711 -0.19944254 0.21030779
0.06694246 -0.2650666 0.20586132 0.10522064 0.18379638 -0.03996487 0.20020501 -0.0073026847
-0.18729348 -0.27126592 0.05475498 -0.19995938 0.21360509 0.008903131 -0.15289198 -0.17712022
0.23820014 -0.18227862 0.15175784 -0.0602343 0.18956544 0.24814896 0.14332025 0.022881547
-0.18808573 -0.015939565 0.06625765 -0.018729271 0.078220524 0.22513177 -0.1846416 -0.21281369
-0.05578931 0.20281397 0.031693473 -0.051025514 0.023077274 -0.2782296 0.19193514 -0.26026207
0.01691007 0.05809559 -0.03626722 0.01426518 0.0133108 -0.03494324 -0.119522385 0.045201734
-0.055154976 -0.26933584 0.035771277 0.28900164 0.2338207 0.26148817 0.1255755 -0.060426205
0.01865511 -0.0309962 0.028735101 -0.17917159 -0.19198619 -0.19603433 0.08830965 0.021414196
0.037664488 0.0758166 -0.096074924 -0.061227687 0.013806969 0.03007493 -0.19094977 0.13911694
0.10515603 0.41388887 0.047739737 0.015947431 0.04073206 0.065433964 0.40699124 0.011549694
0.07742055 0.1477446 0.07894066 -0.26556993 0.3336374 -0.41495168 0.11698946 -0.0168259
0.07405789 0.287575 0.2173037 0.04220542 0.26827013 -0.12178645 0.12342152 0.18786381
0.031613246 -0.15024285 0.07449113 0.011700191 -0.08527285 -0.006805129 -0.05360844 0.42122275
0.024030868 -0.09924351 0.23505658 0.13060285 0.22904222 -0.00864036 -0.04563267 -0.16043177
-0.3615949 0.2271929 -0.077931285 0.058964472 -0.07316885 0.08296405 0.35976115 -0.009232865
0.009998586 0.15300126 0.51396966 0.35719398 -0.15214789 0.16700505 -0.06600219 0.21238375
-0.053450804 -0.25681263 0.06921175 0.10478084 0.30623788 0.11093771 0.27927744 -0.1300249
-0.13202785 -0.031733047 -0.10407155 0.3100034 -0.07869127 -0.2893716 -0.043536875 -0.17483026
0.08365772 -0.24911945 0.08037546 0.27317715 -0.067949966 0.163747 0.17295438 0.01488717
0.1678425 -0.006273859 0.19889298 -0.04646261 -0.09784349 -0.011322015 0.03709438 -0.017800804
0.25181124 -0.18658674 0.042976264 0.045850802 -0.07600252 -0.063754015 -0.025287481 -0.18185376
0.206356 0.077232 -0.040483132 -0.1557405 -0.06565581 -0.013902768 0.060347203 0.22625221
-0.1235675 0.1968658 -0.21952367 -0.1369924 -0.14051338 0.004539661 -0.0884131 0.04926168
-0.057364997 0.1903743 0.16447566 0.11632013 -0.10593783 -0.1103633 -0.048449583 -0.05210418
00000000: 5086 5e3c 4480 3e3e 965b 053e 98fb 12be
00000010: 8cc4 123d b76a b03d 4979 0abe f188 003d
00000020: c8cb 9b3e a775 343e 4b0a 32be db47 2b3e
00000030: e6dd 41be 098e e3bc ca18 7d3e 6fe4 3f3e
00000040: 1d4f 0a3e 5fe1 89be ddc6 563d 8600 393c
00000050: 7416 8c3c cc55 54be 8733 de3d 1c59 d53d
00000060: bb33 913e 2c87 f8bd ef7b 043e 42ed dcbd
00000070: 960f a13d 3951 9cbe 18e7 febc 61da 07be
00000080: f2ca 52bc 71e6 33be 595e d43d 00e2 89be
00000090: acef 283e deab d73d 9d97 0cbd eaca 4d3e
000000a0: 3c45 393e 7afe a7bc 0d22 053d 703e 1a3e
000000b0: a0d1 2f3d 22bd 183e bfd3 8cbc fbd1 8b3c
000000c0: 86f9 103c 41cd 63be b5be 433c c7e7 95be
000000d0: 805a 3c3d bd70 cbbe dc6b d73d 7561 cb3c
000000e0: fd11 063e 8c9b 24be dfdd 483e 989b 8d3e
000000f0: 94e0 b43d e693 1bbc aa3a 4cbe ed5a 573e
00000100: 2119 893d cfb6 87be 4fcd 523e eb7d d73d
00000110: 1e35 3c3e 34b2 23bd 8b02 4d3e 5c4b efbb
00000120: ddc9 3fbe 5ee3 8abe c246 603d 27c2 4cbe
00000130: 4bbb 5a3e 70de 113c b78f 1cbe 015f 35be
00000140: bdea 733e 3fa7 3abe 6866 1b3e 3eb8 76bd
00000150: 711d 423e c31a 7e3e 8bc2 123e 1572 bb3c
00000160: 8c99 40be b193 82bc 17b2 873d 216e 99bc
00000170: 1532 a03d f188 663e b012 3dbe d5eb 59be
00000180: 5583 64bd 77ae 4f3e 04d1 013d 2100 51bd
00000190: 8d0c bd3c 1c74 8ebe a58a 443e 1241 85be
000001a0: fd86 8a3c a4f5 6d3d f08c 14bd 80b8 693c
000001b0: 8b15 5a3c a520 0fbd 27c8 f4bd 7425 393d
000001c0: 2fea 61bd 63e6 89be e784 123d 06f8 933e
000001d0: b26e 6f3e c7e1 853e dd96 003e 7881 77bd
000001e0: 9ad2 983c beeb fdbc e065 eb3c c278 37be
000001f0: 0798 44be 39bd 48be b1db b43d d36c af3c
00000200: 1446 1a3d bc45 9b3d eec2 c4bd e2c9 7abd
00000210: a036 623c b35f f63c 5688 43be ac74 0e3e
00000220: 0b5c d73d 3ee9 d33e be8a 433d 30a4 823c
00000230: a9d6 263d 3e02 863d 2861 d03e ee3a 3d3c
00000240: aa8e 9e3d 5c4a 173e a4ab a13d c8f8 87be
00000250: 85d2 aa3e 8c74 d4be 2c98 ef3d 78d6 89bc
00000260: aaab 973d 083d 933e dc84 5e3e 97df 2c3d
00000270: b45a 893e 2d6b f9bd 6cc4 fc3d 5f5f 403e
00000280: e47c 013d 43d9 19be ce8e 983d 28b2 3f3c
00000290: 88a3 aebd 8ffd debb 8694 5bbd 82aa d73e
000002a0: 62dc c43c 2e40 cbbd acb2 703e c1bc 053e
000002b0: 0b8a 6a3e 4c90 0dbc 53e9 3abd 3a48 24be
000002c0: f722 b9be 41a5 683e 709a 9fbd bb84 713d
000002d0: 8dd9 95bd 0ee9 a93d 9d32 b83e 7145 17bc
000002e0: 1cd1 233c 5dac 1c3e 8493 033f 21e2 b63e
000002f0: a8cc 1bbe 5f03 2b3e 282c 87bd 207b 593e
00000300: 3bef 5abd f27c 83be e4be 8d3d 5697 d63d
00000310: 36cb 9c3e 4f33 e33d 74fd 8e3e 3f25 05be
00000320: 4f32 07be 83fa 01bd 7723 d5bd c4b8 9e3e
00000330: e328 a1bd 8428 94be b953 32bd b406 33be
00000340: bd54 ab3d 2b19 7fbe e49b a43d e0dd 8b3e
00000350: 5a29 8bbd 4bad 273e f41a 313e 51e9 733c
00000360: e8de 2b3e f294 cdbb 9aaa 4b3e 944f 3ebd
00000370: 2b62 c8bd f97f 39bc 47f0 173d fed2 91bc
00000380: 67ed 803e 9810 3fbe e107 303d 0dce 3b3d
00000390: 36a7 9bbd 7791 82bd b127 cfbc df37 3abe
000003a0: fd4e 533e d02b 9e3d a4d1 25bd 707a 1fbe
000003b0: 8e76 86bd 6fc8 63bc a12e 773d a9ae 673e
000003c0: f510 fdbd 3097 493e d0ca 60be bc47 0cbe
000003d0: bde2 0fbe 70c1 943b ed11 b5bd 9ec6 493d
000003e0: 8ff7 6abd 7bf1 423e 4f6c 283e 4039 ee3d
000003f0: eff5 d8bd 2706 e2bd 1273 46bd 316b 55bd

linear_layers.1.bias f4 [32]
0.054769795 0.22813648 0.15657511 0.07458756 0.08127687 0.32804126 0.108724974 0.022557758
0.095623575 0.090049125 0.12740585 0.21467881 -0.027651282 0.0501455 0.03890105 -0.0027782388
0.050401073 -0.09729339 -0.024509704 0.11558869 0.10353865 0.11926872 0.15838006 0.051852733
-0.052075453 0.1277257 0.40382302 -0.0052952725 0.10140522 0.2580755 0.03372204 0.12756006
00000000: 4b56 603d 9c9c 693e 3a55 203e 5dc1 983d
00000010: 7d74 a63d 06f5 a73e 33ab de3d 0ccb b83c
00000020: 4bd6 c33d ad6b b83d ae76 023e c3d4 5b3e
00000030: f184 e2bc 5e65 4d3d b556 1f3d 1d13 36bb
00000040: 5b71 4e3d c241 c7bd 93c8 c8bc c3b9 ec3d
00000050: 120c d43d 2943 f43d 622e 223e 8863 543d
00000060: 124d 55bd 87ca 023e e4c1 ce3e f783 adbb
00000070: 8aad cf3d 7922 843e 1f20 0a3d 1b9f 023e

linear_layers.2.weight f4 [19, 32]
0.33387774 0.15251629 -0.07401602 0.17873846 0.18615821 -0.0367581 -0.34776348 0.2647847
-0.4452218 0.16488484 0.23607773 -0.2965132 -0.30719793 0.05184385 -0.21751274 0.14756246
0.10325723 -0.22280078 0.32468572 -0.16446057 -0.3553318 0.23160352 -0.28073892 0.19474119
0.121556595 -0.3049888 -0.08616321 -0.14488533 -0.26692003 0.1843186 -0.2648465 -0.28898257
-0.2378841 -0.06290464 0.19267724 0.03323851 -0.17446609 0.05019176 0.16141185 -0.28086028
0.0018387676 0.2087731 0.17307332 -0.17935976 -0.26259497 0.26164556 0.22125143 0.13095997
-0.11569009 0.051119637 -0.04231798 -0.16875458 -0.37081835 -0.30846745 0.13180193 -0.26997223
0.1162699 -0.038977772 -0.06921531 -0.054230742 0.30344814 0.27888256 0.21744376 -0.20288709
-0.14328305 0.12611665 0.06670031 0.22143342 -0.11701724 0.028897211 -0.40888414 -0.34017184
0.056951534 0.19116025 0.21773511 -0.31081903 -0.33406597 0.07858214 0.031702936 0.21077439
0.32126898 -0.29537898 -0.052040976 0.2277974 -0.18627053 -0.049934212 -0.37719342 0.19098002
-0.041963257 -0.098541014 -0.27017197 -0.064826116 -0.26559374 0.043506186 0.1336615 0.23084196
-0.08189261 -0.3651475 0.17442644 -0.51084703 -0.31162283 0.041150182 0.03772966 0.11358558
0.11524692 -0.43330207 0.1744632 -0.26983145 -0.35573155 0.031958222 0.25399545 -0.2186758
0.34970877 -0.0518358 -0.21737227 -0.30812693 0.0027247656 -0.2335643 0.3127758 0.13179396
-0.122385904 0.051965702 -0.32550144 -0.034038816 0.21371895 0.21401322 0.13698335 -0.26387918
-0.096315555 0.12171275 -0.1679354 -0.16710266 0.13639249 0.21988656 0.0998815 -0.16623315
0.20157167 -0.23359315 0.09073786 -0.25840563 0.05855528 0.21023084 0.117388405 -0.15929984
-0.11261101 -0.0032781933 -0.13104115 -0.08974446 0.08544822 -0.17662553 0.18487754 0.27069762
0.26701882 -0.10097425 -0.27927312 -0.18412593 -0.34663087 -0.28932577 -0.011274328 -0.10350068
0.017380204 -0.07165311 -0.046392895 0.008697488 -0.23275608 -0.25658384 0.14214475 0.21785058
-0.29822347 0.17780833 0.16570103 -0.35286176 -0.11570356 0.118537605 0.10476511 0.07285227
0.09762243 -0.2241276 -0.18871684 0.069671445 0.0913258 0.121234536 -0.14783138 -0.04008509
0.1331297 0.2486426 -0.14284126 -0.27934957 0.21107712 -0.24973662 0.18795249 -0.11517465
-0.11051855 -0.12569885 -0.031815235 0.12592623 -0.05619833 -0.24115321 0.17117475 0.19275282
-0.10693057 0.13147883 0.15565732 -0.18701163 -0.044008672 0.08990102 0.15294653 0.066492446
0.032106444 -0.1698898 -0.15982574 0.07420793 0.10442456 0.16224675 -0.0021086028 0.033327136
0.070939496 0.25313273 -0.22132818 -0.37135398 0.21678331 -0.10161356 0.21238802 -0.079514824
-0.15165097 0.24927974 0.06665314 -0.034116924 0.33387145 0.15462047 0.10591169 -0.3858626
0.03862019 0.07939268 0.115528464 -0.3619169 -0.13437058 0.008506619 0.015644236 -0.21504998
-0.077558875 -0.25594503 -0.30395144 -0.3942995 -0.42331243 -0.18604697 -0.23520544 0.18237098
-0.13941188 -0.1941765 0.05427775 -0.2940879 -0.008854304 0.1662491 -0.2892443 -0.27742773
00000000: 06f2 aa3e 3b2d 1c3e b695 97bd 3707 373e
00000010: 42a0 3e3e a98f 16bd 0e0e b2be dc91 873e
00000020: 1df4 e3be 92d7 283e 5cbe 713e 94d0 97be
00000030: 0c49 9dbe 385a 543d a9bb 5ebe 9d1a 173e
00000040: 8778 d33d e325 64be 353d a63e 5a68 28be
00000050: 0dee b5be 7929 6d3e 03bd 8fbe 3c6a 473e
00000060: aaf2 f83d 7e27 9cbe 5676 b0bd d25c 14be
00000070: bea9 88be 04be 3c3e f699 87be 86f5 93be
00000080: e497 73be 26d4 80bd 2f4d 453e 1b25 083d
00000090: 3da7 32be e095 4d3d 2649 253e ebcc 8fbe
000000a0: cd02 f13a 9ec8 553e 223a 313e 16aa 37be
000000b0: d972 86be 68f6 853e bc8f 623e 5f1a 063e
000000c0: edee ecbd d362 513d 9e55 2dbd 00ce 2cbe
000000d0: e7db bdbe 72ef 9dbe 16f7 063e cd39 8abe
000000e0: ea1e ee3d 28a7 1fbd c2c0 8dbd 0e21 5ebd
000000f0: 8e5d 9b3e b2c9 8e3e 94a9 5e3e a2c1 4fbe
00000100: cbb8 12be b924 013e 2c9a 883d 71bf 623e
00000110: bca6 efbd d8b9 ec3c 4359 d1be 012b aebe
00000120: 0346 693d 83bf 433e f4f5 5e3e ac23 9fbe
00000130: b20a abbe acef a03d f0da 013d 3ed5 573e
00000140: 5e7d a43e ea3b 97be eb28 55bd b943 693e
00000150: b4bd 3ebe d187 4cbd 7f1f c1be 4490 433e
00000160: aae1 2bbd dfcf c9bd fb53 8abe 8ec3 84bd
00000170: e7fb 87be 8b33 323d 8fde 083e d661 6c3e
00000180: 50b7 a7bd 9df4 babe d89c 323e dfc6 02bf
00000190: 078d 9fbe 188d 283d 6a8a 1a3d 8e9f e83d
000001a0: 9406 ec3d c5d9 ddbe 7ba6 323e 5927 8abe
000001b0: 7222 b6be a0e6 023d b10b 823e 8dec 5fbe
000001c0: 070d b33e c751 54bd d696 5ebe d0c2 9dbe
000001d0: fb91 323b 7b2b 6fbe 2624 a03e fff4 063e
000001e0: 76a5 fabd fdd9 543d 20a8 a6be 496c 0bbd
000001f0: 24d9 5a3e 4826 5b3e 5d45 0c3e 2c1b 87be
00000200: 1741 c5bd 8944 f93d 42f7 2bbe f61c 2bbe
00000210: 79aa 0b3e f129 613e ac8e cc3d 0639 2abe
00000220: ce68 4e3e 0b33 6fbe c5d4 b93d be4d 84be
00000230: a9d7 6f3d c146 573e 5569 f03d 7f1f 23be
00000240: 9aa0 e6bd f5d6 56bb a72f 06be f2cb b7bd
00000250: 7aff ae3d 53dd 34be 8a50 3d3e e198 8a3e
00000260: b1b6 883e 96cb cebd e3fc 8ebe 828b 3cbe
00000270: 9a79 b1be 8222 94be f6b7 38bc 2af8 d3bd
00000280: ee60 8e3c debe 92bd 7a06 3ebd e97f 0e3c
00000290: 9c57 6ebe f55e 83be 658e 113e 3914 5f3e
000002a0: bfb0 98be 6313 363e 88ad 293e 4caa b4be
000002b0: fdf5 ecbd d8c3 f23d 178f d63d 9233 953d
000002c0: 45ee c73d b581 65be fd3e 41be e7af 8e3d
000002d0: 0509 bb3d d049 f83d 1c61 17be 4330 24bd
000002e0: 2753 083e 2a9c 7e3e fb44 12be e806 8fbe
000002f0: 9a24 583e f5ba 7fbe 9e76 403e b0e0 ebbd
00000300: 8d57 e2bd 33b7 00be b150 02bd cef2 003e
00000310: 3830 66bd def0 76be 6f48 2f3e ff60 453e
00000320: 6afe dabd 63a2 063e a264 1f3e fa7f 3fbe
00000330: 7042 34bd 071e b83d 049e 1c3e 312d 883d
00000340: 0c82 033d 97f7 2dbe 5ca9 23be 54fa 973d
00000350: 8bdc d53d 0324 263e 7c30 0abb 0982 083d
00000360: ba48 913d 9d9a 813e dba3 62be 1c22 bebe
00000370: 72fc 5d3e c51a d0bd 3f7c 593e abd8 a2bd
00000380: 644a 1bbe 3043 7f3e 7181 883d 30be 0bbd
00000390: 33f1 aa3e d454 1e3e 3ae8 d83d c88f c5be
000003a0: 3430 1e3d a198 a23d 309a ec3d 2c4d b9be
000003b0: 7198 09be 595f 0b3c 5728 803c 1036 5cbe
000003c0: 30d7 9ebd 3a0b 83be 869f 9bbe a0e1 c9be
000003d0: 68bc d8be 1983 3ebe b2d9 70be 75bf 3a3e
000003e0: fdc1 0ebe 34d6 46be 5952 5e3d b092 96be
000003f0: a511 11bc 343d 2a3e d417 94be 020b 8ebe

linear_layers.2.bias f4 [19]
0.12727368 -0.010319582 -0.052136857 0.088281535 0.022529075 0.056904823 -0.12317301 0.15452993
0.18052746 -0.07591973 -0.022865718 0.07467585 0.14572504 -0.1301926 -0.0065251975 -0.12642711
0.0061987024 0.0338197 0.33964878
00000000: 0854 023e 7713 29bc 758d 55bd f3cc b43d
00000010: e58e b83c 0815 693d 2242 fcbd 183d 1e3e
00000020: 31dc 383e ce7b 9bbd e350 bbbc a7ef 983d
00000030: f238 153e 3551 05be 53d1 d5bb 1c76 01be
00000040: 7c1e cb3b 8786 0a3d 72e6 ad3e
