LTNtorch/LTN_IoMT/model/LTN_6classes_small.pth (torch, 23734 bytes, 6 tensors)

linear_layers.0.weight f4 [64, 45]
000000 9e bd e9 3e d1 53 b0 3d ea 19 8a 3d 3f 83 8f be
       0.4565248 0.08609737 0.06743224 -0.2802982
000010 15 16 0f be 45 9c aa bd 83 9a 20 be b7 5d 15 3e
       -0.13973267 -0.08330587 -0.15683942 0.1458653
000020 35 3f a5 bd ee 64 b9 3c 87 c5 74 3d 6c 98 f0 3c
       -0.080686964 0.022631135 0.05975869 0.029369555
000030 23 7d a7 bc 33 bc 80 bd 88 26 41 be 95 65 05 3f
       -0.020445412 -0.06285896 -0.18862355 0.52108127
000040 30 e2 28 be cb a7 55 bd c1 29 4a 3e 46 e1 d3 bc
       -0.16492534 -0.052161973 0.1974249 -0.025864255
000050 e5 8e 9a bd 47 43 9a bd 31 f7 16 3c 6b c0 99 3d
       -0.07546786 -0.075323634 0.009214208 0.07507404
000060 57 7b dd bd f6 7b f3 3d a9 40 ae bc 14 47 68 bd
       -0.10814541 0.11888878 -0.021271067 -0.05670841
000070 2f 7f 16 bc c4 e9 95 3d 28 be b2 bd 9e 08 ee bd
       -0.009185596 0.07319978 -0.08727676 -0.11622737
000080 34 53 8b bd f5 17 06 be 4e 12 14 3d a2 6e a8 3d
       -0.06802979 -0.13095076 0.03615027 0.082242265
000090 fb b6 4c be 6d fc 04 bd 3a 5a c8 bd 8b a8 0b be
       -0.19991677 -0.032467294 -0.09782834 -0.13638513
0000a0 a3 a5 46 3d e6 c9 0d 3d 6a eb 77 be de de 57 3d
       0.048497807 0.034616373 -0.24210897 0.052702777
0000b0 8c 52 1b bd 52 c8 8f 3e ac b8 b6 3d 7e 28 5b 3d
       -0.03792052 0.2808252 0.08921942 0.053505413
0000c0 f8 03 a6 bc 82 9a 92 bd ac d0 10 be a1 8f 03 be
       -0.020265564 -0.07158376 -0.14142102 -0.12847759
0000d0 c8 41 8d be 2e ff ae be ec 30 9e 3d fc 68 b5 bd
       -0.2758925 -0.34179062 0.07724175 -0.08857915
0000e0 e9 b4 d3 bc 49 3a 85 bd e2 56 3c 3e a5 c7 86 3c
       -0.0258431 -0.06505258 0.18392518 0.01645262
0000f0 db 68 10 be 18 6e a2 3d fb c2 03 3e 2a 5d a8 3e
       -0.14102499 0.07931155 0.12867348 0.3288358
000100 8b aa 12 3e 53 19 06 3c 36 1f 53 bd de e3 ee 3b
       0.1432287 0.008184749 -0.051543437 0.0072903475
000110 b8 b8 03 bd 4a dd 13 3d 3a 83 ac 3d dc a4 81 3d
       -0.032158583 0.03609971 0.08423467 0.063302726
000120 0f 67 ec 3c 92 bb b4 bd 2f e6 6c 3d d0 38 d5 bd
       0.028857736 -0.08824839 0.057836708 -0.10411227
000130 6a 89 a0 bd 58 87 86 bd 1c c9 89 3d ca 77 e8 3d
       -0.0783871 -0.065687835 0.06727812 0.11350973
000140 c4 84 6e 3c 59 b9 30 3d a7 0b 4f bd cf ef 9c bb
       0.014558021 0.04314551 -0.050548222 -0.0047893296
000150 d8 d8 b5 3d d0 04 28 3d 9f 39 08 be 23 ed 16 bd
       0.0887925 0.041020215 -0.1330323 -0.036847245
000160 97 a7 82 3e cb c4 0c be aa 3f 3c 3e dd 05 6b 3c
       0.25518486 -0.13746946 0.18383661 0.01434466
000170 3d 0a 4a be d9 bc ff bc 29 f9 de 3b 46 eb 12 3e
       -0.19730468 -0.03121798 0.0068046045 0.14347562
000180 81 82 49 3e 52 d9 42 3d e7 26 82 bd 39 1b d8 3d
       0.1967869 0.047570534 -0.06355076 0.10552067
000190 25 b0 ba 3d 1b c4 02 be 08 ec a1 bd bf 21 55 3e
       0.09115628 -0.12770121 -0.079063475 0.20813654
0001a0 2f 0e 50 3d c4 0f b1 3e c0 e1 00 bf fd 35 68 be
       0.050794777 0.3458234 -0.5034447 -0.22676845
0001b0 a7 56 a6 be 76 ff 87 bd 2d 99 d9 bd 26 3e 97 bd
       -0.32487985 -0.06640522 -0.10624919 -0.07384901
0001c0 8e 25 29 be 70 32 3d be 46 25 72 3d 2c a4 17 be
       -0.16518232 -0.18476272 0.059117578 -0.1480872
0001d0 40 5a 79 3d d6 f8 c2 3c 59 4e 38 3d 74 e9 a1 bb
       0.060877085 0.023800295 0.044996593 -0.00494116
0001e0 a8 90 67 3c bd fa 3e 3d 79 a4 87 3d 8f b9 8a 3d
       0.01413361 0.04662584 0.066231675 0.06773674
0001f0 ed 8d 0b be 75 39 13 3e c4 6d 5f 3d 91 a8 1b 3e
       -0.13628359 0.14377387 0.05454804 0.15201022
000200 d6 22 a3 3d 00 a5 d6 bd 07 59 a1 3d 30 f5 07 3d
       0.07965629 -0.1048069 0.07878309 0.033192813
000210 ad 09 7b 3c e4 7a d1 bd 0a 92 03 3d d0 8f b6 3e
       0.015322131 -0.10228518 0.032121696 0.35656595
000220 bc 24 e5 3d ed 1f 87 3d 17 2e 32 bd 92 39 ba ba
       0.11188647 0.06597886 -0.043500986 -0.0014207831
000230 61 52 22 bd 0e 0c 66 be 3f 74 fc bd 21 6b f1 3a
       -0.039629344 -0.22465536 -0.1232686 0.0018418768
000240 b4 67 27 be 9c 6b 95 bd 13 c5 48 3d 2a d3 22 3d
       -0.16348153 -0.072959155 0.04901607 0.039752163
000250 b9 fa a4 be 83 f2 3f 3e 37 1a 2c bf e2 f8 3b bd
       -0.32222536 0.18744855 -0.672275 -0.04589165
000260 63 a8 22 bd 31 79 3c bd a2 5c 6c 3d 8a 38 b4 bd
       -0.039711367 -0.046014015 0.05770553 -0.087998465
000270 ce e0 a1 3d 79 f2 38 3c 45 09 25 3b 17 c7 8e bd
       0.07904206 0.011288279 0.0025182527 -0.06971567
000280 85 2c c5 3d f8 46 11 3e 80 0a 85 3d d7 cb 65 bd
       0.09627632 0.14187229 0.06496143 -0.0561026
000290 c0 a8 1f be 00 29 45 3d ba dc b2 3d 8e 82 c1 bd
       -0.15591717 0.048134804 0.087335065 -0.094487295
0002a0 2b 5f f7 bc 2a fe 20 be 66 2d 6b 3d 6c 9c 66 be
       -0.030196747 -0.15721956 0.057416342 -0.22520608
0002b0 4b ca e5 bb 6e 53 98 3c d7 24 8a 3d 4e 34 9e ba
       -0.0070126406 0.01859447 0.06745308 -0.0012070031
0002c0 a1 aa 18 be 7a be 06 3e 28 17 21 3e 2b 35 1d be
       -0.1490884 0.13158599 0.1573149 -0.15352313
0002d0 10 3a 84 3d 3e 09 9c 3d 77 39 1a 3d 3e 15 ac 3c
       0.06456387 0.0761895 0.03765246 0.021006223
0002e0 de 6a 7d 3b db 19 f3 3d cd 12 fd bd f1 79 05 bc
       0.0038668434 0.11870166 -0.123571016 -0.008146749
0002f0 ed d2 92 3d da 9c 77 39 19 a3 df bd 7b 66 96 3a
       0.07169137 0.00023614187 -0.1091978 0.0011474633
000300 f9 5b ff 3d 92 98 b6 bd 7c d0 8d bd 15 06 1b bf
       0.12468714 -0.08915819 -0.06924531 -0.60556155
000310 26 22 75 be 71 ca 03 be a1 8b 1f be d5 37 fb 3b
       -0.23938808 -0.12870194 -0.15580608 0.007666568
000320 83 f8 46 3c 6f ec 92 bd f2 53 89 3d e0 c8 ab 3d
       0.012144211 -0.071740024 0.067054644 0.08387923
000330 86 18 ed 3d ef 99 cb 3d 53 53 01 3d 84 4a ec bd
       0.11576943 0.0994147 0.031573605 -0.1153765
000340 01 4a 09 3e c9 3e 4c bd c4 81 e4 bd ce 3e f6 bd
       0.13407136 -0.049864564 -0.11157563 -0.12023698
000350 44 4d bc bc 12 51 50 bd 85 4b e4 bd c5 c5 1c bb
       -0.022986062 -0.050858565 -0.11147217 -0.002392159
000360 25 74 29 3c 1d a2 a9 be 0d 44 de 3d e9 59 aa bd
       0.010342632 -0.33131495 0.108528234 -0.0831793
000370 dc 9d 8b be 2e 56 da 3d 71 a1 5e 3e 10 2a a5 bd
       -0.27268875 0.10660969 0.21741273 -0.080646634
000380 30 e1 24 3d b6 90 cf bc 7c d5 bd 3c c6 34 4a 3d
       0.040253818 -0.025337558 0.023173086 0.049366735
000390 c2 9d 0e 3e cf 1a d5 3d 27 82 b8 bd 39 2e 42 3e
       0.13927367 0.10405504 -0.090091996 0.18962945
0003a0 77 3c 97 be d9 bc b2 bd b1 02 bd 3d 1a 16 83 3e
       -0.2953832 -0.08727426 0.09229029 0.256028
0003b0 ac 78 84 3d 08 e7 ff bd ca a5 76 3e 92 69 7d bd
       0.06468329 -0.124952376 0.24086681 -0.061868258
0003c0 25 20 f5 bc 3d 90 a0 3e 6e 0b 05 3e 64 38 cf 3d
       -0.029922554 0.31360045 0.12992641 0.101181775
0003d0 cc 97 bb 3d bc 1e 9a 3d 50 2c 8a 3d ec 56 09 bd
       0.09159812 0.07525393 0.06746733 -0.03353016
0003e0 fe 93 f1 3d 2b c2 7d bd 3d c1 00 be de 30 21 bd
       0.117958054 -0.06195275 -0.12573715 -0.039353244
0003f0 dd 91 06 3c 6c 4b af 3d da c7 ce 3d c2 89 f7 bd
       0.008213487 0.085593075 0.100967124 -0.12086822

linear_layers.0.bias f4 [64]
000000 c0 56 00 be 74 89 e1 3d cb 31 73 3b 6d 92 05 3e
       -0.12533092 0.11012545 0.0037108536 0.13044138
000010 8b c4 9b bd 93 3d 27 3d 53 05 60 ba 27 cb 78 3e
       -0.07605847 0.040830206 -0.0008545715 0.24296246
000020 c5 ff 05 bd 76 ac 54 bc 49 99 9c 3c a5 d8 38 bd
       -0.032714624 -0.012980571 0.01911606 -0.045128483
000030 2e f5 03 be ae 83 a9 bd 16 80 08 be 73 95 d7 3d
       -0.12886497 -0.08277069 -0.13330111 0.10526552
000040 6e a0 dc 3c 78 99 da 3c 28 59 58 bd 57 ad 67 bd
       0.026931968 0.026684508 -0.0528194 -0.056561794
000050 b7 61 96 bd c4 08 47 3e 08 6a 6b bd 83 06 23 be
       -0.073428564 0.19436938 -0.057474166 -0.15920453
000060 36 2b 5c bd 8e 8d 53 3d 1b 38 54 3c 2e d6 ba bd
       -0.053752147 0.05164867 0.01295283 -0.09122883
000070 0b 51 30 be a0 5d 7b bd ae d9 24 bd 65 00 77 3d
       -0.17218415 -0.061368585 -0.040246658 0.06030311
000080 a9 5f 61 3d 5c 57 bb bd 49 e9 de 3d b6 77 c7 bd
       0.05502287 -0.09147522 0.10884339 -0.0973963
000090 33 93 19 be 0f bc 2e 3e 1e 0b 59 bd 10 b9 04 be
       -0.14997558 0.17063926 -0.052989118 -0.1296122
0000a0 50 b5 03 3e 9f 9e 63 bc 91 84 d9 3c be 8c 8f bb
       0.12862134 -0.013892799 0.02655247 -0.0043807914
0000b0 b9 9b df bb c4 dd ba bd 70 31 27 3d 2e 09 93 bd
       -0.0068239835 -0.0912433 0.04081863 -0.07179485
0000c0 16 dc 01 bd c3 4b 48 3d ab 37 86 3a b1 1b 99 bd
       -0.03170403 0.048900377 0.0010239979 -0.07475985
0000d0 db 8f 91 3e 69 b0 da 3c 3b f0 cc bd 7d 6b e5 bd
       0.28430066 0.026695447 -0.10006758 -0.112021424
0000e0 94 3a b8 3d 55 67 18 bd d7 4f 32 bd d6 a5 51 bd
       0.08995548 -0.03720792 -0.043533172 -0.051183544
0000f0 78 98 f4 3d 0e 1b 2a bc 56 ed c4 3b 72 4f b1 bd
       0.119431436 -0.010382427 0.006009738 -0.08657731

linear_layers.1.weight f4 [32, 64]
000000 f5 7c 11 3e 1b c3 b0 bc ce 73 34 3e 03 ed ac be
       0.14207824 -0.021577409 0.17622301 -0.33774576
000010 e6 bf 44 be fb aa 34 bd 67 e5 4d bd 86 f3 54 3e
       -0.19213828 -0.044108372 -0.050267603 0.20796022
000020 b6 08 f9 bd d6 ad 9a bd d4 5c 03 3e ba 14 cb be
       -0.121598646 -0.07552688 0.1282838 -0.3966425
000030 a6 f5 29 3c 25 d3 d6 bc a6 0f f3 bd d0 01 4e bc
       0.010373509 -0.026223728 -0.11868219 -0.012573674
000040 0c 0a d0 3e 5c d7 55 3e 3b 8b 95 bc 7a 7e d4 3d
       0.40632665 0.20882934 -0.018254867 0.10375686
000050 44 0d 16 3e 00 77 24 3d 41 bb 15 3e ea 8f d9 bc
       0.14653498 0.04015255 0.14622213 -0.026557881
000060 08 3d 37 bd ca ad aa 3d 8c e6 51 be 65 2e c6 be
       -0.04473594 0.08333929 -0.20498103 -0.3870727
000070 01 ac 49 bd db 29 02 be 2d 53 14 3e e7 6a f8 bb
       -0.0492363 -0.12711279 0.14484854 -0.007581103
000080 70 3c 92 3d 49 f7 7c be d6 2a 28 3e 96 da 42 3e
       0.07140434 -0.24703707 0.1642259 0.19028696
000090 57 74 fa 3c 38 04 1b be 44 6f 82 3e 5a c9 c2 3c
       0.030573053 -0.15138328 0.25475514 0.023777653
0000a0 42 5c 38 3e 02 cd 1f be 00 60 0a 3c d5 2e 45 be
       0.18003944 -0.15605548 0.00844574 -0.19256146
0000b0 fd 65 4f be e0 4c 0a be c7 e3 6f 3d b9 f1 b2 3d
       -0.20253749 -0.13505888 0.058566835 0.08737511
0000c0 10 17 8e 3e 49 b5 64 3e 8f 48 08 bd 76 72 32 3e
       0.2775197 0.2233478 -0.033272322 0.17426476
0000d0 0f ba b7 3d 92 a3 50 be 87 7c 1d be 26 6c 00 3d
       0.08971035 -0.20374897 -0.15379535 0.03135314
0000e0 87 86 37 be 80 08 1d be 3e e1 9a 3d ee 18 98 be
       -0.17922412 -0.15335274 0.07562493 -0.2970652
0000f0 68 fb 3b bc be b6 cb 3e 9a af de 3d 44 57 e3 3d
       -0.011473514 0.3978786 0.10873337 0.11100629
000100 62 63 ac bd 39 8e 44 be 8e 15 d5 bd f8 51 8d 3d
       -0.08417393 -0.19194879 -0.10404502 0.069004
000110 55 70 43 3e 39 81 72 be 25 b9 37 3e fa eb 8b be
       0.1908582 -0.23682107 0.17941721 -0.27328473
000120 a2 f3 7a bd db a9 75 3e 22 cd 2a be 16 34 c7 3d
       -0.061267503 0.23990576 -0.16679814 0.097267315
000130 84 d4 48 be ed f4 86 be c5 57 95 3d aa fe 99 3e
       -0.19612318 -0.2635874 0.07292131 0.30077106
000140 75 37 81 bd 05 89 a9 be 6f d6 b6 bc d4 84 95 3d
       -0.06309406 -0.3311235 -0.022319047 0.073007256
000150 b6 d1 a4 3e 7c 3a 37 ba ff e4 2c 3e 07 85 54 3e
       0.32191247 -0.0006989611 0.1688423 0.20753871
000160 74 36 64 3d 48 2a 33 3e 62 c6 00 3e fb 0e a3 3e
       0.055715993 0.17496598 0.12575677 0.31847367
000170 f1 f3 4b be d1 3a ff bd 87 18 43 3d 2b 98 30 3e
       -0.19917275 -0.1246239 0.047630813 0.17245547
000180 74 6e bf be 77 49 7c 3e 80 b5 32 be ec 24 ce 3c
       -0.37388957 0.246374 -0.1745205 0.02516409
000190 b5 5b ae 3e 2b 7b fc 3d a1 91 e8 bd 70 36 c0 bd
       0.34054342 0.1232818 -0.113559015 -0.09385383
0001a0 18 ec 7c 3e 0e e1 c5 3a 36 78 9e bd f2 2f cc 3e
       0.24699438 0.0015096979 -0.07737772 0.3988033
0001b0 14 ba 10 be 81 d3 60 be a3 26 79 be 63 b7 16 be
       -0.14133483 -0.21955682 -0.24331145 -0.14718394
0001c0 aa 76 cc bd cb ae a0 3c 3e 78 63 be c7 53 55 be
       -0.09983571 0.019614598 -0.22213838 -0.2083274
0001d0 f1 06 87 3e d0 aa 23 3e a4 0e d7 3d a2 be 73 be
       0.26372483 0.15983129 0.10500839 -0.2380319
0001e0 19 56 f8 bd a4 43 9d 3d 2d 45 1f be c4 8a 40 3e
       -0.12125797 0.07678917 -0.15553732 0.18802935
0001f0 01 f0 be be 44 a4 20 be b2 c8 69 be e0 13 60 be
       -0.37292483 -0.15687662 -0.22830465 -0.21882582
000200 51 8c 5d 3e a7 76 37 3e 0b 6a 42 be b7 fb 8d 3d
       0.21635558 0.17916356 -0.18985765 0.069327764
000210 10 c6 9a bb 36 c5 37 3e 7c 21 ba 3c fc 8f 15 3e
       -0.004723318 0.17946324 0.022721045 0.14605707
000220 34 74 81 bd 0f f4 a4 3d 6b f8 9f bd 34 32 d4 3c
       -0.06320992 0.08054363 -0.07811054 0.025902845
000230 5a 50 e1 3d 6f 8a 5d be e0 58 f1 3e 47 c0 33 3e
       0.11001654 -0.2163484 0.4713812 0.17553817
000240 32 02 f4 bd bf 08 92 bd 8e c5 85 3e e6 a7 63 3e
       -0.11914481 -0.071305744 0.26127285 0.22232017
000250 4d 83 67 3e 31 fb 2b 3e 6a 6a ef 3d f0 93 5c be
       0.22608681 0.1679504 0.11690219 -0.21540809
000260 2e 2f 85 3d 3b 0d 99 be 08 dd 9d 3d 0e a1 7a be
       0.065031394 -0.29892907 0.07708174 -0.244755
000270 26 e7 97 3e 79 59 4b 3e 56 ad ab 3d 23 bc 1a 3d
       0.2966854 0.1985835 0.083826706 0.037777077
000280 46 92 26 3e be c9 29 bc aa c2 24 3e da 3b 81 be
       0.16266736 -0.0103630405 0.16089883 -0.25240976
000290 e8 01 3d 3e ca 15 71 be 4c 23 63 be ba 53 00 3d
       0.18457758 -0.23543468 -0.22181433 0.031329848
0002a0 9b ae 08 3d 8b 28 04 3e e6 ba b4 3d c8 b5 5c 3c
       0.03336964 0.12906091 0.088247105 0.013471074
0002b0 a9 87 72 bd b4 ac 21 3e 2d dc 18 be d0 96 46 be
       -0.059211407 0.15788537 -0.1492774 -0.19393468
0002c0 f0 ea 1a 3e c0 c9 1d 3e f8 d3 74 bc bc 1a d9 bd
       0.15128684 0.15408993 -0.014943115 -0.10600802
0002d0 05 0b eb bb 9d 5f 1b 3d 8f c4 cc 3c f1 71 86 bd
       -0.0071729445 0.03793298 0.02499607 -0.06564701
0002e0 27 22 ec bd 85 36 d4 bd d2 9a d9 bc 8a a0 97 3e
       -0.115299515 -0.10361961 -0.026563082 0.2961467
0002f0 8b ee b6 3d 28 6e ae bc e1 40 e2 bd 01 3e 2f 3d
       0.08932217 -0.021292761 -0.11047531 0.04278374
000300 11 ee c0 3b 5c d3 2a 3e 9c 8d 3c 3d a3 39 9d 3d
       0.0058877547 0.1668219 0.046033487 0.07677009
000310 df e4 02 3e 60 29 87 3d 6d a5 ea 3d 5e 83 94 bd
       0.1278262 0.065996885 0.11457334 -0.07251619
000320 61 c6 e3 3d 05 bb c7 3b ed d1 13 3d c0 af e1 3c
       0.11121822 0.0060952925 0.036088873 0.027549624
000330 03 c1 15 3d 5e b6 d8 3d 8a 62 05 be 45 40 27 be
       0.036561023 0.10581659 -0.13025871 -0.1633311
000340 da 29 2a 3c e9 a5 d2 bb 3e cb 74 3d 4a 51 39 3d
       0.010385955 -0.0064284694 0.05976414 0.04524354
000350 02 85 5a bd 54 47 ad bc 62 15 a9 3c 61 3f 02 3d
       -0.053349502 -0.021152176 0.020640079 0.031798724
000360 94 93 fb bd e5 41 80 bd b9 43 26 3e ef ac 0e 3e
       -0.12284008 -0.062625684 0.16236772 0.13933156
000370 50 10 d2 bb a0 c6 ab bd 65 ec 2c be 6f 77 c9 3c
       -0.006410636 -0.08387494 -0.16887052 0.024593083
000380 68 dc 65 3d a3 c3 0b 3c ce f1 35 be 53 ad 7c bd
       0.0561184 0.00853053 -0.17768022 -0.061688732
000390 45 af 93 3d fd 5a 12 3e a9 27 f3 bd 7c 2d 40 3e
       0.072111644 0.14292522 -0.11872799 0.18767351
0003a0 36 63 36 bc de 37 d2 bc 09 4c d5 3c ec 01 5e bd
       -0.011132052 -0.025661405 0.026037233 -0.05420105
0003b0 c1 ec e0 3d 04 ac a1 3d 45 d7 98 3d a3 0c f3 bd
       0.10982657 0.078941375 0.074629344 -0.11867645
0003c0 94 f5 22 be 02 a7 6c 3d 06 5a 4e 3e 0b a3 54 3c
       -0.15913993 0.05777646 0.20151529 0.012978326
0003d0 83 a6 14 be f4 99 2e 3e 40 f5 e4 bc 5e 7d c4 3d
       -0.14516644 0.17050916 -0.027948976 0.095942244
0003e0 ca 43 a9 3c 6a 46 22 3d b0 21 c2 3c e1 1b be bd
       0.020662207 0.039617933 0.023697704 -0.09282661
0003f0 1e 5f f1 3d eb e0 5b 3d cf bd 8d bd a8 83 51 bd
       0.1178572 0.053681295 -0.06920969 -0.051150948

linear_layers.1.bias f4 [32]
000000 e3 95 8e 3d f9 72 22 3d 99 82 15 3e 0c 02 42 3d
       0.069621824 0.039660428 0.146006 0.047365233
000010 25 f3 94 bd b1 4b 07 3e 7c 28 78 3d 18 c5 74 3d
       -0.07272939 0.13212468 0.060585484 0.059758276
000020 f7 25 08 bd 9a ad ed 3d e5 c6 11 be ab 6e 94 bb
       -0.03323933 0.116053775 -0.14236028 -0.004529794
000030 43 e4 23 3e 6f 23 3c 3d bb b1 dd 3d 23 ca 0d 3e
       0.16005044 0.04593223 0.10824915 0.1384664
000040 27 12 68 3d 05 38 f9 3d 5e 09 dd 3d 39 9a 2e be
       0.056657936 0.12168888 0.10792802 -0.17051019
000050 22 43 c3 bd 6e 92 94 3c 55 fa 0d 3e 34 a7 6b bd
       -0.09534289 0.01813623 0.13865025 -0.057532504
000060 89 e4 a8 3e 30 bc ba 3d b8 c1 91 bb e0 df 04 3e
       0.32986858 0.09117925 -0.004448142 0.12976027
000070 c6 f8 05 3e db c5 eb 3d 33 6a 4a 3e 2f 9c 9a 3d
       0.13083181 0.11512347 0.19767074 0.07549321

linear_layers.2.weight f4 [6, 32]
000000 f0 ab 1f 3d f7 1e a2 be be 0b 28 3e 62 e1 01 3e
       0.03898233 -0.3166425 0.1641073 0.12683633
000010 5c 0a 1e be 27 93 93 be 12 44 72 3e 78 83 80 3e
       -0.1543364 -0.28823206 0.2365878 0.25100303
000020 61 bd 66 be c5 ac 2c 3b 15 9d 4a be d6 5a 36 3d
       -0.2253318 0.0026348096 -0.19786485 0.04452022
000030 eb 23 34 bd bc 81 43 3d 86 7d 37 3e 9b e9 42 3e
       -0.043979567 0.047731146 0.17918977 0.19034426
000040 ed 8a d0 bc db 9d a1 3e f1 a9 2f be 21 a0 23 be
       -0.02545687 0.31565747 -0.17154671 -0.15979053
000050 95 6d 84 be b8 6a 79 be 5e 08 eb bd 19 49 6e be
       -0.25864854 -0.24357116 -0.11476205 -0.23270072
000060 c5 a6 73 3e ac cd 60 3e ec b0 f4 be 53 c2 e2 3d
       0.23794086 0.21953458 -0.4779123 0.11072221
000070 81 3d 21 3e b2 0e ae be d2 61 1f 3e 92 8e 19 3d
       0.15746118 -0.33995587 0.15564659 0.03748948
000080 0f c4 81 be 00 f3 3e be 6a df 0f 3e 7a be 73 bb
       -0.25344893 -0.18647385 0.1405007 -0.003719239
000090 c1 5f aa 3e 5f f7 80 be e1 f5 81 3e 5e d6 4a 3e
       0.3327618 -0.2518873 0.25382903 0.19808337
0000a0 48 c0 9c be 41 65 be be 96 ed 27 be e8 12 82 be
       -0.3061545 -0.37186626 -0.16399226 -0.2540505
0000b0 90 aa 99 be a1 58 b5 bd 42 be 9b be ea 46 46 3d
       -0.3001294 -0.08854795 -0.30418593 0.048407473
0000c0 77 0c 5b be 37 23 6b be d8 17 48 3e f2 a0 69 be
       -0.21391474 -0.22962652 0.19540346 -0.22815302
0000d0 f1 05 52 be 68 a1 68 3e 78 57 c6 3d 5f 6d 93 be
       -0.20510079 0.22717822 0.09684652 -0.2879438
0000e0 eb 09 85 3e 4e dd b0 be 7b 19 c3 3e c2 76 1a 3e
       0.2598413 -0.34543842 0.38105378 0.15084365
0000f0 f8 f1 1e 3e 5a 7f 8b be 6b cb 48 3e 88 1b 88 3e
       0.15521991 -0.272456 0.19608848 0.26583505
000100 b6 9f 69 3e fe 1c d8 be d5 54 1f bf 91 51 5f be
       0.22814831 -0.4220962 -0.6223882 -0.21808459
000110 2c 55 1f 3e 9a 41 9b 3e 54 aa 10 bf b8 2b ed be
       0.15559834 0.30323488 -0.565099 -0.46322417
000120 1a 6e 51 be f9 8e a0 3e 9c ed d0 3e d5 62 e1 3e
       -0.20452157 0.3135908 0.40806282 0.44020715
000130 15 53 c0 be 41 af 99 be 50 0f 86 3e 90 a6 06 3e
       -0.37563387 -0.3001652 0.26183558 0.13149476
000140 4d 55 63 be 28 79 7f be 66 4c bf 3e 3e 7b b8 bd
       -0.22200508 -0.24948561 0.37362975 -0.090078816
000150 e6 17 ac 3a 3f f8 59 3d b2 f2 85 3e 03 79 a2 3e
       0.0013129681 0.05321526 0.26161724 0.3173295
000160 ea b6 5d 3e 66 08 26 3e 8d 79 7e be 53 f0 a5 be
       0.21651807 0.16214141 -0.24851055 -0.32409915
000170 52 5c 38 be a2 72 cc bd 62 a6 85 3e 5c 93 74 3e
       -0.18003967 -0.09982802 0.26103503 0.23884338
000180 a0 68 19 3e e7 fc 38 3d 5c c0 75 3e 40 af bd be
       0.14981318 0.04516306 0.2399916 -0.37047768
000190 11 97 b2 bd 9e a2 6c 3e f8 8f 4d be cb d3 36 bc
       -0.0872022 0.23108909 -0.20074451 -0.011158894
0001a0 99 2b 3a 3e 0a 4a d8 be ed 51 8c 3e f1 da 2f 3d
       0.18180694 -0.42243987 0.27406254 0.04293341
0001b0 7f 0c 55 3e 6c cf 04 bf 07 03 1f bd 6e d6 79 be
       0.20805548 -0.51879 -0.038821246 -0.24398205
0001c0 87 08 2a bf d8 bd b9 3e 68 63 dc 3d 92 c7 ec be
       -0.6641926 0.36277652 0.10761148 -0.4624601
0001d0 9e 66 24 bf 68 a0 05 bf d0 50 2e bf 60 c6 01 bf
       -0.6421908 -0.52197886 -0.6809206 -0.5069332
0001e0 f2 92 bf 3c e0 eb 24 3e c7 17 7c 3d 38 99 2a be
       0.023385499 0.16105604 0.061546113 -0.16660011
0001f0 7a 97 ae bd 90 da 68 3e 94 60 c2 be f5 dd 87 be
       -0.085249856 0.22739625 -0.37964308 -0.26536527
000200 c8 c5 56 be c7 ea 42 3e 68 68 d3 bd bf 21 87 3d
       -0.20973885 0.19034873 -0.10322648 0.065982334
000210 38 d7 66 be 64 5a 86 3d 46 17 3b bc 11 43 57 3d
       -0.22543037 0.065602094 -0.011419123 0.052554194
000220 9a 6f 0c 3e 50 10 09 3e 62 4d 43 be c7 b3 ac 3d
       0.13714448 0.13385129 -0.19072488 0.08432727
000230 50 e5 5d 3e a3 fe 46 3c d6 23 3f be a9 e1 94 be
       0.21669507 0.012145671 -0.18666014 -0.29078415
000240 76 7e 4d 3d e2 8a e2 bd 75 92 a6 bc 0c 47 8e 3e
       0.05016943 -0.11061646 -0.020333508 0.2778858
000250 68 c4 a4 3d 35 1f 3a 3e 9d a9 7f 3e 1b 98 11 3e
       0.08045274 0.18175967 0.24967046 0.1421818
000260 77 07 79 be 81 07 0a 3c bc ca 17 be f3 14 64 be
       -0.24319254 0.008424641 -0.14823431 -0.22273616
000270 46 d5 2a be 86 98 57 3e 98 8c 73 be 07 76 30 be
       -0.1668292 0.21054277 -0.23784101 -0.17232524
000280 30 78 98 be 73 5c 3d 3e 14 44 70 be b8 ee 27 bd
       -0.29779196 0.18492298 -0.2346347 -0.040999144
000290 81 02 30 be 16 4b be 3d 60 a4 97 bc 9b f1 99 bb
       -0.17188455 0.09291665 -0.018510997 -0.004697991
0002a0 4e 18 1a 3e 28 c6 56 3d 45 ad 8b be 34 51 91 be
       0.15048334 0.05243507 -0.27280632 -0.28382266
0002b0 34 30 57 3e 03 41 19 3e 9a ce 30 be bd 41 65 be
       0.21014482 0.14966206 -0.17266312 -0.22388358
0002c0 c1 a4 84 3d 58 59 64 be 2f 3d 25 be 88 63 8e 3e
       0.06476737 -0.22299707 -0.16136621 0.2781031
0002d0 d5 62 34 3e f0 6f 2b 3e 7e 6e 83 3e 7d b3 05 3d
       0.17615826 0.1674192 0.25670236 0.032641876
0002e0 e6 e2 61 be 49 1a 3e be d6 43 11 3e f7 b2 28 be
       -0.22059211 -0.18564714 0.14186034 -0.1647452
0002f0 10 13 22 be 88 8d 45 3e 7e e0 5c be 5c 36 4a be
       -0.15827584 0.19292271 -0.21570012 -0.19747299

linear_layers.2.bias f4 [6]
000000 04 14 3d 3d c7 3d 5e bc 67 52 45 be a1 f0 7f bc
       0.046161667 -0.013564534 -0.19269715 -0.015621335
000010 66 1f 0f be 10 5f 22 be
       -0.13976821 -0.15856576
