LTN_reduce.pth (torch, 23654 bytes, 6 tensors)

linear_layers.0.weight f4 [64, 45]
-0.011489326 0.009388435 0.06630042 0.09133319 -0.042190902 0.12564526 -0.0409055 -0.13327405
0.077482894 0.11014997 0.12037672 -0.14323924 -0.11536383 0.14749998 -0.1090738 -0.05533623
0.16621234 -0.004475157 -0.10949181 -0.030034503 0.106915355 0.05724994 0.12119891 0.01943097
-0.07592569 -0.1485378 -0.16609663 0.057804603 -0.003874092 -0.18867695 0.12131685 0.08032489
-0.102976546 0.061833374 0.08207074 -0.03136098 0.029289983 -0.061471313 -0.17610821 -0.13621572
0.16214171 0.052094176 0.094310686 0.14813277 -0.04257316 0.043740425 -0.002985847 0.014481493
-0.20155543 0.042963676 -0.014570583 -0.17345242 -0.12258989 -0.12785849 0.1436919 0.11996661
-0.094203085 -0.07801292 -0.15952732 -0.10184954 0.07066551 0.25427982 -0.016930839 0.036262546
-0.033198014 -0.030993216 -0.12618048 0.04791454 0.11872732 0.03656698 0.030848812 -0.12646867
0.071658984 -0.14370297 -0.16947359 0.02642588 0.084355846 -0.0051486413 -0.004200661 -0.118095756
-0.081109464 -0.15998656 0.08922199 -0.08249962 -0.019012243 -0.040040072 -0.05940424 -0.08123106
0.014198288 0.090273425 0.1218333 -0.025220213 0.09677159 0.008175922 0.1767315 -0.04380364
0.05397832 -0.19533679 -0.19086224 -0.093025625 0.025082996 -0.19715087 -0.108925834 0.15598716
0.21163855 0.0008712297 -0.24473032 -0.13334514 -0.16263221 0.0010467517 -0.03808394 -0.21635602
-0.1114102 -0.11902941 -0.008057075 -0.17979462 -0.19673944 -0.20299496 0.09954324 -0.21047096
0.13542257 0.21604444 0.117490485 -0.019639121 0.021321218 0.0098587945 -0.06570398 0.13276632
0.061430037 -0.039348356 -0.14713287 0.07294465 0.08679741 0.021015177 -0.032477394 0.04753775
0.031836018 0.11756455 0.023668822 0.055406377 0.03520004 -0.052814856 -0.021177104 -0.020834692
-0.05839704 0.122754596 -0.0218669 -0.04236101 -0.21535526 -0.1259378 0.054537687 0.07765514
-0.063228674 0.07576794 0.14989004 0.09071993 0.06989104 0.09669526 -0.03666027 0.07190663
-0.011564602 0.064322166 0.07074449 0.034316167 0.0020549104 -0.115570635 -0.1020801 -0.15932293
0.09266948 -0.102506444 -0.11387845 0.028825494 -0.13765611 0.18948732 0.13203867 0.04997835
-0.11323564 -0.05906976 0.12801631 -0.010683316 0.1434094 -0.061966505 0.08421847 0.044708196
-0.12959234 0.08285542 -0.086913325 -0.089552164 -0.039727885 -0.04805956 -0.06763886 0.06231678
0.0066817296 -0.10042392 -0.10945013 -0.07070985 -0.08626035 -0.023294607 0.11709518 0.09930758
-0.0044482215 0.0020849926 0.10510853 -0.053852234 0.066701666 0.03297496 -0.07482079 -0.039969724
-0.063761815 0.085141785 -0.06927228 0.052459154 -0.056058053 0.06808581 -0.023386002 0.050931837
-0.02684863 -0.06537527 -0.05225595 -0.11358751 0.10842534 -0.030540451 0.13756947 0.07294429
-0.14810453 0.035707362 -0.09538522 -0.11532733 0.082169004 0.13113217 -0.08215863 0.0019246936
-0.15737917 0.12746175 0.0066314684 0.03442676 -0.14320605 0.13818298 0.13349366 0.12143672
0.10309761 -0.22680299 0.004926327 -0.06338706 0.019232402 0.12712389 -0.0409835 0.044694763
-0.09451916 -0.10791325 -0.033579838 0.07545764 0.02107642 0.14401178 0.109305725 0.13264039
00000000: ba3d 3cbc f3d1 193c 84c8 873d e50c bb3d
00000010: 5ed0 2cbd 27a9 003e 878c 27bd fe78 08be
00000020: 5aaf 9e3d 4f96 e13d 1288 f63d 4fad 12be
00000030: df43 ecbd 3c0a 173e 1662 dfbd 3ea8 62bd
00000040: 9133 2a3e 56a4 92bb 3e3d e0bd eb0a f6bc
00000050: 70f6 da3d ea7e 6a3d 2237 f83d b32d 9f3c
00000060: ee7e 9bbd 4b1a 18be 3c15 2abe 85c4 6c3d
00000070: 7ae4 7dbb 8834 41be f874 f83d 6081 a43d
00000080: 5ee5 d2bd fe44 7d3d b414 a83d 5f74 00bd
00000090: 8cf1 ef3c 58c9 7bbd b655 34be 227c 0bbe
000000a0: 7a08 263e b460 553d f625 c13d 1eb0 173e
000000b0: 3261 2ebd 2929 333d 33ae 43bb c943 6d3c
000000c0: 8c64 4ebe aefa 2f3d 74b9 6ebc 839d 31be
000000d0: 6910 fbbd 56ed 02be f823 133e 0eb1 f53d
000000e0: 8ced c0bd 3dc5 9fbd 215b 23be 7e96 d0bd
000000f0: 14b9 903d f730 823e 8bb2 8abc 0988 143d
00000100: a4fa 07bd 7ce5 fdbc 7535 01be 0942 443d
00000110: 4f27 f33d 42c7 153d a6b6 fc3c 0181 01be
00000120: f2c1 923d df26 13be 7c8a 2dbe 167b d83c
00000130: c2c2 ac3d efb5 a8bb b3a5 89bb 30dc f1bd
00000140: b81c a6bd 84d3 23be 05ba b63d 90f5 a8bd
00000150: 90bf 9bbc 0f01 24bd dc51 73bd 785c a6bd
00000160: f09f 683c 46e1 b83d bd83 f93d 9f9a cebc
00000170: 2f30 c63d 4df4 053c 1af9 343e 726b 33bd
00000180: 5f18 5d3d 5e06 48be 6471 43be 3884 bebd
00000190: db7a cd3c ebe1 49be 8214 dfbd 19bb 1f3e
000001a0: c7b7 583e 3c63 643a 969a 7abe a18b 08be
000001b0: 0f89 26be 2933 893a e8fd 1bbd 6f8c 5dbe
000001c0: 082b e4bd b1c5 f3bd d201 04bc 151c 38be
000001d0: 1076 49be e9dd 4fbe 54dd cb3d b385 57be
000001e0: 37ac 0a3e c13a 5d3e da9e f03d 39e2 a0bc
000001f0: d6a9 ae3c c886 213c cf8f 86bd e5f3 073e
00000200: 109e 7b3d be2b 21bd 00aa 16be 0164 953d
00000210: d7c2 b13d 0528 ac3c 0407 05bd f2b6 423d
00000220: 7c66 023d afc5 f03d 1ee5 c13c ccf1 623d
00000230: eb2d 103d 6454 58bd 9b7b adbc 84ad aabc
00000240: bc31 6fbd c366 fb3d 3722 b3bc bd82 2dbd
00000250: 1786 5cbe d7f5 00be e962 5f3d a809 9f3d
00000260: 097e 81bd 392c 9b3d c67c 193e 5fcb b93d
00000270: 0923 8f3d 2a08 c63d 1429 16bd c943 933d
00000280: 7579 3dbc 57bb 833d 7de2 903d 1c8f 0c3d
00000290: adab 063b 4cb0 ecbd 5f0f d1bd 8d25 23be
000002a0: 7fc9 bd3d e6ee d1bd 1b39 e9bd 7123 ec3c
000002b0: b9f5 0cbe f708 423e 2535 073e 19b6 4c3d
000002c0: 16e8 e7bd 22f3 71bd b516 033e 1309 2fbc
000002d0: ead9 123e 97d0 7dbd bc7a ac3d f11f 373d
000002e0: dbb3 04be 1ab0 a93d 9dff b1bd 2067 b7bd
000002f0: b5b9 22bd 1ada 44bd 3e86 8abd e13f 7f3d
00000300: 69f2 da3b 0eab cdbd 6427 e0bd 53d0 90bd
00000310: 44a9 b0bd 55d4 bebc 99cf ef3d c661 cb3d
00000320: 63c2 91bb 5fa4 083b 2443 d73d 2994 5cbd
00000330: e29a 883d c010 073d a43b 99bd 4bb7 23bd
00000340: 8e95 82bd d15e ae3d a0de 8dbd 69df 563d
00000350: 219d 65bd 9370 8b3d 0094 bfbc e79d 503d
00000360: a8f1 dbbc 78e3 85bd 560a 56bd 92a0 e8bd
00000370: 1b0e de3d f82f fabc 03df 0c3e d163 953d
00000380: b7a8 17be e241 123d 5459 c3bd bc30 ecbd
00000390: 3948 a83d 8347 063e c942 a8bd 0046 fc3a
000003a0: 0128 21be 5585 023e ca4c d93b 1303 0d3d
000003b0: 9ba4 12be d77f 0d3e 90b2 083e d1b3 f83d
000003c0: d724 d33d 0b3f 68be 076d a13b 13d1 81bd
000003d0: 458d 9d3c c42c 023e 51de 27bd db11 373d
000003e0: 4393 c1bd 9f01 ddbd 038b 09bd 8989 9a3d
000003f0: 75a8 ac3c d377 133e aedb df3d e2d2 073e

linear_layers.0.bias f4 [64]
0.10169341 0.056631457 0.118940964 -0.10575729 -0.20089841 0.12878641 0.0053038243 -0.02599908
0.015518789 0.08992207 0.014423586 0.077518806 -0.12034288 -0.11151213 -0.05635661 -0.026898794
0.018507376 0.06729046 -0.005518292 0.02608459 0.071042396 -0.055486105 0.048134156 -0.08432427
0.1187614 0.059530385 -0.042503808 -0.011782287 -0.08022159 0.16583419 -0.03127497 0.060277678
0.060452677 -0.040389754 0.042834044 0.05469434 -0.0716411 0.17137018 0.12870434 0.04747977
-0.010976555 -0.072961256 -0.015114582 0.04958264 -0.0870606 0.055783298 0.013221285 0.02673799
0.103917316 -0.08933467 0.03098905 0.01247746 -0.101490416 -0.03560262 0.043686453 0.053675093
0.12940168 0.15239991 0.06879227 0.13294432 0.056698512 -0.003637107 -0.05878657 0.08769669
00000000: a244 d03d 63f6 673d 5297 f33d 4797 d8bd
00000010: 50b8 4dbe 96e0 033e b4cb ad3b 06fc d4bc
00000020: 8542 7e3c 1029 b83d e850 6c3c 2ec2 9e3d
00000030: 5476 f6bd 7960 e4bd 30d6 66bd dc5a dcbc
00000040: c89c 973c 95cf 893d cad2 b4bb 5aaf d53c
00000050: ad7e 913d 6645 63bd 5228 453d 34b2 acbd
00000060: 2d39 f33d 22d6 733d 7918 2ebd 7e0a 41bc
00000070: 384b a4bd 70d0 293e 2f1a 00bd bae5 763d
00000080: 3a9d 773d ba6f 25bd c072 2f3d 2c07 603d
00000090: 92b8 92bd aa7b 2f3e 12cb 033e 267a 423d
000000a0: 02d7 33bc b66c 95bd 27a3 77bc 2b17 4b3d
000000b0: d44c b2bd 077d 643d 179e 583c a109 db3c
000000c0: 9ad2 d43d 18f5 b6bd c0dc fd3c 436e 4c3c
000000d0: 35da cfbd 0ed4 11bd 91f0 323d 6ada 5b3d
000000e0: e081 043e b90e 1c3e f6e2 8c3d 8e22 083e
000000f0: b33c 683d 885c 6ebb 30ca 70bd 529a b33d

linear_layers.1.weight f4 [32, 64]
0.02339188 -0.16913019 0.099361725 -0.08584705 -0.09816719 0.07462273 -0.08023715 -0.031904068
0.010773512 0.063515976 0.050484005 0.060780305 0.037481774 -0.015226424 -0.09748072 -0.15193282
-0.020356335 0.025030078 0.075687915 0.07785176 0.012455034 0.1591584 0.10943512 0.13822985
0.17485243 0.06564126 -0.17727187 -0.13193215 -0.041106373 0.0044233357 -0.09489024 -0.053858504
0.11191518 -0.118082725 -0.030579122 0.20552237 -0.06432316 0.12224703 -0.10529137 0.074927665
-0.15486713 0.0741757 -0.011143612 0.12804054 -0.17517373 0.05646274 0.010764818 -0.079930276
-0.01090916 -0.1393457 0.022929756 0.16013707 0.0435362 0.074747935 0.058219228 0.062798314
0.10779307 0.03232395 0.021072552 -0.015410992 0.0686435 -0.015547833 0.026932871 0.045823686
-0.09627588 -0.03735976 -0.0031948728 -0.06599551 -0.029429981 -0.09514483 0.07004978 -0.05863644
-0.18145038 0.0016686253 0.04402132 -0.16332085 -0.008974311 -0.11441261 -0.16119638 -0.08129494
0.0317924 0.0062208255 0.07418764 -0.18191478 -0.1269412 -0.12599699 -0.17337759 -0.016660132
-0.19732569 -0.065368325 -0.1833767 0.084521905 -0.010786508 0.16887702 -0.1347757 -0.14220554
-0.045656867 0.10203561 0.17261726 -0.011826412 0.063454464 -0.029470805 -0.021018766 0.047143314
-0.17279696 -0.001970032 -0.11833463 -0.15437907 0.084374376 -0.1636875 0.14710623 0.0025682969
0.08334643 -0.08533028 -0.18199624 -0.053758536 0.066226386 -0.020315256 0.08213995 -0.041209515
0.06268672 0.09126709 -0.06091104 -0.08778804 -0.039375883 0.14654304 -0.013637944 0.033609957
-0.07755933 0.15814406 -0.013474694 -0.024066348 0.046074525 -0.077221714 0.19515644 -0.058645733
0.034510206 0.16558933 0.0746604 0.01772646 0.011336608 -0.025982698 0.12739769 -0.012099515
-0.13465098 0.05134061 0.058813587 0.02450833 -0.059565097 -0.061003786 -0.08088811 -0.159083
-0.036112014 0.11921959 -0.10978994 0.018128987 -0.011950952 -0.13218127 -0.045271844 -0.09540511
-0.09209585 0.034417607 -0.05671855 -0.04898334 -0.017344305 0.13122585 0.103474185 0.020806955
0.029782297 -0.08667814 0.13060595 -0.013913873 0.13422799 0.018272864 0.0763201 -0.011950244
0.2305639 0.042132568 0.0752942 -0.15891352 0.052506045 -0.14201097 -0.042789914 -0.05396335
0.05380381 0.15849277 -0.027982328 -0.090998575 0.051228024 0.029988606 -0.17754127 0.037091237
0.07506685 0.030173484 0.21453199 0.038783573 0.069232956 0.13652092 0.13432746 0.042734236
0.10185747 0.07132316 0.042924426 0.039922927 -0.016613422 -0.053096343 -0.040407553 0.037690062
-0.024178201 0.10182204 0.0024143283 -0.017620659 0.15309308 0.14155687 -0.050336882 0.028836608
-0.06023562 0.06597563 -0.13458604 -0.1362336 0.12004803 0.013726094 0.115920156 0.05010494
0.12927292 -0.03422157 -0.064681634 -0.07884221 -0.0055601615 0.095519945 0.15132768 0.028382767
0.0565434 -0.06683374 -0.08831133 0.14550391 0.07442498 0.09988023 0.025861647 0.0031996993
0.19576663 -0.021506276 -0.15247665 -0.123980865 0.15741257 -0.14901279 0.06625282 0.0030077514
-0.012057486 0.049741015 0.083253406 -0.033582244 0.09285852 -0.021740433 -0.17270225 0.043541297
00000000: 54a0 bf3c 7730 2dbe 297e cb3d 94d0 afbd
00000010: e10b c9bd cdd3 983d 6053 a4bd d7ad 02bd
00000020: 6283 303c aa14 823d 51c8 4e3d c5f4 783d
00000030: 7d86 193d 4078 79bc f9a3 c7bd 4794 1bbe
00000040: 54c2 a6bc e10b cd3c 4402 9b3d be70 9f3d
00000050: 3310 4c3c 6bfa 223e 851f e03d 208c 0d3e
00000060: 840c 333e ed6e 863d c286 35be 3919 07be
00000070: 285f 28bd a1f1 903b d055 c2bd bc9a 5cbd
00000080: c933 e53d 5bd5 f1bd 1181 fabc 7574 523e
00000090: dcbb 83bd a75c fa3d 00a3 d7bd ad73 993d
000000a0: 7d95 1ebe 6ee9 973d b293 36bc 0f1d 033e
000000b0: be60 33be 7945 673d eb5e 303c 7cb2 a3bd
000000c0: 55bc 32bc a4b0 0ebe 2fd7 bb3c f9fa 233e
000000d0: 0453 323d 7215 993d 4977 6e3d 679c 803d
000000e0: 9dc2 dc3d 1e66 043d 58a0 ac3c 637e 7cbc
000000f0: f794 8c3d 57bc 7ebc 53a2 dc3c 9eb1 3b3d
00000100: 4a2c c5bd 8c06 19bd 1261 51bb a728 87bd
00000110: 2517 f1bc 4bdb c2bd 4276 8f3d c42c 70bd
00000120: 21ce 39be c6b5 da3a b34f 343d 953d 27be
00000130: fd08 13bc 2951 eabd aa10 25be f67d a6bd
00000140: bf38 023d 11d8 cb3b b0ef 973d de47 3abe
00000150: e0fc 01be 5b05 01be e589 31be d47a 88bc
00000160: bf0f 4abe d4df 85bd 1ac7 3bbe d219 ad3d
00000170: e5b9 30bc 19ee 2c3e a402 0abe 549e 11be
00000180: b202 3bbd 0cf8 d03d 94c2 303e 91c3 41bc
00000190: 6af4 813d c26c f1bc 8c2f acbc 5919 413d
000001a0: b0f1 30be a71b 01bb 6d59 f2bd 8c15 1ebe
000001b0: 79cc ac3d b29d 27be 04a3 163e df50 283b
000001c0: 88b1 aa3d a4c1 aebd 395d 3abe e931 5cbd
000001d0: b3a1 873d 2e6c a6bc fd38 a83d 4fcb 28bd
000001e0: e561 803d 3dea ba3d db7d 79bd 37ca b3bd
000001f0: 9b48 21bd 610f 163e af71 5fbc 98aa 093d
00000200: 6dd7 9ebd 84f0 213e f7c4 5cbc ca26 c5bc
00000210: a4b8 3c3d 6b26 9ebd 17d7 473e 8236 70bd
00000220: 935a 0d3d 4090 293e 8de7 983d 1537 913c
00000230: 2ebd 393c abd9 d4bc 8a74 023e 0b3d 46bc
00000240: f2e1 09be 884a 523d 84e6 703d b1c5 c83c
00000250: 88fa 73bd 1bdf 79bd aaa8 a5bd a7e6 22be
00000260: 31ea 13bd 6729 f43d 8cd9 e0bd 3e83 943c
00000270: edcd 43bc 875a 07be f86e 39bd c163 c3bd
00000280: c09c bcbd 7af9 0c3d b651 68bd c1a2 48bd
00000290: a515 8ebc 1260 063e 46ea d33d 5973 aa3c
000002a0: 01fa f33c 4f84 b1bd 91bd 053e 03f7 63bc
000002b0: 1073 093e f9b0 953c b64d 9c3d f5ca 43bc
000002c0: f118 6c3e 3393 2c3d d833 9a3d 3aba 22be
000002d0: 9410 573d 536b 11be 7a44 2fbd ac08 5dbd
000002e0: 6261 5c3d ee4b 223e 323b e5bc 765d babd
000002f0: 7ad4 513d aaaa f53c 61cd 35be fbec 173d
00000300: a6bc 993d 622e f73c 46ae 5b3e 86db 1e3d
00000310: 02ca 8d3d 24cc 0b3e 238d 093e 180a 2f3d
00000320: a69a d03d e011 923d 86d1 2f3d 3986 233d
00000330: df18 88bc 8d7b 59bd 6482 25bd e560 1a3d
00000340: 5d11 c6bc 1388 d03d b539 1e3b 3359 90bc
00000350: 6fc4 1c3e 49f4 103e 0c2e 4ebd c03a ec3c
00000360: a0b9 76bd 3b1e 873d ecd0 09be d280 0bbe
00000370: bedb f53d 69e3 603c 8c67 ed3d d63a 4d3d
00000380: 1f60 043e eb2b 0cbd ce77 84bd 0678 a1bd
00000390: 0432 b6bb f69f c33d a5f5 1a3e fa82 e83c
000003a0: 0d9a 673d 21e0 88bd 92dc b4bd fafe 143e
000003b0: 206c 983d 028e cc3d cedb d33c 0cb2 513b
000003c0: 0c77 483e ee2d b0bc d722 1cbe aee9 fdbd
000003d0: c330 213e cf96 18be 8faf 873d b21d 453b
000003e0: c38c 45bc 3cbd 4b3d c380 aa3d 898d 09bd
000003f0: 9c2c be3d fe18 b2bc dcd8 30be 5c58 323d

linear_layers.1.bias f4 [32]
0.030086305 0.03160937 0.19006443 -0.03157854 0.12697351 0.057642404 0.10415124 -0.02611879
-0.017282207 0.074297115 0.17685 0.049554426 0.0035613212 0.10550466 0.011290375 0.012581752
-0.064193755 0.1536307 -0.029521417 0.11096971 0.06614307 -0.0283205 0.046166647 0.05444744
0.09994457 0.12838581 0.0005502077 -0.043659627 -0.048169605 -0.051995695 0.04177503 -0.036805496
00000000: 8e77 f63c d478 013d 40a0 423e 8058 01bd
00000010: 5805 023e 711a 6c3d 3f4d d53d 13f7 d5bc
00000020: 6a93 8dbc 1629 983d 2b18 353e 95f9 4a3d
00000030: 0e65 693b d412 d83d 44fb 383c b123 4e3c
00000040: 0478 83bd 5e51 1d3e e6d6 f1bc 1644 e33d
00000050: 0576 873d 6500 e8bc 3d19 3d3d 4704 5f3d
00000060: bdaf cc3d 9277 033e d03b 103a 70d4 32bd
00000070: 7e4d 45bd 70f9 54bd 4b1c 2b3d 5cc1 16bd

linear_layers.2.weight f4 [6, 32]
-0.17247282 -0.14807777 0.23139806 0.10840841 -0.024959248 0.07933212 0.11939675 -0.24949455
-0.02819624 -0.008169423 -0.23027086 0.100387365 -0.25625542 0.13713454 -0.15507409 -0.17837864
-0.18356162 0.12221742 -0.20875944 -0.079610676 0.056802157 -0.07774148 0.14927457 -0.12002462
-0.21159604 -0.22718711 -0.21320157 0.1784187 0.083139285 -0.12782162 0.18376537 0.25325757
-0.071215786 -0.034121778 0.16514254 -0.12566558 0.1690888 0.15086436 -0.16363797 -0.14081745
0.22594082 0.09509137 -0.08286459 0.08422514 -0.05819816 0.0809733 -0.09422824 0.24957776
-0.20696142 -0.14472368 0.12180167 0.20653108 -0.053884804 0.042417794 -0.13960846 -0.26569927
-0.17536685 -0.21876706 0.15703148 0.15275867 -0.2286496 -0.05744089 0.18986358 -0.08788323
0.1992107 -0.14114444 0.122097656 0.23669848 0.024320805 -0.115158096 0.03262853 -0.08653081
-0.21890058 0.23742317 0.06295322 -0.07696861 -0.08176348 0.10950577 0.22607532 -0.21814924
-0.18292259 -0.03826084 0.26132342 0.18117312 -0.10931324 -0.21738988 0.13991532 -0.064597756
0.14796416 0.07553249 -0.14375992 -0.20940222 0.1343801 0.053611293 -0.11260628 -0.013900597
0.12634604 -0.048393987 -0.09645628 -0.27859783 -0.2378901 -0.1483972 -0.15261559 -0.038280398
-0.1300763 -0.20789051 0.24284892 0.17541648 0.19383772 0.08429799 -0.019781414 -0.2436753
-0.14562364 -0.22232865 -0.28502676 0.031969912 0.20566107 0.13377349 -0.07585936 -0.06340441
0.19636123 -0.13295515 0.22187766 -0.21630986 -0.08765171 -0.24490456 -0.053336784 -0.15468441
0.10378965 0.16022898 0.14915738 -0.03753424 -0.1746266 0.01799772 0.21770757 0.111537464
0.15290692 0.09169062 0.1768336 -0.24429424 0.027460156 -0.086334154 0.07454999 0.15600814
0.13010675 0.13081607 -0.029046424 0.0078260545 0.14968257 0.18696117 -0.056358337 0.09107851
-0.17437938 -0.061261475 -0.1269133 -0.20586914 -0.23693533 0.18028069 -0.12555048 0.00441739
0.077886246 0.14500567 0.16992615 0.0019966094 -0.192623 -0.16587913 0.20698704 0.06735002
0.07549971 0.039226495 0.15382172 -0.24081855 0.22616602 -0.11701964 -0.124379896 0.043237567
0.032099035 0.2266352 -0.12528071 -0.16620305 0.11467909 0.24455321 -0.00566017 0.08587897
-0.005302437 -0.011831717 -0.09893431 -0.15113646 -0.19089189 0.050275978 -0.106614485 -0.027167387
00000000: b79c 30be b3a1 17be 9df3 6c3e 3a05 de3d
00000010: 5677 ccbc e178 a23d 4986 f43d 807b 7fbe
00000020: cdfb e6bc 0bd9 05bc 20cc 6bbe e497 cd3d
00000030: e933 83be ff6c 0c3e becb 1ebe e4a8 36be
00000040: 94f7 3bbe 204d fa3d 09c5 55be ec0a a3bd
00000050: 61a9 683d ed36 9fbd 6fdb 183e 78cf f5bd
00000060: a2ac 58be bda3 68be 8351 5abe 64b3 363e
00000070: ee44 aa3d ace3 02be fd2c 3c3e faaa 813e
00000080: 95d9 91bd 47c3 0bbd 201b 293e 7aae 00be
00000090: 9d25 2d3e 307c 1a3e b690 27be 7332 10be
000000a0: 085d 673e 44bf c23d e9b4 a9bd 3b7e ac3d
000000b0: 3261 6ebd 54d5 a53d bcfa c0bd 5091 7f3e
000000c0: b2ed 53be 7232 14be 2773 f93d e27c 533e
000000d0: 50b6 5cbd 48be 2d3d 85f5 0ebe bc09 88be
000000e0: 5e93 33be 7904 60be dccc 203e c56c 1c3e
000000f0: 1f23 6abe 2447 6bbd 996b 423e 1ffc b3bd
00000100: e4fd 4b3e 2b88 10be 560e fa3d 1661 723e
00000110: 6d3c c73c 02d8 ebbd 7ea5 053d 1137 b1bd
00000120: 7927 60be 0f1f 733e 9eed 803d b8a1 9dbd
00000130: 9d73 a7bd 9044 e03d 4a80 673e 8462 5fbe
00000140: 0f50 3bbe 66b7 1cbd 2fcc 853e 7285 393e
00000150: 9fdf dfbd 749b 5ebe f645 0f3e d44b 84bd
00000160: eb83 173e c7b0 9a3d cd35 13be 896d 56be
00000170: f09a 093e 8497 5b3d 1f9e e6bd 54bf 63bc
00000180: db60 013e c638 46bd df8a c5bd 60a4 8ebe
00000190: 7699 73be 70f5 17be 4347 1cbe e8cb 1cbd
000001a0: b932 05be 40e1 54be 63ad 783e 61a0 333e
000001b0: 657d 463e 6da4 ac3d a20c a2bc 0586 79be
000001c0: 5d1e 15be 1faa 63be 07ef 91be e2f2 023d
000001d0: d198 523e ebfb 083e 275c 9bbd 2cda 81bd
000001e0: eb12 493e 6525 08be e633 633e 5580 5dbe
000001f0: bd82 b3bd 43c8 7abe ac77 5abd 9765 1ebe
00000200: ab8f d43d 1113 243e b6bc 183e 81bd 19bd
00000210: 51d1 32be f46f 933c bcee 5e3e c16d e43d
00000220: a293 1c3e 4bc8 bb3d de13 353e 4528 7abe
00000230: 1ff4 e03c f6cf b0bd aaad 983d 99c0 1f3e
00000240: b43a 053e a6f4 053e c4f2 edbc da38 003c
00000250: 6346 193e c072 3f3e 00d8 66bd 5f87 ba3d
00000260: 8290 32be 50ed 7abd 8ff5 01be 5ccf 52be
00000270: 2d9f 72be 809b 383e 4e90 00be c1bf 903b
00000280: d382 9f3d 5e7c 143e 1f01 2e3e 8cd9 023b
00000290: f73e 45be 38dc 29be 69f4 533e cfee 893d
000002a0: 989f 9a3d f6ab 203d 7183 1d3e 2399 76be
000002b0: 1198 673e fea7 efbd e3ba febd e019 313d
000002c0: 477a 033d 0f13 683e 9649 00be 2231 2abe
000002d0: dfdc ea3d 286c 7a3e f378 b9bb 50e1 af3d
000002e0: 11c0 adbb d1d9 41bc 129e cabd 84c3 1abe
000002f0: 2a79 43be 2fee 4d3d b258 dabd 248e debc

linear_layers.2.bias f4 [6]
0.17440745 0.16428772 0.085289896 -0.042441823 -0.12646945 -0.00087266084
00000000: de97 323e 0a3b 283e 78ac ae3d 7ad7 2dbd
00000010: 3581 01be 47c3 64ba
