LTN_reduce_19classes.pth (torch, 25738 bytes, 6 tensors)

linear_layers.0.weight f4 [64, 46]
-0.001645708 -0.06765724 -0.011011087 -0.12342089 0.025294887 0.06678007 0.0743949 -0.27497494
-0.24467559 -0.2570025 -0.29317915 0.03929469 -0.21303578 0.115921825 -0.26991257 -0.42158353
0.018092008 0.15900408 -0.08015994 0.061126012 -0.07614952 0.029533695 -0.06832892 0.043612566
0.014988529 -0.16489574 -0.19035977 0.053105734 0.23398134 0.052594367 0.21982673 0.23714012
-0.013842996 -0.0072965287 -0.20972122 -0.07869674 -0.13486968 -0.052666787 -0.09478534 0.08225741
-0.0076734703 -0.042995702 -0.122493446 -0.26232493 0.11764642 0.36825898 0.151285 0.11365748
0.05402388 -0.2460686 -0.23348202 -0.025862815 -0.099005245 0.2895709 0.083638206 -0.19328567
0.34307376 -0.25770542 -0.24012543 0.108154535 0.16022092 -0.45975763 -0.19640757 -0.25325364
0.0970233 -0.17153245 0.040294126 -0.16596407 0.024163807 0.0036505489 0.08059225 -0.010248525
-0.23923327 -0.29218653 -0.32559788 0.017589869 0.29215953 0.19376664 -0.0018619564 -0.059300818
0.08020217 0.05921025 0.08908122 0.046870783 -0.11052622 0.033334646 0.026045121 -0.09270171
-0.1280973 0.308986 0.093162544 0.2163372 0.10977731 -0.21403237 0.0058629704 0.03822205
0.026992897 -0.10234012 -0.13914898 -0.3521441 -0.30965197 -0.01276446 -0.06528682 -0.18345076
0.0236167 0.033818964 0.02010876 0.12172393 -0.20291962 -0.09175315 -0.13478398 0.05094695
-0.06166866 -0.07513654 0.03701209 -0.03988184 -0.011109471 -0.27901173 0.040285934 -0.0017199495
0.17302069 -0.115889974 0.13185453 0.091585636 -0.026273204 0.037330456 0.05780498 -0.013125743
0.06680325 -0.033271298 -0.013468108 -0.09401011 0.101767436 0.01728625 -0.033561185 -0.003010743
0.14607808 0.6232896 -0.093634106 -0.036709294 -0.13772167 -0.07330791 -0.033847205 -0.14165631
-0.096625336 0.24622504 0.13369712 0.010859824 0.035443656 -0.36668086 -0.34616458 -0.026393062
-0.15597665 0.46268916 -0.19199584 0.09084473 -0.13571073 -0.0031343973 -0.2414667 0.02349201
0.024908662 0.062126808 -0.088899635 0.064117506 0.09295713 -0.12774481 0.1494321 -0.28662667
-0.11174872 -0.075856 0.04769079 0.1370698 0.0054008206 0.06863442 0.15085655 -0.050763827
-0.13555773 -0.11412995 0.035994813 -0.03460349 0.012464431 -0.17003153 -0.017107885 -0.67467296
-0.099186614 -0.3147119 0.071090914 0.020482346 0.026057854 0.07398179 -0.0115266405 -0.24248238
0.12715204 -0.066755444 0.12850405 -0.23489255 -0.051238373 0.016020888 -0.24953973 0.30210483
-0.02469363 0.015021726 0.06676759 -0.03794905 0.08181679 -0.06845269 0.073983416 0.013365769
-0.052240636 -0.184303 0.0640921 -0.17450787 0.07877211 -0.24497959 0.16377853 0.26978937
-0.042676765 0.033408858 0.017965494 0.08897894 0.020810725 0.08119698 -0.05649581 -0.06081668
-0.021451537 0.06394245 -0.060883842 0.19341585 -0.15443656 -0.31807628 -0.0025660826 0.12400756
0.07790095 0.16118535 0.19482748 0.0802445 0.29686987 -0.075441934 0.1315204 -0.03905342
-0.098216936 0.07810574 -0.002685143 0.22991632 0.018679855 0.09403807 0.029741447 -0.09741684
0.059620764 -0.0087662125 -0.0631561 -0.0619512 -0.08423205 -0.048657432 -0.29267904 0.15047646
00000000: ccb4 d7ba e18f 8abd d967 34bc 17c4 fcbd
00000010: 3937 cf3c fdc3 883d 5a5c 983d 84c9 8cbe
00000020: 3d8c 7abe d595 83be 941b 96be 78f3 203d
00000030: 0d26 5abe 6c68 ed3d fb31 8abe ccd9 d7be
00000040: b135 943c f7d1 223e e52a a4bd 455f 7a3d
00000050: 48f4 9bbd a6f0 f13c 08f0 8bbd 17a3 323d
00000060: 7292 753c 6eda 28be aced 42be 6685 593d
00000070: ce98 6f3e 316d 573d 421a 613e dcd4 723e
00000080: bccd 62bc b817 efbb 29c1 56be c22b a1bd
00000090: 471b 0abe 21b9 57bd d11e c2bd 9376 a83d
000000a0: bc71 fbbb 431c 30bd d8dd fabd 744f 86be
000000b0: 9bf0 f03d 718c bc3e 74ea 1a3e 41c5 e83d
000000c0: 2548 5d3d 68f9 7bbe e915 6fbe 41de d3bc
000000d0: 43c3 cabd a342 943e 824a ab3d aeec 45be
000000e0: 5da7 af3e f7f1 83be 71e3 75be 2080 dd3d
000000f0: f410 243e 5a65 ebbe 111f 49be 76aa 81be
00000100: 27b4 c63d 34a6 2fbe 740b 253d 7cf2 29be
00000110: 2df3 c53c 0c3e 6f3b 8d0d a53d 6ee9 27bc
00000120: 91f9 74be 7999 95be c4b4 a6be a118 903c
00000130: ef95 953e c36a 463e e40c f4ba 6ae5 72bd
00000140: 0941 a43d 7286 723d 3770 b63d 94fb 3f3d
00000150: 925b e2bd e989 083d 945c d53c 65da bdbd
00000160: f02b 03be 6a33 9e3e 01cc be3d 8087 5d3e
00000170: edd2 e03d 4d2b 5bbe 291e c03b b98e 1c3d
00000180: 3520 dd3c b297 d1bd 127d 0ebe 3b4c b4be
00000190: b48a 9ebe 0722 51bc 19b5 85bd 84da 3bbe
000001a0: cf77 c13c c185 0a3d 20bb a43c 654a f93d
000001b0: 29ca 4fbe 13e9 bbbd d004 0abe c0ad 503d
000001c0: 4798 7cbd 30e1 99bd fd99 173d 245b 23bd
000001d0: 8004 36bc a0da 8ebe dd02 253d ee6f e1ba
000001e0: 562c 313e b957 edbd e004 073e 4091 bb3d
000001f0: e73a d7bc d2e7 183d eac4 6c3d 5b0d 57bc
00000200: 24d0 883d 7c47 08bd 57a9 5cbc 5f88 c0bd
00000210: 726b d03d e59b 8d3c 7477 09bd e34f 45bb
00000220: 7e95 153e e88f 1f3f 3dc3 bfbd 7c5c 16bd
00000230: e906 0dbe 7522 96bd 5ea3 0abd 5a0e 11be
00000240: 81e3 c5bd 6b22 7c3e e6e7 083e 67ed 313c
00000250: 5e2d 113d 98bd bbbe 7c3c b1be 4336 d8bc
00000260: 58b8 1fbe 98e5 ec3e 8f9a 44be cd0c ba3d
00000270: c1f7 0abe 766a 4dbb 0c43 77be 5172 c03c
00000280: 400d cc3c ae78 7e3d 0311 b6bd 0a50 833d
00000290: 4f60 be3d 89cf 02be ba04 193e bbc0 92be
000002a0: 83dc e4bd 645a 9bbd 6b57 433d 075c 0c3e
000002b0: 5ef9 b03b 3490 8c3d 247a 1a3e bbed 4fbd
000002c0: a5cf 0abe f7bc e9bd 4c6f 133d 64bc 0dbd
000002d0: 9d37 4c3c bf1c 2ebe d625 8cbc 5eb7 2cbf
000002e0: 5a22 cbbd eb21 a1be 1d98 913d 98ca a73c
000002f0: 4877 d53c c483 973d 3cda 3cbc 4d4d 78be
00000300: 2534 023e 14b7 88bd 9196 033e ac87 70be
00000310: 54df 51bd 3d3e 833c 5887 7fbe 7cad 9a3e
00000320: 4c4a cabc af1d 763c 72bd 883d 7770 1bbd
00000330: 908f a73d ed30 8cbd 9e84 973d 19fc 5a3c
00000340: 47fa 55bd edb9 3cbe b842 833d 31b2 32be
00000350: 4653 a13d eedb 7abe 8fb5 273e d521 8a3e
00000360: d5cd 2ebd bad7 083d 5f2c 933c 973a b63d
00000370: 417b aa3c 9a4a a63d 2768 67bd e91a 79bd
00000380: 22bb afbc 42f4 823d 5661 79bd ce0e 463e
00000390: 9e24 1ebe e5da a2be b92b 28bb adf7 fd3d
000003a0: 898a 9f3d c60d 253e db80 473e 3a57 a43d
000003b0: 54ff 973e 4d81 9abd 49ad 063e 7bf6 1fbd
000003c0: f625 c9bd e7f5 9f3d 39f9 2fbb 2f6f 6b3e
000003d0: 7f06 993c 0897 c03d 56a4 f33c 7b82 c7bd
000003e0: e734 743d 29a0 0fbc fc57 81bd 8bc0 7dbd
000003f0: da81 acbd 044d 47bd 07da 95be 8016 1a3e

linear_layers.0.bias f4 [64]
-0.05297068 0.10703318 0.18033445 0.29547834 0.2526821 0.017699193 0.14885835 -0.080053926
-0.22152646 -0.16316697 0.08570575 0.07865716 0.07992641 0.1721511 0.012701258 0.16210426
-0.041784555 -0.072958425 0.11726758 0.058377154 -0.22829394 -0.051038645 0.113896936 0.051947393
-0.0023060625 0.018451937 0.11399947 0.2033014 0.12049342 -0.05024293 0.010000601 0.073784396
0.06936792 -0.01663249 0.21067528 0.11204116 0.08524716 0.1433549 -0.13210575 0.04011566
0.30984294 0.1491483 0.029109623 0.03265236 0.16762964 -0.20174907 0.23413755 0.12626435
0.1467497 0.06764202 -0.17723614 0.12655807 0.3404901 0.17103033 0.0018241486 0.04685309
0.18045667 0.19840865 0.10566538 -0.05018295 0.16873017 0.03959365 0.08075571 0.3873126
00000000: c9f7 58bd 3634 db3d 98a9 383e f048 973e
00000010: 8c5f 813e e6fd 903c 536e 183e 50f3 a3bd
00000020: d5d7 62be 3e15 27be 7f86 af3d 0117 a13d
00000030: 75b0 a33d 6148 303e f018 503c a9fe 253e
00000040: 4826 2bbd 3a6b 95bd fc29 f03d e21c 6f3d
00000050: e3c5 69be e60d 51bd cc42 e93d cac6 543d
00000060: 4f21 17bb 8428 973c 8e78 e93d 3e2e 503e
00000070: 41c5 f63d 88cb 4dbd 90d9 233c 461c 973d
00000080: c510 8e3d dc40 88bc 43bb 573e d675 e53d
00000090: 1096 ae3d a0cb 123e bb46 07be 5150 243d
000000a0: bca3 9e3e 55ba 183e 4e77 ee3c 7bbe 053d
000000b0: 1ba7 2b3e 4f97 4ebe c1c1 6f3e 714b 013e
000000c0: 8e45 163e e687 8a3d 647d 35be 7098 013e
000000d0: b854 ae3e 9322 2f3e 4518 ef3a 07e9 3f3d
000000e0: a2c9 383e a32b 4b3e 1767 d83d a38c 4dbd
000000f0: 9ac7 2c3e f32c 223d 4063 a53d d64d c63e

linear_layers.1.weight f4 [32, 64]
-0.11080265 0.13762857 0.18325351 -0.07523108 -0.09857776 -0.057359148 0.11793787 -0.04384584
-0.022869049 0.054717492 0.015769599 0.22814886 0.062504105 0.087429374 0.17525753 -0.09120532
-0.072854154 -0.13107705 0.18229443 0.1132088 0.1726215 -0.14212894 0.041690066 -0.111012794
-0.03737121 0.03261793 -0.0026389791 -0.057602774 -0.17796856 0.21854945 -0.022398634 -0.06906244
-0.14218956 -0.05857941 -0.012539592 0.2399386 -0.12329096 -0.03998334 -0.025008956 0.01958927
-0.20775314 0.0010111383 0.3681801 -0.13333242 -0.23868904 -0.0068959272 0.015040182 0.12747166
0.2534362 0.080220364 0.1648734 -0.078328766 0.048630115 0.09155546 0.15434936 0.25458804
-0.40146407 0.1554727 0.37187588 -0.14900376 0.07010358 -0.013753516 -0.1970427 -0.19421291
0.34467465 -0.24939027 0.40109047 -0.27394548 -0.17511357 0.20990352 -0.12234639 0.2525466
0.015740726 0.269293 0.34385505 0.0107973395 -0.12903547 0.20484367 -0.31830284 0.296022
-0.119671114 -0.14934392 -0.04800024 0.17675407 0.268334 -0.031701423 -0.10851205 0.30044603
-0.10892882 0.22846845 -0.23870714 -0.015690893 0.26494563 -0.0061631324 -0.18625759 0.064429894
-0.19444807 0.1478398 -0.2702242 0.12010133 0.0648228 -0.12058249 -0.16170529 -0.16293529
-0.33636308 0.018447025 0.2659948 0.18481202 -0.105921626 0.26295912 -0.31503212 -0.12365028
-0.12559046 -0.32937634 0.5112943 -0.13534597 -0.1540953 0.37307304 0.15674332 0.14187178
-0.16110493 -0.08903359 0.14623296 0.14185855 -0.2961911 -0.2164726 0.015908998 -0.21499668
-0.04233306 0.38053536 -0.13072725 -0.27529478 -0.05139898 0.004200604 -0.086237974 -0.18520945
-0.15258954 0.2164525 -0.0008498883 0.10585769 0.078030184 -0.0037596538 0.030964294 -0.17694154
0.068722636 -0.28006133 0.09737192 0.2970614 0.03875545 -0.19197592 0.24322622 0.13029072
0.114417665 0.041632205 -0.11815753 0.20238876 -0.29216012 0.2383744 0.10076148 0.14646217
0.033701017 -0.16674373 -0.009576111 0.043290734 0.0935658 0.012271173 -0.021313474 -0.076734625
-0.013942464 0.10009622 0.40506908 -0.1474098 -0.40459162 0.014101132 -0.16837172 0.13382122
0.38696593 0.13239987 0.051840678 0.07582656 -0.06558768 0.0034361314 0.37444565 0.22834614
-0.36345294 0.3018073 0.19944726 -0.16798961 -0.04141182 -0.06630205 0.09061687 0.034906294
0.0879823 -0.018092351 0.04199043 -0.13106875 -0.06179402 -0.3700339 -0.20830889 0.12764654
-0.10724343 0.2119038 0.04035995 0.16419624 -0.16142584 -0.04916797 -0.11859565 0.0068518426
0.04529964 0.099750675 0.21237661 0.10600904 0.029147213 0.27367392 -0.2309865 0.02481698
0.21594813 -0.002901883 -0.32846564 0.35780948 0.0872041 0.12511407 -0.10522555 -0.19208884
-0.08473894 -0.27958262 -0.09313614 0.26613766 -0.052867185 0.07953832 -0.28306547 -0.018743081
-0.019940794 0.12765434 0.10964444 -0.26757473 0.10463832 -0.0131002 -0.107826054 0.35757926
-0.15664876 -0.18048802 0.04545087 0.025223061 -0.18776718 0.03323438 0.073776856 0.21206373
-0.21439208 0.081564516 0.0929881 0.02193018 -0.14308995 0.03831376 0.2905652 0.05417861
00000000: 80ec e2bd 81ee 0c3e cfa6 3b3e c112 9abd
00000010: 23e3 c9bd 6df1 6abd 6989 f13d b297 33bd
00000020: df57 bbbc 731f 603d 3f2f 813c db9f 693e
00000030: 2702 803d 2c0e b33d b676 333e dbc9 babd
00000040: 8f34 95bd 1039 06be 64ab 3a3e 04da e73d
00000050: b1c3 303e 408a 11be 34c3 2a3d ad5a e3bd
00000060: 8e12 19bd 619a 053d b9f2 2cbb e3f0 6bbd
00000070: 643d 36be 6dcb 5f3e 577d b7bc 9c70 8dbd
00000080: 249a 11be f7f0 6fbd dc72 4dbc 77b2 753e
00000090: f97f fcbd 92c5 23bd 95df ccbc ad79 a03c
000000a0: 3dbd 54be 2c88 843a 1a82 bc3e 4b88 08be
000000b0: e66a 74be 3bf7 e1bb 186b 763c ee87 023e
000000c0: 64c2 813e 934a a43d 93d4 283e d56a a0bd
000000d0: 5f30 473d 6e81 bb3d c20d 1e3e 5d59 823e
000000e0: b38c cdbe 3c34 1f3e 8466 be3e 7194 18be
000000f0: 7792 8f3d 6d56 61bc 90c5 49be c0df 46be
00000100: 3279 b03e 2a60 7fbe bb5b cd3e 9542 8cbe
00000110: f950 33be f3f0 563e be90 fabd ca4d 813e
00000120: b2f2 803c c6e0 893e c50d b03e 53e7 303c
00000130: e021 04be 8ac2 513e 97f8 a2be 3290 973e
00000140: 2116 f5bd 9ded 18be e69b 44bd 05ff 343e
00000150: 1363 893e 5ad9 01bd 913b debd 10d4 993e
00000160: 1316 dfbd a2f3 693e a56f 74be 308a 80bc
00000170: f4a6 873e 1af4 c9bb 4fba 3ebe d2f3 833d
00000180: 651d 47be 5163 173e d45a 8abe b0f7 f53d
00000190: d1c1 843d f4f3 f6bd 1296 25be 82d8 26be
000001a0: c837 acbe 371e 973c 7830 883e 5d3f 3d3e
000001b0: 70ed d8bd 94a2 863e e44b a1be 5c3c fdbd
000001c0: c99a 00be 04a4 a8be 2fe4 023f 2298 0abe
000001d0: 29cb 1dbe 6e03 bf3e 5281 203e d646 113e
000001e0: b1f8 24be 3e57 b6bd 18be 153e 5e43 113e
000001f0: 5ca6 97be feaa 5dbe 9653 823c 1728 5cbe
00000200: 6e65 2dbd 88d5 c23e 5ddd 05be 70f3 8cbe
00000210: bd87 52bd 38a5 893b 899d b0bd 8ca7 3dbe
00000220: 6f40 1cbe b9a5 5d3e 0acb 5eba ebcb d83d
00000230: 4ace 9f3d 8664 76bb d5a8 fd3c 2a30 35be
00000240: 74be 8c3d 3364 8fbe ee6a c73d 6f18 983e
00000250: 09be 1e3d 5695 44be 4b10 793e ee6a 053e
00000260: cf53 ea3d 8886 2a3d 93fc f1bd 003f 4f3e
00000270: 0396 95be 6b18 743e 095c ce3d 2efa 153e
00000280: 140a 0a3d debe 2abe 1fe5 1cbc a051 313d
00000290: 6d9f bf3d 080d 493c 9899 aebc 0b27 9dbd
000002a0: ef6e 64bc 3fff cc3d 3765 cf3e 98f2 16be
000002b0: a226 cfbe 6f08 673c a369 2cbe 6e08 093e
000002c0: 6620 c63e d593 073e e456 543d f54a 9b3d
000002d0: d552 86bd b830 613b 57b7 bf3e 92d3 693e
000002e0: 8116 babe 7d86 9a3e e73b 4c3e 7805 2cbe
000002f0: 719f 29bd 5fc9 87bd 5695 b93d e7f9 0e3d
00000300: 1030 b43d 6936 94bc 28fe 2b3d e336 06be
00000310: ba1b 7dbd 1575 bdbe ed4e 55be c6b5 023e
00000320: 72a2 dbbd 4ffd 583e 7a50 253d 0f23 283e
00000330: d14c 25be 5a64 49bd 47e2 f2bd 6c85 e03b
00000340: 1e8c 393d 154a cc3d 4179 593e 441b d93d
00000350: 23c6 ee3c fd1e 8c3e ba87 6cbe fb4c cb3c
00000360: 8221 5d3e 852d 3ebb a62c a8be ce32 b73e
00000370: 1098 b23d e71d 003e 7e80 d7bd f0b2 44be
00000380: 9c8b adbd 7425 8fbe 29be bebd 3243 883e
00000390: 438b 58bd fde4 a23d f5ed 90be 178b 99bc
000003a0: e05a a3bc d2b7 023e 448d e03d 8eff 88be
000003b0: 9e4c d63d 39a2 56bc e8d3 dcbd a114 b73e
000003c0: 8868 20be dad1 38be b12a 3a3d 98a0 ce3c
000003d0: 0a46 40be c620 083d 5218 973d 3c27 593e
000003e0: 9989 5bbe 4c0b a73d 8c70 be3d eca6 b33c
000003f0: 2c86 12be e4ee 1c3d f6c4 943e 64ea 5d3d

linear_layers.1.bias f4 [32]
-0.064225525 0.16931936 0.23948602 0.119050406 0.26533705 -0.08440195 0.2898136 0.2717908
-0.003905333 -0.011541484 -0.08667188 0.18845965 0.15241951 -0.21475363 -0.061719228 0.1878188
0.21261626 0.22038491 0.21524301 0.15037544 0.019139744 0.23671402 -0.04388646 0.19544537
0.051179122 0.12029909 0.012183326 0.20714626 -0.17806497 0.019232845 0.113822855 0.1266712
00000000: ac88 83bd 0e62 2d3e d33b 753e b3d0 f33d
00000010: 42da 873e eeda acbd 7362 943e 2a28 8b3e
00000020: 9ef0 7fbb 7e18 3dbc 0781 b1bd 91fb 403e
00000030: dc13 1c3e 60e8 5bbe 4dcd 7cbd 9253 403e
00000040: 14b8 593e 95ac 613e aa68 5c3e 05fc 193e
00000050: f4ca 9c3c 2965 723e 4ac2 33bd d522 483e
00000060: 33a1 513d 5f5f f63d 939c 473c 261e 543e
00000070: aa56 36be 338e 9d3c f51b e93d 18b6 013e

linear_layers.2.weight f4 [19, 32]
-0.40064615 -0.25688604 0.08452675 -0.36463562 0.18227804 -0.27557352 0.20230357 0.15067084
0.4879458 0.3023253 -0.43052068 -0.2555635 -0.4300669 -0.34420565 0.1628266 0.0032692535
-0.1642757 -0.23453802 -0.43225357 0.11548729 -0.34066695 0.21557869 -0.43302494 0.09177929
0.26078174 -0.09915483 -0.22469172 0.22970045 -0.38858512 0.25587285 0.13923821 0.31954065
-0.12573761 -0.2511672 -0.34662235 -0.5007437 -0.097717024 0.1119851 0.28984836 0.18615021
-0.25983253 -0.28342375 0.32433656 -0.012390788 -0.12962092 0.24773082 0.19575864 0.3180535
0.12029907 0.113870785 0.024549514 0.08779516 -0.2198857 -0.19497676 -0.15299197 0.09307404
0.31417304 0.18616666 -0.24206232 -0.10531958 -0.25988525 -0.31245598 0.29049224 -0.31416735
0.34783512 -0.19271064 0.22003981 -0.21652888 0.20809162 -0.088057436 0.09544012 -0.033556215
-0.11974834 0.3001259 0.16038422 -0.35998386 -0.37639034 -0.1631624 -0.12342844 0.05200891
0.23023628 -0.26745152 -0.06383798 0.2515487 -0.28195766 0.06296152 0.116479225 -0.27305076
0.28233975 -0.09608952 -0.0054389415 0.20818618 0.3082113 -0.0797519 0.13183883 -0.32807323
-0.16401497 -0.27437016 -0.40402174 0.17006558 -0.40409714 -0.28464192 0.24536848 0.13898027
-0.014464768 -0.34232184 -0.033638682 0.035094842 0.24116084 -0.3865201 -0.3528991 0.036238477
0.092547454 0.26046208 0.12988524 -0.4082565 -0.20084201 0.23950434 -0.45834634 0.08094416
-0.4779277 -0.15013747 0.3783618 0.028578354 -0.39754957 -0.25282642 0.027345536 -0.23108268
0.10185007 -0.29805994 0.17276324 -0.16646257 -0.019253815 0.06977156 0.0760785 0.1986815
0.033509765 0.2408258 -0.22836666 0.086580716 0.18568347 -0.2644612 -0.34728116 0.13433674
0.10270714 0.13369334 0.16781619 -0.2788298 -0.30295455 0.24033967 0.085286446 -0.38184488
-0.25534737 0.16264488 -0.102587886 -0.29412237 0.066574685 -0.18013398 -0.21282141 -0.11279863
-0.29212868 -0.19694893 0.047348283 0.16877383 0.008567019 -0.23635292 -0.037664946 -0.23915711
-0.3951002 0.07021159 -0.18460284 0.14222915 0.31787854 -0.05469332 -0.3139379 0.28720996
-0.34866908 -0.47234756 0.13403991 0.2751283 -0.29396597 -0.31774968 -0.16881764 -0.45859995
-0.008271807 -0.31028765 -0.5149571 0.24378802 -0.14338021 -0.21126431 -0.2556697 -0.029638978
-0.28452316 -0.22576359 -0.10490819 0.29704112 0.12590493 -0.33625704 -0.01933847 -0.040315833
-0.3754912 0.04413616 -0.29985112 0.073256865 0.31905267 -0.18855506 -0.21482646 0.13122958
-0.17878528 -0.27947724 0.06858678 0.30057713 -0.16588168 -0.2704181 -0.20317036 -0.38644266
0.021744002 -0.3046457 -0.40843117 0.22741212 -0.26312056 -0.2715851 -0.21707514 0.0041160565
-0.18751359 -0.062219243 -0.20424394 -0.2875422 -0.3593079 0.043161504 -0.23821023 -0.06753779
-0.050626066 -0.16737397 -0.09570681 -0.3491196 -0.22685882 0.12610093 0.06834556 -0.17501907
-0.060013432 -0.12444765 -0.18199347 -0.07282173 -0.1613416 -0.029782783 0.066418275 -0.26677
-0.21506202 -0.08522302 -0.14399138 -0.30078897 -0.0904196 -0.18656386 -0.3427887 -0.14304398
00000000: 7e21 cdbe 9186 83be 5c1c ad3d 85b1 babe
00000010: 18a7 3a3e f917 8dbe ab28 4f3e 7549 1a3e
00000020: 08d4 f93e 62ca 9a3e 356d dcbe 38d9 82be
00000030: bb31 dcbe b93b b0be 04bc 263e f940 563b
00000040: e437 28be bc2a 70be 5750 ddbe 9a84 ec3d
00000050: e66b aebe a9c0 5c3e 72b5 ddbe c8f6 bb3d
00000060: 2f85 853e b011 cbbd 9615 66be 9836 6b3e
00000070: a1f4 c6be c401 833e 7694 0e3e d59a a33e
00000080: 5cc1 00be fd98 80be 7c78 b1be bd30 00bf
00000090: dd1f c8bd 7258 e53d 0167 943e 299e 3e3e
000000a0: c508 85be eb1c 91be 710f a63e bb02 4bbc
000000b0: 59bb 04be 26ad 7d3e f474 483e e9d7 a23e
000000c0: 5c5f f63d 1635 e93d 101c c93c f3cd b33d
000000d0: b829 61be fda7 47be eda9 1cbe 9a9d be3d
000000e0: 4adb a03e 79a2 3e3e 2fdf 77be cbb1 d7bd
000000f0: ae0f 85be 3bfa 9fbe 66bb 943e 8bda a0be
00000100: 7217 b23e f055 45be 1e52 613e bfb9 5dbe
00000110: f815 553e 7557 b4bd 1c76 c33d 3e72 09bd
00000120: 9e3e f5bd 1aaa 993e c33b 243e ce4f b8be
00000130: 3cb6 c0be 0b14 27be 0dc8 fcbd 4b07 553d
00000140: 0fc3 6b3e 68ef 88be 7dbd 82bd feca 803e
00000150: c15c 90be f8f1 803d a98c ee3d 4fcd 8bbe
00000160: d68e 903e 95ca c4bd 2639 b2bb c22e 553e
00000170: dfcd 9d3e f754 a3bd c200 073e 37f9 a7be
00000180: 8af3 27be 3f7a 8cbe f0db cebe ac25 2e3e
00000190: d2e5 cebe 96bc 91be e041 7b3e d850 0e3e
000001a0: a2fd 6cbc cf44 afbe b7c8 09bd 9cbf 0f3d
000001b0: def2 763e f6e5 c5be 31af b4be cc6e 143d
000001c0: 8589 bd3d 495b 853e a300 053e ff06 d1be
000001d0: 87a9 4dbe a040 753e 5fac eabe 0dc6 a53d
000001e0: f1b2 f4be a3bd 19be a3b8 c13e 271d ea3c
000001f0: 9e8b cbbe 7772 81be bf03 e03c f0a0 6cbe
00000200: c596 d03d 509b 98be d9e8 303e 2a75 2abe
00000210: 2dba 9dbc 64e4 8e3d 0bcf 9b3d 2a73 4b3e
00000220: 8941 093d 0a9b 763e f3d8 69be 3b51 b13d
00000230: cf23 3e3e 7567 87be d6ce b1be 928f 093e
00000240: 1f58 d23d e8e6 083e 02d8 2b3e c8c2 8ebe
00000250: dc1c 9bbe 9a1b 763e a9aa ae3d 2c81 c3be
00000260: e4bc 82be 618c 263e 9919 d2bd 3597 96be
00000270: 4f58 883d 0b75 38be dbed 59be f802 e7bd
00000280: e491 95be fbac 49be 46f0 413d 0cd3 2c3e
00000290: af5c 0c3c 8006 72be 8f46 1abd 9ae5 74be
000002a0: 934a cabe 18cb 8f3d 8708 3dbe 85a4 113e
000002b0: fac0 a23e 1a06 60bd 78bc a0be 2f0d 933e
000002c0: c184 b2be 8ad7 f1be c241 093e 9edd 8c3e
000002d0: b582 96be 16b0 a2be 88de 2cbe 9dcd eabe
000002e0: 7986 07bc 06de 9ebe 3ad4 03bf 91a3 793e
000002f0: 43d2 12be ac55 58be 24e7 82be 71cd f2bc
00000300: 05ad 91be 922e 67be 1bda d6bd c615 983e
00000310: 39ed 003e e229 acbe b66b 9ebc 3722 25bd
00000320: 6240 c0be 1ec8 343d 1686 99be b207 963d
00000330: df5a a33e 9414 41be 78fb 5bbe 0c61 063e
00000340: 7d13 37be a417 8fbe 3a77 8c3d 3fe5 993e
00000350: e3dc 29be 3e74 8abe e40b 50be d0db c5be
00000360: 7a20 b23c 85fa 9bbe e41d d1be b9de 683e
00000370: bdb7 86be 340d 8bbe f248 5ebe fcdf 863b
00000380: 9003 40be 9bd9 7ebd 5325 51be bb38 93be
00000390: 34f7 b7be 1eca 303d 62ed 73be 4151 8abd
000003a0: 475d 4fbd 1564 2bbe ef01 c4bd cebf b2be
000003b0: ae4d 68be 9a20 013e c2f8 8b3d 3338 33be
000003c0: a5d0 75bd 69de febd 7f5c 3abe 8f23 95bd
000003d0: bb36 25be 06fb f3bc 4e06 883d 1496 88be
000003e0: 3839 5cbe 6889 aebd 7a72 13be 0301 9abe
000003f0: e92d b9bd 990a 3fbe 0082 afbe 1f7a 12be

linear_layers.2.bias f4 [19]
-0.034924097 -0.0116843255 0.16229226 0.015061289 -0.12421464 0.23751359 0.1418397 -0.31362998
-0.06957981 -0.005720545 0.014030098 0.28295353 -0.031648435 -0.090319455 -0.117010705 -0.061330296
-0.061909992 -0.20502687 0.077333555
00000000: 920c 0fbd 9d6f 3fbc f12f 263e a0c3 763c
00000010: 3f64 febd c336 733e 6d3e 113e 1c94 a0be
00000020: dc7f 8ebd 6973 bbbb 7fde 653c 49df 903e
00000030: caa1 01bd 68f9 b8bd 4fa3 efbd 7a35 7bbd
00000040: 5595 7dbd 90f2 51be 0e61 9e3d
