P1_structurelevel/efficiency/model_weights/logic_mlp.pt (torch, 3104 bytes, 4 tensors)

linear_layers.0.weight f4 [10, 18]
0	0xbf2290ad	-0.6350201
1	0xbee6723e	-0.45009035
2	0xbea5f0e2	-0.32410342
3	0x3e8df8ae	0.2772879
4	0x3f1a47ef	0.6026601
5	0x3f0bf4fd	0.546707
6	0x3ecc5199	0.39906004
7	0x3f0fb81d	0.5614031
8	0x3df75fc9	0.120788164
9	0x3dd8dccf	0.10588991
10	0x3e45b5ce	0.19307634
11	0x3d003fac	0.031310722
12	0x3da4c5f1	0.08045567
13	0xbbccdbcc	-0.0062517878
14	0xbd310867	-0.043220904
15	0x3e30f027	0.17279111
16	0x3ebec7df	0.37261865
17	0x3ec6fbbe	0.3886394
18	0xbe75f399	-0.24018706
19	0x3f30af67	0.6901764
20	0xbed96845	-0.42462364
21	0xbe697025	-0.22796686
22	0xbdd8957d	-0.105753876
23	0x3e14423f	0.14478396
24	0x3e71be34	0.23607713
25	0xbd6c9189	-0.05775598
26	0x3e3a19a2	0.1817384
27	0x3ef4f84a	0.4784568
28	0xbdebe61b	-0.115184985
29	0x3efe0774	0.4961506
30	0xbf4e4b18	-0.80583334
31	0xbea801ce	-0.32813877
32	0xbeaf96f5	-0.3429486
33	0x3f810806	1.0080574
34	0x3f09d582	0.5384141
35	0xbf3b6f67	-0.7321686
36	0x3e9a9d96	0.30198354
37	0xbe34fb5b	-0.1767401
38	0x3efada97	0.48994896
39	0xbefeb114	-0.49744475
40	0xbf007e0d	-0.5019234
41	0xbdaaac77	-0.08333676
42	0xbeb6e75d	-0.3572339
43	0x3ed51b04	0.41622174
44	0x3ebc8102	0.36817175
45	0x3e94f1ef	0.2909083
46	0x3e13e602	0.1444321
47	0x3e7deda6	0.24797687
48	0x3dcab8ba	0.09898515
49	0x3f439b89	0.764092
50	0x3f999d7f	1.2001189
51	0x3deddec9	0.116147585
52	0x3d3621c1	0.044465784
53	0x3d900d86	0.070338294
54	0x3e493005	0.19647224
55	0x3ec306f6	0.38091248
56	0x3dd29b0e	0.102834806
57	0xbeb9072b	-0.3613828
58	0xbec84436	-0.3911454
59	0x3e8a1368	0.2696793
60	0x3e8dd831	0.27704003
61	0x3ed637fe	0.41839594
62	0x3e57c1ca	0.21070018
63	0x3eed05a3	0.46293363
64	0x3db0c59f	0.08631443
65	0x3edbc34d	0.4292244
66	0x3e48ed6f	0.19621824
67	0x3f7fc053	0.9990284
68	0x3f1b8232	0.6074554
69	0x3eb9e141	0.36304668
70	0x3e0ad0aa	0.13556162
71	0x3eebcfdd	0.46057025
72	0xbe8e92a2	-0.27846247
73	0xbebd1048	-0.36926484
74	0xbf10ef35	-0.56615
75	0x3e9fc81a	0.31207353
76	0x3b4981fe	0.0030747647
77	0x3e82268e	0.2542004
78	0x3ef13162	0.4710799
79	0xbef75426	-0.48306388
80	0xbf32cc7d	-0.69843274
81	0xbf2be2a8	-0.67142725
82	0xbf025d14	-0.50923276
83	0xbec595ee	-0.3859095
84	0xbe83091f	-0.25592896
85	0xbd2ad682	-0.041708477
86	0xbe54a589	-0.20766272
87	0xbf3dad79	-0.74092823
88	0xbf293377	-0.66094154
89	0xbd794e30	-0.06086558
90	0x3e881cf3	0.26584587
91	0x3ea7c62b	0.32768378
92	0x3f0ac2d2	0.5420352
93	0x3e1d59bf	0.15366267
94	0x3eb981a9	0.36231735
95	0xbe62ec53	-0.22160463
96	0xbe0b9d75	-0.13634284
97	0xbea1e29b	-0.316182
98	0xbf1d9baa	-0.6156565
99	0xbda95e3d	-0.08269928
100	0xbec8f5cb	-0.39250025
101	0x3dbd0abc	0.09230563
102	0xbe9bdf6c	-0.30443895
103	0x3f86a2f0	1.0518475
104	0x3f29695a	0.6617638
105	0xbf4b80e9	-0.79493576
106	0xbd24f8bb	-0.04027627
107	0x3c17d1c4	0.009266321
108	0x3eaceff1	0.3377681
109	0x3f5b5f47	0.85692257
110	0x3eca0a6d	0.3946108
111	0xbe164ed3	-0.14678507
112	0xbbc665a3	-0.0060545965
113	0xbead1af7	-0.33809635
114	0xbecea085	-0.40356842
115	0xbd1d8114	-0.038453177
116	0x3e8f9a45	0.28047386
117	0xbeb16ba7	-0.34652445
118	0x3e1d0bd6	0.15336546
119	0x3e08a8f5	0.13345702
120	0x3e477684	0.19478804
121	0xbf5557cc	-0.8333709
122	0xbf959b11	-1.1687948
123	0x3e3ad8fb	0.18246834
124	0x3da32bd4	0.07967344
125	0x3eebc35a	0.4604748
126	0xbe94c20b	-0.29054293
127	0xbf3ae348	-0.73003054
128	0xbf0302a3	-0.511759
129	0xbf24deab	-0.64402264
130	0xbf2d02df	-0.67582506
131	0x3f1b3a95	0.60636264
132	0x3ea8d656	0.32976025
133	0x3ecbe6b2	0.39824444
134	0xbea3a720	-0.31963444
135	0x3ea443fb	0.32083115
136	0xbe30cc0a	-0.17265335
137	0x3c340308	0.010987051
138	0xbeec766a	-0.46184093
139	0xbd8c19bf	-0.06840848
140	0x3e05df11	0.13073374
141	0x3f282add	0.65690404
142	0x3eb1bb8e	0.34713405
143	0xbf0b8a28	-0.54507685
144	0xbe90eb9c	-0.28304756
145	0xbf05cf5f	-0.5226955
146	0xbf1f54fd	-0.62239057
147	0xbd83f2f3	-0.06442823
148	0xbccd3eb5	-0.025054315
149	0x3e499fb7	0.19689833
150	0x3eb8e4c1	0.36112025
151	0x3e42825b	0.18995039
152	0x3debdd5b	0.115168296
153	0x3efcf176	0.4940297
154	0xbe7ec198	-0.24878538
155	0x3cf6704c	0.030082844
156	0xbf04d492	-0.51886857
157	0xbe9a6979	-0.30158594
158	0xbe7b205a	-0.2452406
159	0x3f200754	0.6251118
160	0x3ec0cf1a	0.37658006
161	0xbea08db8	-0.31358123
162	0x3e41de89	0.18932547
163	0xbf540b5f	-0.8282985
164	0x3deab181	0.114596374
165	0x3e9fd57b	0.3121756
166	0x3de37d00	0.11107826
167	0x3eba2651	0.36357358
168	0x3eabd051	0.3355737
169	0xbde56228	-0.112003624
170	0xbcc9498b	-0.0245712
171	0x3f12414f	0.57130903
172	0x3e077a1e	0.13230178
173	0x3dddb9ae	0.10826431
174	0x3f05c987	0.5226063
175	0xbd0e549d	-0.034748662
176	0xbcb5e873	-0.022205567
177	0x3f8d3e8b	1.1034712
178	0xbe8ee4a0	-0.27908802
179	0xbf01c64d	-0.5069321

linear_layers.0.bias f4 [10]
0	0x3f20e1a8	0.62844324
1	0x3f5219dc	0.8207071
2	0x3f29b91c	0.6629808
3	0x3f42a7cb	0.7603728
4	0xbf00d9b8	-0.5033221
5	0xbf036e3a	-0.5134007
6	0x3eefc7a7	0.4683201
7	0x3edcebfe	0.43148798
8	0x3f09c381	0.5381394
9	0x3f4c0cfb	0.79707307

linear_layers.1.weight f4 [6, 10]
0	0xbeddcb42	-0.43319136
1	0xbf27bf35	-0.65526134
2	0xbf5ecfaa	-0.8703562
3	0xbf57122b	-0.840121
4	0x3f18bfec	0.5966785
5	0x3eb1c906	0.3472368
6	0xbf110245	-0.5664409
7	0xbe826843	-0.2547017
8	0xbea81598	-0.32828975
9	0xbedf5766	-0.43621367
10	0x3f295e98	0.66159964
11	0x3e6d1763	0.23153453
12	0x3e2bdc55	0.16783269
13	0x3b9eed56	0.00485007
14	0xbf4421cd	-0.76614076
15	0xbf50af73	-0.81517714
16	0xbd3635ae	-0.044484787
17	0x3e9f8f87	0.3116419
18	0x3eea3632	0.45744473
19	0x3e1b27e5	0.15151937
20	0xbf206bab	-0.6266429
21	0xbe8c916f	-0.27454707
22	0xbf3b9ee1	-0.73289305
23	0xbf3b3f29	-0.7314325
24	0x3f12ff4e	0.57420814
25	0x3e366daa	0.17815271
26	0xbf2fb85d	-0.6864069
27	0x3d74bf37	0.05975267
28	0xbe4393c7	-0.19099341
29	0xbf1e1921	-0.61757094
30	0xbded2ddb	-0.11581012
31	0x3f64c0b9	0.8935657
32	0x3d0f85a8	0.035039574
33	0xbf07b731	-0.530139
34	0xbf0e6c31	-0.55633837
35	0xbf738237	-0.9512057
36	0xbf8cae39	-1.0990669
37	0x3f46a54e	0.77595985
38	0x3f4309f8	0.76187086
39	0x3f6b4631	0.9190398
40	0xbeffec3d	-0.49984923
41	0xbe82aa96	-0.25520772
42	0x3f1cde89	0.6127706
43	0x3f0a3a8f	0.53995603
44	0xbeca5254	-0.39515936
45	0x3b84a231	0.004047655
46	0x3f6c8a92	0.9239894
47	0xbf28eaf2	-0.659835
48	0xbf23bd3b	-0.6396062
49	0x3f70f957	0.9413046
50	0xbf1d685e	-0.61487377
51	0x3f3e6501	0.7437287
52	0x3ed9f679	0.42570856
53	0x3ecbac0a	0.39779693
54	0xbe619fb3	-0.22033577
55	0x3f1f943c	0.6233556
56	0x3f8f2e71	1.1186048
57	0xbea08823	-0.31353864
58	0x3dd35cb2	0.103204146
59	0xbf1e5d0a	-0.61860716

linear_layers.1.bias f4 [6]
0	0xbe40fc12	-0.18846157
1	0x3e5e25e1	0.21694137
2	0xbe994073	-0.29931983
3	0x3e8c5a33	0.27412567
4	0x3d952d3b	0.07284018
5	0xbe4b4627	-0.1985098
