P1_structurelevel/efficiency/model_weights/mlp.pt (torch, 3056 bytes, 4 tensors)

linear_layers.0.weight f4 [10, 18]
000000 4c 0f a4 bc 70 62 93 be bb cb 54 3e 78 f2 f9 ba
       -0.020026825 -0.2878604 0.20780842 -0.0019069454
000010 e3 61 84 bd 7e 67 15 3e 0c c1 11 bd d9 a9 a4 bd
       -0.06463983 0.1459026 -0.035584494 -0.08040208
000020 80 1f 8e bd 10 29 8f 3e ae eb 30 3e 60 3f 01 bc
       -0.06939602 0.27961016 0.17277405 -0.007888645
000030 bd de 81 3e e7 f4 7a be e1 f7 4a bd b8 d4 9e 3e
       0.25365248 -0.24507485 -0.049552802 0.31021667
000040 42 36 4e 3e 05 56 80 3d 2c ec 10 3e 93 15 93 3e
       0.20137885 0.06266407 0.14152592 0.28727397
000050 e2 0d 22 3d 23 14 2c 3c 01 48 26 3e d0 db 11 be
       0.03956402 0.010502848 0.16238405 -0.14244008
000060 6f c9 2e bd db 37 d0 bd 12 70 cb be 4e 24 c4 be
       -0.04267257 -0.101669036 -0.3973394 -0.38308948
000070 5a 06 fd bc 0b 50 37 bd 05 97 5b be 5f 9e 80 bc
       -0.030886818 -0.04475407 -0.21444328 -0.015700517
000080 a1 8d a2 3d 30 f1 a2 be a2 91 c9 bc 84 de 67 be
       0.0793717 -0.31824636 -0.024605576 -0.22643477
000090 8d 4e 2d 3e 41 2d 10 3e 73 a0 1b 3e bd 00 85 bd
       0.16924496 0.14079763 0.15197925 -0.064942814
0000a0 2a b9 26 bd e2 bb 13 be cd ad 88 be 01 37 aa 3e
       -0.04070393 -0.1442714 -0.266951 0.3324509
0000b0 76 51 0a 3e 67 91 e8 3c 2d 35 17 bc a6 8d 89 3d
       0.13507637 0.028389646 -0.009228987 0.067164704
0000c0 4a 18 69 3e 55 c6 1a 3f d2 81 30 3f 70 cc 08 3d
       0.22763172 0.6045888 0.6894809 0.03339809
0000d0 c7 45 96 3e d6 43 1c 3c 1c 84 a9 be 07 aa 42 3e
       0.2935011 0.009537658 -0.33108604 0.19010173
0000e0 ca 36 f1 be a0 51 bf be c5 4c dd be 4b 24 08 bd
       -0.47112113 -0.37366962 -0.43222633 -0.033237737
0000f0 74 f8 8b bc 61 ed d0 bd 05 5d d4 bd ea 38 b9 3e
       -0.017086245 -0.102015264 -0.103693046 0.36176234
000100 3d 78 0e be d3 e8 c4 3d 0e 97 68 bb ec 24 6a be
       -0.13913055 0.0961472 -0.0035490426 -0.22865647
000110 1a 11 cc bd 02 ea b2 3e e4 20 59 3e f7 be 8b be
       -0.09964199 0.3494416 0.21203953 -0.27294132
000120 25 fd 4f 3d 77 d8 a1 be a6 bc 50 3e 33 54 7b 3e
       0.050778527 -0.31610462 0.20384464 0.24543838
000130 1e fe ef 3c 55 c9 2e 3e 2b 6d 38 bd ae c5 63 bb
       0.029295977 0.1706899 -0.045025986 -0.0034755277
000140 8c 90 1c be 9e c0 b4 3e 03 b4 19 3e 13 ca 0b 3e
       -0.15289515 0.35303205 0.15010075 0.13651304
000150 a0 0b 55 3e 77 48 22 bf c1 1f b2 be c5 f3 d5 3d
       0.20805216 -0.6339182 -0.3478985 0.10446886
000160 24 28 a8 3e 44 75 e4 3e 3c fe 99 3e 8f a3 31 3e
       0.32843125 0.44620717 0.30076778 0.17347549
000170 83 ad d2 3e 78 0c 81 3e 34 b8 1c bd 53 93 b7 bd
       0.41148004 0.25204825 -0.038261607 -0.08963647
000180 46 ce 4d be 4a db be be 0b 99 0c bf 07 da 8b be
       -0.20098218 -0.3727668 -0.54921025 -0.2731478
000190 57 7d 0d bf de 2b a7 bd 00 b4 1b be 5d 56 1c 3e
       -0.5526938 -0.08162664 -0.15205383 0.1526732
0001a0 41 39 e2 3e d4 21 e7 be 1d a2 33 be 6f da 7d be
       0.44184306 -0.45142996 -0.1754231 -0.24790357
0001b0 d3 9a b7 3e cd 4b bd 3e 08 3e d8 3e a4 59 d5 bd
       0.3586031 0.36971894 0.42234826 -0.10417488
0001c0 4c 4a 5c be a5 c2 30 be d7 ab 39 be db 2e ab bd
       -0.21512717 -0.17261751 -0.18131958 -0.08358546
0001d0 9f 25 86 3e 1d 29 3e bd 7d ee 28 bd f3 6d c9 3d
       0.26200578 -0.046425927 -0.041243065 0.09835424
0001e0 55 a9 a9 3b 18 20 0b bf 9e 8a 0b bf 19 0c ac 3c
       0.0051776567 -0.54345846 -0.5450839 0.021001862
0001f0 c2 41 f5 bd 9f 22 dc 3d 2b d9 c5 3e 0d 8d 72 3e
       -0.11975433 0.10748791 0.3864225 0.23686619
000200 d9 dc 8f 3e 1a a5 35 bd 89 e4 ce bc 98 f0 66 be
       0.2809818 -0.044346906 -0.025255458 -0.22552717
000210 aa 98 5f be c6 e1 93 bd a2 b1 b3 3e f1 17 dc 3c
       -0.2183558 -0.07220797 0.3509646 0.026866885
000220 2c c4 8a 3c 29 ea fd bd 18 71 2a 3e 75 36 05 bf
       0.016939245 -0.12398178 0.16644704 -0.5203622
000230 58 40 93 be 9e c2 02 be e9 13 57 be 25 ff 91 bb
       -0.28760028 -0.12769553 -0.21003689 -0.0044554644
000240 59 59 c5 3d 38 e1 94 3e 1c 32 53 3e 41 30 eb bd
       0.09636182 0.29078078 0.20624584 -0.11483813
000250 25 8f 25 3d a7 78 2a be 6c ba 0e be 74 29 7a 3e
       0.040419716 -0.16647588 -0.13938302 0.24429876
000260 44 f7 7e 3c d5 7c f1 3d 87 ed 92 3e d8 6a ce 3e
       0.015561882 0.11791388 0.28696844 0.4031589
000270 7f 18 03 3e 1d 53 26 3f f1 47 f9 3e ef aa 66 3e
       0.12802313 0.6497057 0.486877 0.22526143
000280 13 75 7c 3e b1 bd 17 3e d1 34 16 3f 17 81 1f 3e
       0.24654035 0.14818455 0.5867434 0.15576588
000290 3e 5f 16 3f 8b 6b f0 be d7 bd c8 be 14 49 9a be
       0.5873908 -0.4695705 -0.39207336 -0.3013388
0002a0 b7 fb 0e be 06 50 8a 3d 0e b0 c0 3e 42 26 c0 be
       -0.13963209 0.067535445 0.3763432 -0.37529188
0002b0 2a e4 d6 3d 5b 9b a6 be 80 4b 48 be c1 40 46 be
       0.104927376 -0.32540402 -0.19560051 -0.19360639
0002c0 31 db bf be 2d 4b 43 bd 7a 8c 98 be a6 ed 37 3e
       -0.37471917 -0.047679115 -0.29794675 0.1796175

linear_layers.0.bias f4 [10]
000000 2c 76 f9 3e 1e 82 90 be ba 5b 44 3c b0 21 71 3e
       0.4872297 -0.28224272 0.01198476 0.23548007
000010 58 75 e2 3e 11 ad 68 be 11 4f 81 be 4e 9b 03 be
       0.4423015 -0.2272227 -0.25255635 -0.12852213
000020 d3 2b 09 3f 9c dc f7 bd
       0.53582495 -0.12102625

linear_layers.1.weight f4 [6, 10]
000000 d1 0e a5 be 32 60 aa 3e 70 68 0b bf db 07 82 be
       -0.32237867 0.33276516 -0.54456234 -0.25396618
000010 7d 31 57 be ca e7 b1 3e e4 1c fe be f6 f7 a1 bd
       -0.21014972 0.34747154 -0.49631417 -0.07908623
000020 40 7a 1d bf 45 bc 57 bd 32 36 e2 3e 24 21 dd be
       -0.61514664 -0.052669782 0.44181973 -0.43189347
000030 8c 3f c4 3c 4d d6 66 3e f2 15 a2 3e a3 81 03 bf
       0.023956083 0.22542687 0.31657368 -0.51369685
000040 e8 ce 92 be ec 53 0a bf 1a 81 38 3d 4a 77 ec be
       -0.28673482 -0.54034305 0.045044996 -0.4618476
000050 f6 1a 66 be 69 85 c4 3d ac 8f 17 bf 9e 62 a1 be
       -0.22471222 0.095957585 -0.592036 -0.3152055
000060 69 85 1f bf cd b8 23 3e e6 1a a5 be a0 14 94 be
       -0.6231294 0.15988465 -0.32247084 -0.28921986
000070 7e fb 21 bf 36 c9 7f 3e 71 00 ba 3e ab 64 00 bf
       -0.6327437 0.249791 0.36328462 -0.5015361
000080 21 f1 c7 be a7 17 03 3f 6a dc 70 bd 1e 10 11 bf
       -0.39051154 0.51207966 -0.058803953 -0.5666522
000090 9c fc 1d bf 70 aa c5 be de 90 50 be c0 d7 0f bf
       -0.61713576 -0.38606596 -0.20367762 -0.56188583
0000a0 a1 17 d1 3e 50 7e be bd 92 0e 21 3f eb b3 f0 be
       0.4083834 -0.09301436 0.6291286 -0.47012267
0000b0 11 08 8d 3e 24 f8 71 3e 43 02 5a 3e 6d 88 1a 3f
       0.27545217 0.23629814 0.21289925 0.6036442
0000c0 a1 e3 38 3e c4 c7 8e 3e 08 83 11 be 1b a4 c7 3e
       0.18055584 0.27886784 -0.1421014 0.3899239
0000d0 34 bf 0b 3f 8a 52 60 3e 81 2f 05 bd a2 52 32 3e
       0.5458863 0.21906486 -0.032516006 0.17414334
0000e0 8a bb 00 3f b3 8a e8 3e 11 90 88 3e 77 c2 20 3e
       0.5028616 0.4541832 0.26672414 0.15699182

linear_layers.1.bias f4 [6]
000000 10 4d 46 be db 9a 23 be a9 c4 42 3d 96 a4 e1 3e
       -0.19365335 -0.15977041 0.04755083 0.44070882
000010 34 5a 6a be 04 68 32 3e
       -0.22885972 0.17422491
