LTNtorch/LTN_reduce.pth (torch, 13670 bytes, 6 tensors)

linear_layers.0.weight f4 [32, 45]
0	0xbcfb523f	-0.030678866
1	0xbdb2d524	-0.087320596
2	0xbd473271	-0.04863209
3	0x3d5cf8bc	0.05394815
4	0x3e13fd07	0.14451991
5	0xbdaea56f	-0.08527648
6	0xbdf646c7	-0.120252185
7	0xbe248957	-0.16068016
8	0x3d817848	0.0632177
9	0xbe84ee57	-0.2596309
10	0xbce0c2f1	-0.027436705
11	0xbdbf2054	-0.09332338
12	0x3d70e7e0	0.058814883
13	0xbe113982	-0.14182094
14	0x3eba140d	0.36343423
15	0xbf356a7f	-0.70865625
16	0x3dec45a3	0.1153672
17	0xbd98ca24	-0.0746043
18	0xbdec4a9a	-0.115376666
19	0x3d0385d0	0.032110035
20	0x3bafccdf	0.0053649987
21	0xbbbaaa04	-0.005696537
22	0xbc87030e	-0.016480949
23	0xbc78784a	-0.015165398
24	0xbe2b91b8	-0.16754806
25	0x3a985f95	0.0011625165
26	0x3c6c9e93	0.014442104
27	0x3b30cfbb	0.0026979286
28	0x3d432868	0.047645956
29	0xbd649b60	-0.05581224
30	0x3dc3ab7a	0.09554191
31	0x3d2e8f0c	0.04261689
32	0x3d96f166	0.07370262
33	0x3dff1d15	0.12456719
34	0xbe142a38	-0.1446923
35	0x3e7d8ca1	0.24760677
36	0x3d860f0d	0.065458395
37	0xbc883f2e	-0.016631689
38	0x3adee9ba	0.0017006912
39	0xbbb04956	-0.005379836
40	0xbe819d80	-0.25315475
41	0xbe16ee32	-0.14739302
42	0x3de0c2bc	0.10974643
43	0xbd9e1a62	-0.07719876
44	0xbcbc7c8e	-0.023008611
45	0x3f20888c	0.62708354
46	0xbd1eca97	-0.038767423
47	0x3c4df435	0.0125704305
48	0x3db422f6	0.08795731
49	0x3c912b50	0.017720848
50	0x3dbd18e2	0.09233262
51	0x3de3819b	0.11108705
52	0xbe12a726	-0.14321575
53	0xbde81938	-0.11332935
54	0x3c95c204	0.01828099
55	0xbbe689bf	-0.0070354636
56	0xbc9af68c	-0.01891639
57	0x3d49b580	0.049245358
58	0x3e81f8bb	0.2538508
59	0x3c7f4c36	0.015582135
60	0xbe0f5d20	-0.14000368
61	0xbf095048	-0.53638124
62	0xbe28ef1b	-0.16497461
63	0xbc4904c5	-0.012269204
64	0xbd631f57	-0.05544981
65	0xbd613a82	-0.054987438
66	0xbd0bf154	-0.034165695
67	0xbc802f06	-0.015647423
68	0x3ca8f07d	0.020622486
69	0xbd4f6da3	-0.050641667
70	0x3cf5910f	0.029976396
71	0x3dabace8	0.083825886
72	0xbc1a6ca4	-0.009425316
73	0x3de8a179	0.113589235
74	0xbe5c13d7	-0.21491943
75	0xbab17c51	-0.0013541077
76	0x3bbbcdad	0.0057313056
77	0x3dd14e05	0.10219959
78	0xbcc48698	-0.02398996
79	0xbdbbe41e	-0.09174369
80	0x3e053f57	0.13012443
81	0x3de3cb97	0.11122816
82	0xbd8084f8	-0.06275362
83	0xbd86cf2c	-0.06582484
84	0x3da721a5	0.08160714
85	0xbad30645	-0.0016099891
86	0xbdd6994b	-0.10478457
87	0x3b5ab9ce	0.0033374908
88	0xbd4fe85c	-0.050758705
89	0xbc04abfd	-0.008097646
90	0xbf23e6ed	-0.6402424
91	0x3e08b498	0.13350141
92	0xbdf9b3b5	-0.121924795
93	0x3b9bb21c	0.004751457
94	0x3d82b664	0.063824445
95	0x3d6ee028	0.05831924
96	0x3e8e280b	0.27764925
97	0xbe980ae8	-0.2969582
98	0xbe015880	-0.12631416
99	0x3d857a11	0.06517423
100	0x3d8a6ae2	0.067586675
101	0xbe274534	-0.16334993
102	0x3dbd9b3a	0.09258123
103	0x3e9ccf47	0.3062689
104	0x3e7295ba	0.23689929
105	0x3e86bce4	0.26315987
106	0x3efd227b	0.4944037
107	0xbcb5af6b	-0.022178372
108	0xbc8d1590	-0.017222196
109	0x3ca0d38a	0.01963212
110	0xbd0ad042	-0.033890016
111	0x3d0e68d4	0.03476794
112	0xbd2716b1	-0.040793125
113	0x3c6d7de9	0.014495351
114	0x3df09e13	0.117489
115	0x3d7cac1d	0.061687578
116	0x3dcf5843	0.101242565
117	0xbcab35f8	-0.020899758
118	0xbc87f605	-0.016596803
119	0xbda0514f	-0.078280084
120	0x3c36d49b	0.0111590875
121	0xbd58b8dd	-0.052910674
122	0xbe17e698	-0.14834058
123	0xbd27c305	-0.04095747
124	0xbe2daf7d	-0.16961475
125	0x3da8ee6e	0.08248602
126	0x3d7b3ae2	0.061335452
127	0x3d09f051	0.03367645
128	0xbd0d9732	-0.03456802
129	0x3c4aeb11	0.012385146
130	0x3df2bfaa	0.11852963
131	0x3de811c7	0.11331516
132	0xbd57e192	-0.052705355
133	0xbe067ff1	-0.13134743
134	0x3d734b46	0.05939796
135	0xbf03d213	-0.5149242
136	0xbdf86d28	-0.12130195
137	0xbc8484da	-0.01617663
138	0x3de0a44d	0.10968838
139	0xbcc3a6d2	-0.023883257
140	0x3d19d07c	0.03755234
141	0xbdd98830	-0.10621679
142	0xbe7cd5f7	-0.24690996
143	0x3cb878a5	0.022518465
144	0x3ce67a3a	0.028134454
145	0xbd860b31	-0.06545103
146	0xbcacff9b	-0.021117976
147	0xbd7a1336	-0.061053477
148	0xbd498e48	-0.049207956
149	0x3ed95c36	0.42453164
150	0xbf361610	-0.71127415
151	0x3e919601	0.28434756
152	0xbe1c08f2	-0.15237787
153	0xbe383e1b	-0.17992441
154	0xbc60b787	-0.013715631
155	0xb9a3731f	-0.00031175555
156	0xbc00d881	-0.007864119
157	0xbc693c26	-0.014235532
158	0xbb9af313	-0.0047286837
159	0xbe30afff	-0.17254637
160	0x3c1b0389	0.009461292
161	0x3deec14d	0.11657963
162	0xbe082785	-0.13296326
163	0x3e25af61	0.16180183
164	0xbdbaa9d2	-0.09114422
165	0xbdb20749	-0.08692796
166	0x3d0fec90	0.035137713
167	0xbe27e4bd	-0.1639585
168	0x3cef0929	0.029179173
169	0xbc7a03a6	-0.015259659
170	0x3dea4cb3	0.114404105
171	0xbd5aa21c	-0.053377256
172	0xbde49b98	-0.1116249
173	0xbd9975d2	-0.074931756
174	0x3ddd8f9b	0.10818406
175	0xbe25bf07	-0.16186152
176	0x3d66b81e	0.05632793
177	0x3e1c354e	0.15254709
178	0xbe2dc5f1	-0.1697004
179	0xbcd8c763	-0.026462262
180	0xbe7e9f2c	-0.24865407
181	0x3ba44e2a	0.0050142007
182	0x3ba79be4	0.005115019
183	0x3e353094	0.17694312
184	0x3e1a2dfe	0.15056607
185	0xbd753a98	-0.059870332
186	0x3db3895e	0.08766435
187	0xbdbea260	-0.09308314
188	0x3b2cbdaf	0.0026358177
189	0xbc727e94	-0.014800686
190	0x3e0287af	0.12747072
191	0x3ca27516	0.019831222
192	0x3d42c463	0.04755057
193	0x3e2a999e	0.16660163
194	0x3e8ef0e1	0.2791815
195	0xbf1abfd6	-0.6044897
196	0xbe1fa4a5	-0.1559015
197	0xbe7cde19	-0.24694099
198	0xbeb6878d	-0.35650292
199	0xbb894c87	-0.004190031
200	0xbc9fb852	-0.01949707
201	0xbc7ec45d	-0.015549746
202	0x3da2ee4b	0.07955607
203	0x3c41a981	0.011820198
204	0xbdd5d542	-0.10441066
205	0x3d2e7479	0.042591546
206	0x3ae8ea0b	0.0017769946
207	0x3cecdd92	0.028914247
208	0x3e70f5ee	0.23531315
209	0xbe20f9e7	-0.1572033
210	0x3c597f3a	0.013274962
211	0x3dd0c17e	0.10193156
212	0x3c82d349	0.01596989
213	0x3be99cb8	0.007129278
214	0xbcaf8830	-0.021427244
215	0x3e086d57	0.1332296
216	0x3c3b5b97	0.011435411
217	0x3c1270d6	0.008938035
218	0xbce2726e	-0.027642455
219	0x3c80928c	0.015694879
220	0xbd61d10e	-0.05513101
221	0xbe2c8497	-0.16847454
222	0x3e21b0a9	0.15790047
223	0xbe9a96c7	-0.3019316
224	0x3c17d45b	0.009266938
225	0xbe854179	-0.26026514
226	0x3dd2c191	0.10290826
227	0xbe043a4e	-0.12912866
228	0xbce82f74	-0.02834294
229	0x3cbee626	0.023303103
230	0xbe14081a	-0.14456216
231	0x3ea5ead2	0.32405716
232	0x3c97a29a	0.018510152
233	0xbd344db7	-0.044019427
234	0xbcc00531	-0.023439975
235	0x3d5445a5	0.05182423
236	0x3d05443f	0.032535788
237	0x3afc1452	0.001923213
238	0x3e1f2b89	0.15543951
239	0xbe7a3eab	-0.24437968
240	0x3f0ad53b	0.54231614
241	0x3ea5c528	0.3237698
242	0x3e1ff55e	0.15620944
243	0x3db14ca6	0.08657198
244	0x3cdb7a82	0.026791815
245	0xbca810a8	-0.020515755
246	0x3cc76223	0.024338787
247	0x3d481e1b	0.048856836
248	0x3ce3aad7	0.027791424
249	0xb90d4af9	-0.00013474737
250	0xbdb66367	-0.08905678
251	0x3d93ef2f	0.07223355
252	0xbc86f27b	-0.016473046
253	0xbe5b5386	-0.2141858
254	0x3e043ad7	0.1291307
255	0xbcac2951	-0.021015795

linear_layers.0.bias f4 [32]
0	0xbdba7317	-0.09103983
1	0x3e5ace21	0.21367694
2	0x3cc6a1f7	0.024247153
3	0xbcc3b884	-0.023891695
4	0x3c3f5e82	0.011680247
5	0x3de465ee	0.11152254
6	0xbd866b92	-0.06563486
7	0x3ca7bb8e	0.020475175
8	0xbd2fb571	-0.042897645
9	0x3ce7b8a1	0.02828628
10	0xbf34d051	-0.70630366
11	0x3e007eab	0.1254832
12	0xbe46fa1d	-0.19431348
13	0xbda1ebfa	-0.07906337
14	0xbdb3fc5e	-0.087883696
15	0xbdb345f0	-0.08753574
16	0xbb662dd5	-0.0035122533
17	0x3dfe0ba6	0.124045655
18	0xbda1f863	-0.07908704
19	0xbd6cbcb6	-0.057797156
20	0x3ce89ae9	0.02839418
21	0xbe41978f	-0.18905471
22	0xb92aac16	-0.0001627657
23	0xbe13eb77	-0.14445291
24	0x3d02ce5a	0.031935073
25	0x3d0e7c35	0.03478642
26	0xbe2d3e0f	-0.16918205
27	0xbe1f0141	-0.15527822
28	0x3dbbf86d	0.09178243
29	0xbeb00a42	-0.34382826
30	0x3e457cba	0.1928586
31	0x3e5fe1b2	0.2186344

linear_layers.1.weight f4 [32, 32]
0	0x3dce6c3c	0.10079238
1	0x3ea496a8	0.32146192
2	0xbe9bee4a	-0.30455238
3	0xbc7ad852	-0.015310364
4	0x3db3e317	0.08783548
5	0xbe12714e	-0.14301035
6	0xbf2b7bb4	-0.6698563
7	0xbe921c6e	-0.28537315
8	0x3df39742	0.118940845
9	0x3e7e7e97	0.24852978
10	0xbdb152b7	-0.08658355
11	0x3d98ea78	0.07466596
12	0x3e03937a	0.12849227
13	0xbd3101ec	-0.043214723
14	0x3de4deb8	0.11175293
15	0x3d81334e	0.06308614
16	0xbeb29c78	-0.34885
17	0x3e2a147c	0.16609377
18	0x3daec23d	0.08533142
19	0x3dcdbb4f	0.10045492
20	0xbc93efb8	-0.018058643
21	0x3d6c0876	0.057625256
22	0x3e4ff524	0.20308357
23	0xbdfacad7	-0.1224572
24	0xbd5cf4de	-0.05394446
25	0xbd1fe0f6	-0.0390329
26	0x3da57043	0.08078053
27	0xbb5ae975	-0.0033403311
28	0xbd01ea5d	-0.031717647
29	0x3da0e7a2	0.078566805
30	0x3ee1efa5	0.44128147
31	0xbe034180	-0.12817955
32	0xbde6562a	-0.11246903
33	0xbf1533b0	-0.58281994
34	0x3e862ae8	0.2620461
35	0x3dcc3383	0.099707626
36	0xbd8a96ee	-0.06767069
37	0xbd05984f	-0.032615956
38	0x3f16eea4	0.58957887
39	0x3dcc865e	0.09986566
40	0xbed55b34	-0.41671145
41	0x3d061fdd	0.03274523
42	0x3d098a9e	0.03357946
43	0xbe51fb05	-0.20505913
44	0x398609c6	0.00025565753
45	0xbe906136	-0.28199166
46	0x3b22cd59	0.0024841635
47	0xbd8af2ca	-0.067845896
48	0x3eaed25f	0.34144875
49	0x3d781325	0.060565133
50	0x3eaf2ea0	0.3421526
51	0xbee4d50d	-0.44693795
52	0x3e188822	0.1489568
53	0xbd3b813c	-0.045777544
54	0x3df241d4	0.11828962
55	0x3d2acac4	0.04169728
56	0xbd023771	-0.031791154
57	0xb93f39fc	-0.0001823678
58	0x3ce88db1	0.028387876
59	0xbdb538b7	-0.08848708
60	0x3b8ccba1	0.0042967354
61	0x3cfb2343	0.030656463
62	0xbe8eff83	-0.27929315
63	0xbdb3a9a8	-0.08772594
64	0x3ebfa16c	0.37427843
65	0xbdda5465	-0.10660628
66	0xbeff1da9	-0.49827316
67	0x3e5029eb	0.2032849
68	0x3d150a61	0.03638685
69	0xbeaac204	-0.33351147
70	0xbde46886	-0.11152749
71	0xbf2b86dd	-0.6700266
72	0xbf4376a3	-0.763529
73	0xbe8cf60a	-0.27531463
74	0xbe44a8f2	-0.19205073
75	0x3e2e2a90	0.17008424
76	0x3edf772a	0.43645602
77	0xbea081d9	-0.31349066
78	0x3e8d2e5e	0.27574438
79	0x3e932e69	0.28746346
80	0xbd4ec8a9	-0.050484333
81	0x3eb1eaf0	0.34749556
82	0x3f0df06c	0.5544498
83	0xbe5ffa3e	-0.21872804
84	0x3d048bc6	0.03235986
85	0xbe941704	-0.2892381
86	0x3df28023	0.118408464
87	0xbd104e93	-0.035231184
88	0xbeb4f30a	-0.35341674
89	0xbf23cdf6	-0.63986146
90	0x3ecff78f	0.4061856
91	0xbe56e073	-0.20984058
92	0xbe7a531e	-0.24445769
93	0xbe521d68	-0.2051903
94	0xbdab26aa	-0.08356984
95	0xbf2e1bbc	-0.6801107
96	0xbe8c3a96	-0.27388448
97	0x3e936994	0.28791487
98	0xbeb44e6a	-0.35216075
99	0xbeae0318	-0.33986735
100	0xbe3cc947	-0.18436156
101	0x3e85822f	0.26075885
102	0xbe061f79	-0.13097943
103	0x3d865672	0.06559457
104	0x3e986e7d	0.29771796
105	0x3e895cf7	0.2682874
106	0x3bb5c70d	0.0055474103
107	0x3d402d97	0.046918478
108	0xbeaf922a	-0.34291202
109	0x3e2ba705	0.16762932
110	0x3e71b3a1	0.23603679
111	0xbe3cb70e	-0.18429205
112	0xbe86557c	-0.26237094
113	0xbd0cb1a8	-0.034349114
114	0xbe350eea	-0.1768147
115	0x3e33a593	0.1754363
116	0x3e077150	0.13226819
117	0x3e069364	0.13142163
118	0x3c9e6c13	0.019338643
119	0x3ea7c953	0.32770786
120	0x3ec21c53	0.37912235
121	0x3eb974d2	0.3622194
122	0xbe178897	-0.14798199
123	0xbd3bb5c3	-0.04582764
124	0x3eb2a409	0.34890774
125	0x3e9d789e	0.30756086
126	0x3dc48cd5	0.09597174
127	0x3e067ac0	0.13132763
128	0x3e435261	0.19074394
129	0xbdc837b7	-0.09776252
130	0x3e6e47c3	0.23269562
131	0x3e021093	0.12701635
132	0x3e0f181e	0.13974044
133	0x3dc8410a	0.0977803
134	0x3dcd6187	0.100283675
135	0x3dd832a6	0.105565354
136	0x3e4e1816	0.20126376
137	0x3cbba41d	0.022905404
138	0xbec0f85a	-0.37689477
139	0xbdfc0d72	-0.12307252
140	0x3e31b7e9	0.17355312
141	0xbd3b3688	-0.045706302
142	0xbe4d94b4	-0.20076257
143	0xbecbde8d	-0.3981823
144	0x3db5ce45	0.088772334
145	0xbe75bd44	-0.2399798
146	0xbe6ac85b	-0.22927992
147	0xbe03ab6a	-0.12858358
148	0x3e2665f8	0.16249835
149	0xbe5fd954	-0.21860248
150	0xbe5d29f5	-0.21598037
151	0xbea8e223	-0.3298503
152	0xbd85bc2d	-0.06530032
153	0x3ef321e6	0.474868
154	0xbe31d599	-0.17366637
155	0x3b6b66aa	0.0035919347
156	0x3ee19cbd	0.44064894
157	0xbe71dde6	-0.23619804
158	0xbd389784	-0.04506637
159	0xbdbcb911	-0.09214986
160	0xbb6804c9	-0.0035403243
161	0xbd0e4601	-0.03473473
162	0xbf093efb	-0.53611726
163	0xbd5d85bb	-0.054082613
164	0xbc4b3ef0	-0.012405142
165	0xbe99a1d3	-0.30006275
166	0xbee17371	-0.44033387
167	0xbf2a670e	-0.665635
168	0xbf09d79c	-0.5384462
169	0x3e882727	0.2659237
170	0xbd927352	-0.07150902
171	0x3dbb0727	0.091322236
172	0x3e8029e3	0.25031957
173	0xbd352169	-0.044221316
174	0x3e83da10	0.25752306
175	0x3e9854cf	0.29752204
176	0xbec65a7f	-0.38740918
177	0x3eadad8f	0.33921477
178	0x3d71bd44	0.05901839
179	0xbd245152	-0.040116616
180	0x3ed2ecb4	0.41196215
181	0xbde091f4	-0.10965338
182	0x3e04ef24	0.1298185
183	0xbdcfa19d	-0.10138247
184	0xbe04c881	-0.12967111
185	0xbeaf54b3	-0.34244308
186	0x3edf742f	0.4364333
187	0xbd92372d	-0.0713943
188	0x3e668a46	0.22513685
189	0x3dd40170	0.10351837
190	0x3cfb6c83	0.03069139
191	0xbe298ca4	-0.16557556
192	0xbe4ae87b	-0.19815247
193	0x3db8c9f1	0.09022892
194	0xbe6e1593	-0.23250417
195	0xbe124997	-0.14285885
196	0xbead155d	-0.3380536
197	0x3e6e24a3	0.23256163
198	0x3d77bd25	0.060483117
199	0x3d7f4a60	0.06232679
200	0x3e86e4ad	0.2634634
201	0x3e674f0d	0.22588749
202	0x3f2dd3a3	0.67901057
203	0xbe706ab6	-0.23478207
204	0xbea2a677	-0.31767628
205	0x3d8a8419	0.06763477
206	0x3f0132cf	0.5046815
207	0xbeaa181c	-0.3322152
208	0xbea74718	-0.32671428
209	0x3eafd5b7	0.3434274
210	0x3d9d6f11	0.076872
211	0x3da621b8	0.081119
212	0xbe9fe812	-0.31231743
213	0x3f117ed3	0.56834143
214	0x3d98d331	0.074621566
215	0x3e84e2e4	0.25954354
216	0x3dc6243e	0.096748814
217	0x3ea1bf50	0.31591272
218	0xbe0953c5	-0.13410862
219	0xbe6c7284	-0.23090559
220	0x3ebaa689	0.3645518
221	0x3f09610a	0.53663695
222	0x3dd337be	0.10313366
223	0x3e241459	0.16023387
224	0xbd7e4976	-0.062081777
225	0x3e051644	0.12996775
226	0x3d6be2aa	0.05758921
227	0x3d6a7b02	0.057246216
228	0xbd07df09	-0.033171687
229	0x3b7ae82d	0.003828536
230	0xbddc2715	-0.10749642
231	0x3d331604	0.043722168
232	0xbd62fce2	-0.05541695
233	0xbecf1fd2	-0.40453964
234	0xbeec7764	-0.46184838
235	0xb856f24a	-5.1247225e-05
236	0x3e62992c	0.22128743
237	0xbe2ee93f	-0.17081164
238	0xbb4c0ef4	-0.0031136842
239	0x3d52f125	0.051499505
240	0x3e4cc7a2	0.19998029
241	0xbe309972	-0.17246035
242	0xbf032d64	-0.51241136
243	0x3e214aac	0.15751141
244	0x3ed9767e	0.42473215
245	0xbf0498d0	-0.51795673
246	0xbed005cf	-0.40629432
247	0xbea532fa	-0.32265455
248	0xbd521e18	-0.05129823
249	0x3cc8f4a9	0.024530726
250	0xbe4749a9	-0.19461693
251	0x3e9db415	0.30801454
252	0xbe195da9	-0.14977135
253	0xbeb4db43	-0.35323533
254	0xbd87dc3a	-0.06633802
255	0xbdc2b749	-0.09507615

linear_layers.1.bias f4 [32]
0	0x3dac1c2e	0.08403812
1	0xbc96b3cf	-0.018396286
2	0x3d897343	0.067114376
3	0x3ebb1f2b	0.36547217
4	0x3da75505	0.08170513
5	0x3eae1fb4	0.34008563
6	0x3dc4ba79	0.09605879
7	0xbdeb8e54	-0.11501756
8	0xbe82b2ea	-0.25527126
9	0xbd61be1c	-0.055112943
10	0x3df45508	0.11930281
11	0x3e726488	0.23671162
12	0x3e57b1cf	0.21063922
13	0xbd0a7632	-0.033804126
14	0xbe630e02	-0.22173312
15	0x3e582e81	0.2111149
16	0xbe0b3aff	-0.13596724
17	0x3e24b813	0.16085844
18	0xbcd47f50	-0.025939614
19	0xbe08444c	-0.13307303
20	0x3d741aca	0.05959586
21	0x3da7f8af	0.082017295
22	0x3e3d8cb4	0.18510705
23	0x3e364490	0.17799592
24	0x3e99dfed	0.30053654
25	0x3cb82e5d	0.022483045
26	0x3e1eb6b6	0.15499386
27	0xbd01c377	-0.03168055
28	0xbe4d817b	-0.20068924
29	0x3db994a8	0.09061557
30	0x3e4a2d0e	0.1974375
31	0x3e484661	0.19558097

linear_layers.2.weight f4 [6, 32]
0	0x3e12fcd3	0.14354257
1	0xbf0fbb1b	-0.56144875
2	0xbedd6043	-0.43237504
3	0x3e1a20f2	0.1505163
4	0xbd03fb84	-0.032222286
5	0xbe5b4a16	-0.2141498
6	0x3e96f22b	0.29481634
7	0xbeb5e30e	-0.3552479
8	0xbe88a0dd	-0.2668523
9	0x3dd98968	0.10621911
10	0xbd96cdbd	-0.0736346
11	0x3e48f8c9	0.19626154
12	0x3e09256d	0.13393183
13	0xbea58042	-0.32324415
14	0x3dcb9e13	0.0994226
15	0x3e7b5cc0	0.245471
16	0xbe843235	-0.25819555
17	0x3d25e950	0.040505707
18	0xbe8350bc	-0.25647533
19	0x3e6b5689	0.2298223
20	0x3e2887cd	0.16458054
21	0xbf016f6f	-0.5056066
22	0x3e410e5a	0.18853131
23	0xbec38b61	-0.38192275
24	0x3e33e5ae	0.17568085
25	0xbdcc8c05	-0.09987644
26	0x3e5fd275	0.21857627
27	0xbec6839f	-0.38772294
28	0xbe359e69	-0.1773621
29	0xbe4e4427	-0.20143186
30	0x3eab9ad0	0.3351655
31	0x3e50955e	0.20369479
32	0xbe181af3	-0.1485403
33	0x3ef7d4d1	0.48404554
34	0xbec6b492	-0.3880964
35	0x3e0e8645	0.13918407
36	0x3c127d6d	0.008941037
37	0xbef613fd	-0.48062125
38	0x3e9aa6c2	0.3020535
39	0xbecfacec	-0.40561616
40	0xbe2829ef	-0.16422246
41	0x3eb2dbd1	0.34933332
42	0xbe5151be	-0.20441338
43	0x3e41de0d	0.18932362
44	0x3e05b0e2	0.13055757
45	0xbe85dcca	-0.2614501
46	0xbdaeaa3d	-0.08528564
47	0x3e77220f	0.24134086
48	0x3ef34634	0.47514498
49	0xbdd35831	-0.103195556
50	0xbe9adbfe	-0.30245966
51	0x3e7b2e4c	0.2452938
52	0xbe9287a0	-0.286191
53	0x3e7e2053	0.24817018
54	0x3e3b4c6c	0.18290871
55	0x3de39ae1	0.11113525
56	0x3e148008	0.14501965
57	0x3e0ff932	0.14059904
58	0x3e8451fe	0.25843805
59	0xbeac5a2c	-0.33662546
60	0xbe7cc6f0	-0.24685264
61	0xbe34135e	-0.17585513
62	0x3eae3f6a	0.34032756
63	0x3e53ba29	0.20676483
64	0xbf069e8d	-0.5258568
65	0xbed431c1	-0.4144421
66	0xbf033ebe	-0.5126761
67	0xbcb250fa	-0.021767128
68	0x3f00144e	0.5003098
69	0xbf383379	-0.7195354
70	0xbf0d8d83	-0.55294055
71	0x3f0dd356	0.554006
72	0x3ddaf655	0.10691515
73	0x3e93ba2f	0.28852984
74	0xbea877f9	-0.32904032
75	0xbf230120	-0.6367359
76	0xbf3416e4	-0.7034743
77	0x3eaf9219	0.3429115
78	0x3f03b3b3	0.51446074
79	0x3eabccbc	0.33554637
80	0x3eee98f6	0.46601075
81	0xbdfe85b6	-0.12427847
82	0x3f019522	0.50618184
83	0xbf4b9b9f	-0.79534334
84	0x3e3ce1ed	0.18445559
85	0xbf144ebd	-0.57932645
86	0x3e4b8973	0.19876651
87	0x3d5f3dbb	0.05450223
88	0x3e936f85	0.2879602
89	0x3eb639d8	0.35591006
90	0x3e5d7a83	0.21628766
91	0x3d72c228	0.059267193
92	0x3f1a8332	0.6035644
93	0x3e98532b	0.29750952
94	0xbd4d6327	-0.050143387
95	0x3da782b2	0.08179225
96	0xbebef4b2	-0.37296063
97	0x3eb2a000	0.34887695
98	0x3dffc01e	0.12487815
99	0x3d32b468	0.04362908
100	0xbee54774	-0.44781077
101	0x3d98b0f0	0.07455623
102	0x3e105d30	0.14098048
103	0xbe3440ab	-0.17602794
104	0xbf34d058	-0.7063041
105	0xbe6bcb61	-0.23026802
106	0xbf30183b	-0.6878697
107	0x3dbda14f	0.09259283
108	0x3ef51277	0.4786565
109	0x3ed26cf6	0.41098756
110	0xbea49ea8	-0.32152295
111	0xbeb6aaf7	-0.3567731
112	0xbdbda117	-0.09259241
113	0xbf35ed19	-0.7106491
114	0x3e3e5aaa	0.18589273
115	0xbdd15b6f	-0.10222518
116	0x3ec1aac6	0.37825602
117	0x3e854a8c	0.26033437
118	0xbee74bab	-0.45174918
119	0xbf22da99	-0.63614804
120	0xbe78ecdd	-0.24309106
121	0x3ec4f2e8	0.38466573
122	0xbef6913f	-0.4815769
123	0xbe51160b	-0.20418565
124	0x3e9570e3	0.29187688
125	0x3ecbdb18	0.39815593
126	0xbe8ea6cd	-0.27861634
127	0xbea0d927	-0.31415674
128	0x3dda87ea	0.10670455
129	0xbd1b8d2d	-0.037976433
130	0x3e3d8c21	0.18510486
131	0xbeca30cb	-0.3949035
132	0xbe75a601	-0.23989107
133	0x3d9ff69f	0.07810711
134	0xbe95b966	-0.2924301
135	0x3d7dc35f	0.0619539
136	0x3ea008bf	0.31256673
137	0xbe9cd3e8	-0.30630422
138	0x3e4d6809	0.20059218
139	0xbef35c70	-0.47531462
140	0xbe30c07f	-0.17260931
141	0x3bfb716e	0.007673434
142	0xbe97d14f	-0.29651877
143	0xbe73fd2c	-0.23827046
144	0xbe6f9b4f	-0.2339909
145	0x3e21ebb7	0.15812574
146	0x3e908a92	0.2823072
147	0xbe2886c8	-0.16457665
148	0xbe807ea2	-0.25096613
149	0x3d9babb1	0.07601107
150	0xbe9e64a3	-0.30936155
151	0x3e6f6201	0.2337723
152	0xbe857149	-0.26062992
153	0xbe52bb0c	-0.20579165
154	0xbe92ef8c	-0.28698385
155	0x3e609a12	0.21933773
156	0xbe40b7e2	-0.18820146
157	0x3de6a692	0.112622395
158	0xbdad959c	-0.08475801
159	0xbe951d4e	-0.2912392
160	0x3dc0271e	0.09382461
161	0xbcefb45f	-0.029260812
162	0x3e3d07ac	0.18459958
163	0xbead0950	-0.33796167
164	0x3c94bfdb	0.01815789
165	0x3da1c8e8	0.07899648
166	0xbe693229	-0.22773041
167	0x3de6ac7d	0.11263368
168	0x3e9bd91f	0.30439088
169	0xbe9a894b	-0.3018287
170	0x3e4b7994	0.19870597
171	0xbd97522a	-0.073887184
172	0xbead9718	-0.33904338
173	0xbd83c7e9	-0.06434614
174	0xbe9b11e0	-0.30287075
175	0xbe6658ad	-0.22494765
176	0xbe717066	-0.23578033
177	0x3e19f069	0.15033115
178	0xbe389ad1	-0.18027808
179	0xbe69796f	-0.2280023
180	0xbe9aac8c	-0.30209768
181	0x3e0267cb	0.12734906
182	0xbe9f8ffc	-0.3116454
183	0x3e660949	0.2246448
184	0xbe87c685	-0.26518646
185	0xbe8dec64	-0.27719414
186	0xbe89e37e	-0.26931375
187	0x3e52f352	0.20600632
188	0xbe6abb5b	-0.22923033
189	0xbd5cd76d	-0.053916384
190	0xbe7dd3dd	-0.2478785
191	0xbe944b19	-0.28963545

linear_layers.2.bias f4 [6]
0	0x3cffec30	0.031240553
1	0xbcad460b	-0.021151563
2	0xbe855f8c	-0.2604946
3	0x3da9fe6d	0.08300481
4	0xbb8de2b3	-0.004330003
5	0xbd839886	-0.06425576
