LTNtorch/LTN_reduce.pth (torch, 13670 bytes, 6 tensors)

linear_layers.0.weight f4 [32, 45]
000000 d7 76 0c 3e 7b 9a 8c bd 80 fb 0c bd f7 71 27 3d
       0.13717209 -0.06865402 -0.034419537 0.04088017
000010 cf 2a 18 3c 18 58 00 bd f4 3a 0a bd 53 34 8c 3d
       0.00928755 -0.031334013 -0.03374763 0.068459176
000020 2f 66 4e 3d 51 4f cf 3d 91 7b b3 bd b7 df cd 3d
       0.05039042 0.1012255 -0.08763803 0.10052436
000030 c0 11 6e bd 24 b2 01 be 35 88 a0 be 8f 19 33 3f
       -0.058122396 -0.12665612 -0.31353918 0.69960874
000040 26 c8 87 be 5d ff ac bd 2a 37 1a be be 34 5d 3d
       -0.2651989 -0.08447144 -0.15060106 0.054005377
000050 b7 80 e8 3d fc 27 da 3b f4 fd c9 bd e2 ce e8 3d
       0.113526754 0.0066575985 -0.09862891 0.11367585
000060 53 cd 37 bd a0 e6 b2 bd 21 64 b9 bb 42 ec 18 be
       -0.044873547 -0.087353945 -0.0056576882 -0.14933875
000070 e5 76 d3 bd e3 7d 2d 3d a3 03 3d bd 18 68 b8 bd
       -0.10325412 0.042356383 -0.046146046 -0.09004229
000080 68 30 a7 bd 9b ac 0b be 8a 0f 0d 3d da aa 64 be
       -0.0816353 -0.13640063 0.034438647 -0.223308
000090 b0 89 48 3e 76 76 1b 3e 2b 93 47 bd b4 fa ca 3d
       0.19583774 0.15181908 -0.048724335 0.09911099
0000a0 33 34 73 3e 24 20 19 bd 12 fa 2e be 67 28 56 be
       0.23750381 -0.037384167 -0.17087582 -0.2091385
0000b0 f0 0d 13 bc fa 1b 07 3d 1f 40 77 bd 6a 71 9d bb
       -0.008975491 0.032985665 -0.060363885 -0.00480478
0000c0 7d 79 15 3e 0c b0 8f 3c 47 18 0f 3e d4 98 8f 3e
       0.14597125 0.01754 0.13974105 0.28046286
0000d0 6a 61 0e 3e 41 b8 26 bd 24 30 71 3c 42 7a 0e 3e
       0.13904348 -0.040703062 0.01472095 0.13913825
0000e0 5a b2 45 3d 78 4e ba 3d b1 47 9e 3d b1 63 4c be
       0.048265792 0.09096998 0.07728518 -0.19959904
0000f0 6f 93 4c 3f 4d 70 93 be 35 5b 68 be 87 81 8e be
       0.79912466 -0.28796616 -0.22691043 -0.27833197
000100 b3 70 95 b9 9f 50 36 be ad 9c bf bd 90 2f c6 3d
       -0.00028503462 -0.17804192 -0.093560554 0.096770406
000110 bd 1f 19 bc 7c c4 69 3e bf 9c 37 be a8 0b 00 3e
       -0.009345946 0.22828859 -0.17930888 0.12504447
000120 57 d4 a1 bc d8 15 5e 3e a2 b3 c9 bc 25 aa 83 bd
       -0.019754572 0.2168802 -0.024621788 -0.06428937
000130 53 b1 19 3b 6a 57 87 bd 6e 7e 62 be a3 40 6b bd
       0.002345164 -0.0660847 -0.22118542 -0.05743469
000140 03 de 06 bc ec 1d 86 bd b3 07 75 3e 40 4d 5e 3d
       -0.008231643 -0.06548676 0.23928718 0.05427289
000150 cd b7 a3 ba 9f 58 89 3e 7f df d6 3c 19 6b 07 bd
       -0.001249069 0.26825425 0.026229618 -0.03306112
000160 db 36 cd bd a9 db fe bc 89 ea 09 bf 29 51 4f 3e
       -0.100202285 -0.031110601 -0.538735 0.20245804
000170 cd 73 b8 ba e1 dc e9 bd 27 5d 57 be 6f 3e e5 bd
       -0.0014072597 -0.114190824 -0.21031629 -0.11193549
000180 ee 76 1a 3d ed 12 6c 3d 76 d1 c9 3c 96 10 78 3d
       0.037711076 0.057635237 0.024636012 0.060562693
000190 10 fd 82 bd 22 12 b8 3c 66 9b 44 3b b8 17 15 be
       -0.06395924 0.022469584 0.0029999851 -0.14559829
0001a0 2a 20 87 bd c2 ba 09 3f f5 e1 10 3f 8a 30 f1 3d
       -0.06597932 0.53800595 0.56594783 0.11776836
0001b0 6b e2 83 3d ea c6 52 bc c1 43 04 3d 46 e8 40 3d
       0.0643967 -0.012864808 0.032291178 0.047096513
0001c0 cb d5 68 3d c3 66 36 3d ea 28 5d 3c a4 fc ec 3b
       0.056844514 0.044531595 0.013498524 0.0072322655
0001d0 15 21 2d 3c 19 ed ce 3c 60 b0 13 3d bf e1 47 3d
       0.010566969 0.025259541 0.036056876 0.048799273
0001e0 dd b7 88 3c 51 62 9b bc 2d 4a 64 be 14 90 d8 bc
       0.016689235 -0.01896778 -0.22293921 -0.02643589
0001f0 42 2d ca 3c 29 d4 db bd 4e 11 1d bc d2 f5 50 3d
       0.024679784 -0.10733826 -0.009586645 0.051015683
000200 6c 1c 05 be ca ac a6 3c 3b 87 0f be 71 5e 81 3d
       -0.12999123 0.020346064 -0.1401643 0.063168414
000210 82 5c b8 3c 0d 06 22 3d 81 fe 00 3e dc 6b ad 3e
       0.022505049 0.03955655 0.12597086 0.33871353
000220 9b 27 a3 3c 5f ee 2e bd 19 1b 1f bc 60 ec a1 3d
       0.019916346 -0.042707797 -0.00971105 0.07906413
000230 fb d9 10 3e bf 93 9c be e3 99 41 be 32 1f e8 3b
       0.14145653 -0.3058147 -0.1890636 0.007083797
000240 10 f2 dc bc 11 dc 7d be 1d 00 3f bc 49 12 23 3c
       -0.026970893 -0.2479098 -0.011657742 0.00995309
000250 59 5f 02 be a1 7c 46 bd 1f 93 1f bf e7 36 aa be
       -0.12731685 -0.0484587 -0.62333864 -0.33245012
000260 b8 05 1a bd 87 37 0e 3e e4 d0 6e bd e4 74 64 bd
       -0.03760311 0.1388837 -0.058304682 -0.055775538
000270 75 16 e9 bc 95 c1 0e bb 68 73 eb 3c 52 c1 c2 3d
       -0.028453091 -0.0021782864 0.028741553 0.09509529
000280 2e ae 97 3d f2 9b 11 3e 5f 45 a6 3d 56 64 9b bc
       0.07406269 0.14219645 0.081187 -0.018968742
000290 58 e8 23 3d d1 6a 84 3d 56 09 26 3d ec 05 e1 3d
       0.040016502 0.06465686 0.040536247 0.10987458
0002a0 3b 00 de 3d 58 5f 02 bd 7b 44 f3 3c a8 9f 20 be
       0.10839888 -0.031829208 0.02969574 -0.15685904
0002b0 63 bf 6f bd 81 63 84 3d 16 1e d6 bd ad 12 6e be
       -0.05853213 0.06464291 -0.10454957 -0.23249312
0002c0 05 06 16 bd 6f b8 87 3e d0 ee 39 be 89 67 25 bd
       -0.036626834 0.265079 -0.18157506 -0.040381942
0002d0 66 96 20 3f 93 30 45 3b d0 52 ac 3c f0 c9 3a bd
       0.6272949 0.0030088767 0.021035582 -0.04560274
0002e0 8c db 8d 3c 20 81 2d 3c 7d 87 d8 3c 46 6a 0a bd
       0.017316602 0.010589868 0.026431793 -0.033792756
0002f0 6f 55 0b bd 48 0c 7b bd f1 64 18 be d1 49 8e 3c
       -0.034017023 -0.06129101 -0.14882256 0.017369183
000300 ea 46 85 bc c0 08 db bd f0 d2 b8 bd 54 58 8d be
       -0.016269166 -0.10695028 -0.09024608 -0.27606452
000310 22 68 ff be 72 83 1c be 90 5b d0 3d de 54 b3 bc
       -0.49884135 -0.15284517 0.10173714 -0.021891054
000320 5e 9e f4 3b bf 0d 83 bc d0 24 79 bc 96 c3 5b 3c
       0.007465168 -0.015997766 -0.015206531 0.013413331
000330 63 39 ce 3d e4 80 c2 bb d7 72 7c 3d fa 24 ec bd
       0.100695394 -0.005935775 0.061632957 -0.1153049
000340 e1 3c 0e 3c 77 bf 97 bd 45 ff 04 be ff 4f 7b 3d
       0.008681507 -0.07409566 -0.12988003 0.061355587
000350 38 d7 1e 3e d3 7b ed 3b 32 6b 9f 3d b6 ee e5 3d
       0.15511787 0.007247427 0.07784118 0.11227171
000360 85 cd 25 bd 97 56 b1 bd bf 67 ce bd e2 cb 04 3e
       -0.0404792 -0.08659094 -0.10078382 0.129684
000370 f2 34 3f be f1 4c 52 3d 98 a0 c6 bd 3c 1c 60 3e
       -0.18672541 0.05134291 -0.096985996 0.2188577
000380 d3 84 54 bd 6b 8b 27 3f 49 c0 79 3e a8 bf d4 3d
       -0.051884484 0.6544711 0.24389757 0.10388118
000390 55 e9 9d be ff 21 dd be b0 34 4c 3c e2 52 04 bd
       -0.3084208 -0.4319 0.012463734 -0.032305606
0003a0 6e da 31 3d b4 6b b6 3d 6c 0c be bd ec 27 7b bd
       0.0434212 0.089072615 -0.09279713 -0.06131737
0003b0 fb 98 d6 bd 2d 2b 8f bd 23 46 09 3d 11 31 c8 be
       -0.104783975 -0.06990657 0.033514153 -0.39099935
0003c0 b1 e0 7a 3e 83 de 44 3e 05 f3 44 3e 15 9b 1d 3e
       0.24499775 0.19225506 0.1923333 0.1539119
0003d0 87 57 de bc 12 c6 ec 3d 20 12 a5 bd d2 70 8c 3d
       -0.027141346 0.115612164 -0.08060098 0.06857456
0003e0 e7 c6 d0 3d df da 55 3c 2d 33 2e 3e 36 6a 12 3e
       0.101941876 0.013052671 0.1701171 0.14298329
0003f0 2e 38 54 3d 45 dc a9 bd 3c 48 31 bd b7 34 bc bd
       0.05181139 -0.08293966 -0.04328178 -0.09189742

linear_layers.0.bias f4 [32]
000000 39 b1 f4 bd 63 e4 da bd a1 dc a0 bd 3f 30 d0 3c
       -0.11947865 -0.106880926 -0.078545816 0.02541363
000010 b3 e2 88 bd ce 43 21 be 5c 0e 88 3d 17 87 97 3d
       -0.066838644 -0.15748522 0.06643364 0.07398813
000020 e0 6b 55 3d b8 1c 38 3d 09 7d 13 be ea 3e d7 bd
       0.05210483 0.044949263 -0.14403166 -0.10510047
000030 20 3e e6 bd be cd e8 3d ac e1 5a bd 27 18 bb bd
       -0.11242318 0.11367367 -0.053437874 -0.09135466
000040 18 02 fc bd 03 4b 9c 3d c0 1e 96 be 89 1f 6d be
       -0.12305087 0.07631495 -0.29320335 -0.23156561
000050 7d ef 94 bd 56 f7 cc 3d 9d 05 50 be 10 b1 8b bd
       -0.07272241 0.10008113 -0.20314641 -0.06820881
000060 09 8a 9f bd b2 23 0f be c7 5f 42 be d6 02 66 bb
       -0.0779 -0.1397846 -0.18981849 -0.0035096905
000070 c6 c2 ac 3d 40 b5 d3 bd fd 17 87 3d 1c e8 13 bd
       0.084355876 -0.10337305 0.06596372 -0.03611003

linear_layers.1.weight f4 [32, 32]
000000 2a ba 5e bd d9 99 c9 bd 4a 0a 86 3d 5e 0b ea 3d
       -0.05437676 -0.09843797 0.06544931 0.11427949
000010 32 56 23 be 37 0d 5f be fb 73 ed be d2 96 8f 3d
       -0.1595085 -0.21782385 -0.4637755 0.070111886
000020 3c 18 0c be e6 d7 69 3e de e4 2d 3e bd 1a 77 bd
       -0.1368112 0.22836265 0.16981837 -0.060328234
000030 3a 1d 07 3e 84 36 d2 3e a1 b3 0e bf 28 2b 0c bf
       0.13194743 0.41057217 -0.5574284 -0.5475335
000040 d1 4c 2f 3f 3e 82 b4 bd 6c d8 e0 bc d4 bb 22 3f
       0.6847659 -0.08813904 -0.027446948 0.6356785
000050 58 fa 81 3e 41 ff dd 3e 3e 33 93 3e eb e5 b4 be
       0.2538631 0.43358806 0.28750032 -0.35331663
000060 bf b2 96 3e 0f fc b1 be 15 0c ce bd a4 fd 14 3f
       0.29433247 -0.34762618 -0.10060898 0.58199525
000070 d1 df 9a be 8c 84 2d bf ca d4 02 3f b8 07 2a be
       -0.30248883 -0.67780375 0.5110594 -0.16604507
000080 fc 02 3d bc 64 1d 85 3e 26 a4 37 be 79 61 53 3e
       -0.011536356 0.25998986 -0.17933711 0.20642652
000090 be 16 a6 3e 15 33 cd 3d 7c 57 17 3f 95 b2 97 bd
       0.32439226 0.10019509 0.59117866 -0.07407109
0000a0 35 bc e0 3d dc c3 ac bb a5 5a 6d be 3b 33 d0 3e
       0.10973398 -0.0052723717 -0.2317911 0.40664086
0000b0 05 be 7c 3e 68 55 fe bb 14 02 04 bd 82 08 23 bc
       0.24681862 -0.007761646 -0.032228544 -0.009950759
0000c0 2e c3 91 be e5 2d 99 3d 23 3e 0e 3c 2e b5 93 bd
       -0.28469223 0.07479457 0.008681807 -0.07212292
0000d0 89 60 25 3e 19 9f bd 3e 85 b9 fa bd 94 0e 2a be
       0.16150106 0.37035444 -0.12242416 -0.16607124
0000e0 ca 22 53 be 10 5d 6d 3d 54 b7 42 3e f6 90 03 be
       -0.2061874 0.05795008 0.19015247 -0.12848267
0000f0 59 a2 e1 3e 30 f1 85 3c bc 13 3f be b7 a2 fd bc
       0.44069174 0.016350359 -0.18659872 -0.030961378
000100 b9 20 d6 be 17 a7 41 be 4d 80 f9 be a1 8c be 3e
       -0.4182184 -0.18911396 -0.48730698 0.37216666
000110 6c c6 08 bd f2 5e d5 be 08 5c a6 be db 51 8b bd
       -0.033392355 -0.41674 -0.3249209 -0.06802722
000120 56 03 3e 3e 19 6b 98 be 75 3f 13 3f 0a fe 35 bf
       0.1855596 -0.2976921 0.575187 -0.7109076
000130 17 98 a5 be f5 3b 26 3e 04 5f 9e 3d 3b 7e 51 be
       -0.32342598 0.1623381 0.077329665 -0.2045831
000140 b3 59 b0 3c a6 da 5c 3e c6 a5 cd be 7a 6c a0 3e
       0.021527147 0.21567783 -0.40165538 0.3133276
000150 17 02 4f 3e 42 aa 14 be 05 57 0e 3f 7d d8 82 3e
       0.20215641 -0.14518073 0.5560153 0.25555792
000160 86 c7 70 be 9c 23 b0 3d 25 eb 86 be 32 71 17 be
       -0.23513612 0.08600542 -0.26351276 -0.14789274
000170 94 f7 06 3f b2 85 dd bd 99 02 6f 3d 74 67 8c be
       0.52721524 -0.10816516 0.058352087 -0.27422678
000180 7d 4a a6 3d 84 95 47 be 2f 9c c6 39 6a ca b2 3e
       0.08119676 -0.1949063 0.0003788187 0.34920055
000190 7a 45 b0 be fd c5 32 bd f0 84 0c bf 2b 98 cd bd
       -0.34428006 -0.043645848 -0.54890347 -0.10038789
0001a0 91 55 e5 bd ac ff 95 3e 82 74 c7 3e b9 9d 80 bd
       -0.11197961 0.29296625 0.38956076 -0.06280083
0001b0 5a 7b 5b 3e c5 7e e2 3e d0 41 d5 be 87 62 da be
       0.21433774 0.44237342 -0.41651773 -0.42653295
0001c0 c0 55 da 3e f0 96 fd 3c 22 87 58 be 9f 91 be 3e
       0.42643547 0.030955762 -0.21145299 0.37220475
0001d0 39 47 b1 3e 7d de 04 3e 3b 3e d1 3e 96 56 0c be
       0.3462465 0.12975498 0.4086779 -0.13704905
0001e0 dc f1 2c 3e d9 fb f7 be 5e ac 02 be d4 38 23 3f
       0.16889137 -0.48434332 -0.12761065 0.6375859
0001f0 6e d9 12 be 76 b4 0e bf ee e4 be 3e 61 0d cc bd
       -0.14340755 -0.5574411 0.37284034 -0.09963489
000200 5a f5 4f bd a2 dc a3 3c 41 3d 0c b8 ea 7e 63 be
       -0.050771095 0.020002667 -3.343565e-05 -0.22216383
000210 8d 28 2e bf d9 c2 68 be c0 c3 88 bd d4 15 47 be
       -0.68030626 -0.22730578 -0.06677961 -0.1944192
000220 4d 57 fa 3e 58 41 93 3e a8 03 66 3e de 11 31 bd
       0.4889473 0.2876079 0.22462332 -0.04322993
000230 f3 1b a7 3b 45 fc dc 3c f1 4b d9 3e 3f 39 c2 bb
       0.0050997674 0.02697576 0.4244075 -0.0059272344
000240 8d c1 58 be 80 cb 96 3b f1 4c d6 be 58 3b 3a be
       -0.21167584 0.004601896 -0.41855577 -0.181867
000250 2b 0d b8 be df c8 24 bf d8 ee a3 bc 87 82 ef 3d
       -0.35947546 -0.64369005 -0.02001135 0.11694818
000260 bc a7 1f 3e b8 93 79 3e 02 37 35 bd 65 d8 7c be
       0.1559133 0.24372756 -0.044241913 -0.24691923
000270 3c 85 ec bc 23 11 7b 3e 8f dd e1 3c 58 bd a3 3b
       -0.028872125 0.24518256 0.027571468 0.004996937
000280 92 d3 e4 bd 21 6c 58 be 1e ad 2b 3d 7a 30 50 3d
       -0.11173166 -0.21134998 0.041913144 0.05082748
000290 e5 63 98 bd 88 90 f1 3d b4 22 dd be e1 e5 0c 3c
       -0.07440928 0.11795145 -0.4319054 0.008599729
0002a0 a7 cc 51 be 8b 6a 9c 3e 6f bd 36 3e bf 88 6f 3d
       -0.20488225 0.30550036 0.178457 0.05848002
0002b0 c2 b2 83 3e fc f5 b7 3e f8 60 1e bf 34 8e 73 be
       0.2572232 0.3592986 -0.6186671 -0.23784715
0002c0 55 92 06 3f c1 f9 8c bd 69 db 6b 3e ee aa ee 3e
       0.52567035 -0.06883574 0.23032917 0.46614784
0002d0 6e d0 81 3e 23 01 98 3e bd 4b d0 3e 71 43 ab be
       0.25354332 0.29688367 0.40682784 -0.3344989
0002e0 96 51 d2 3c d0 3a b3 be 27 ae 18 be 46 1b 3a 3f
       0.025673669 -0.35005808 -0.14910184 0.72697866
0002f0 d6 20 ac be 23 fc 2e bf 4b 6d 0a 3f aa 5d 27 be
       -0.33618802 -0.6835348 0.5407302 -0.16344324
000300 81 d7 b8 be 71 d7 14 be 72 71 8b 3e d7 5c b3 be
       -0.36101916 -0.1453531 0.2723499 -0.3503177
000310 f2 8d ab 3e b5 c5 1b 3e cd 52 c5 bd 5b 72 07 3d
       0.33506733 0.15212138 -0.096349336 0.033068042
000320 c6 e6 ed be 2f 90 31 bd 94 69 d3 be c8 19 e1 3d
       -0.4646513 -0.043350395 -0.41291487 0.109912455
000330 36 bb 0c be ce 05 a3 3d ca 81 98 3d 47 c7 23 3e
       -0.1374329 0.079600915 0.0744663 0.15993987
000340 8b 34 b3 3e 4a 6e 03 bf 7f 39 39 3f 49 8f 6a bd
       0.35001025 -0.5134016 0.7235336 -0.057265554
000350 c2 98 1b bb 38 0f 22 3e 5f ed 6a be e5 26 fd bc
       -0.0023742174 0.15826118 -0.22942112 -0.030902335
000360 07 d7 bb be bb 74 c0 bd 84 27 cd 3e 05 be b3 3e
       -0.3668749 -0.093972646 0.4006921 0.3510591
000370 b3 af da be 2e 47 12 3e c6 bb e0 3d a5 81 99 3e
       -0.42712173 0.14284965 0.10973315 0.29981723
000380 1d de a8 3e 61 69 fa 3e fe e4 20 3c 64 c2 0b be
       0.3298196 0.48908523 0.009820221 -0.13648373
000390 9a d0 92 3e 12 33 00 3c 55 f2 0e 3f 49 d6 4b be
       0.28674775 0.007824676 0.5583852 -0.19905962
0003a0 bf 82 01 be 92 ed 81 be 3e df 42 be 4c 18 0a 3f
       -0.12647532 -0.25376564 -0.19030473 0.53943324
0003b0 3c 24 64 3e 43 02 98 bc 8e a7 0a bd d8 c2 00 bd
       0.22279447 -0.018555766 -0.0338512 -0.031435817
0003c0 45 f1 6a be f9 e3 d2 3e 13 8d 89 be 8b 36 b5 be
       -0.229436 0.41189554 -0.26865444 -0.35393175
0003d0 03 66 ec 3c c7 13 ef bd 3e cc 5c be 2d c1 54 bc
       0.028857237 -0.11673694 -0.21562287 -0.01298551
0003e0 da 9f 87 3c c4 a5 4d 3e 98 17 53 be 9a 1c 00 bf
       0.016555715 0.20082766 -0.20614469 -0.5004364
0003f0 73 cf a8 3e b1 d5 38 3d e1 df 9c be 4e 35 1b be
       0.3297077 0.045125667 -0.30639556 -0.15157053

linear_layers.1.bias f4 [32]
000000 b0 2a 7a 3e 6b b3 3e bd e8 36 d9 bd e5 d0 c3 3d
       0.24430346 -0.046557825 -0.10606176 0.09561328
000010 10 f4 74 3d 86 d8 28 3e 59 81 ac 3d 63 8f 47 3e
       0.05980307 0.16488847 0.084231086 0.19488291
000020 8a b9 c4 3d 16 21 07 3f de 27 97 3d f5 d2 d7 3d
       0.09605701 0.5278486 0.07380651 0.10538284
000030 1e 58 52 3e 8a e8 8a 3d ad 7e d0 3e 25 2f 5a 3e
       0.20541427 0.067826346 0.40721646 0.21307047
000040 27 21 75 3e b5 e7 53 b9 4e fb fe 3e 3b b2 0d bd
       0.23938428 -0.00020208846 0.49801105 -0.034593802
000050 ac 9d f6 3d 0d 56 30 3e 59 c0 3d 3d 1b 10 51 3e
       0.12041792 0.17220326 0.046326015 0.204163
000060 65 0e 34 3e 7f 01 99 3d af cd 7e 3d 9b ce 5b 3d
       0.17583616 0.074709885 0.062207874 0.05366383
000070 ff d0 94 3e ed 3a 88 3e 2a 46 c5 3c 2b ef ea 3d
       0.290657 0.26607457 0.024081308 0.11471399

linear_layers.2.weight f4 [6, 32]
000000 05 3b b5 be ba 47 bc 3e 85 44 89 be 32 37 c7 be
       -0.3539659 0.36773473 -0.2681009 -0.38909298
000010 73 43 d9 bd 2f 98 9d be c8 9b 7e 3e fb b0 95 3e
       -0.10608568 -0.3078017 0.24864113 0.29236588
000020 92 3a 4f 3d 2b 8e 90 3e a8 ac da bd 80 fb 8d bd
       0.050592966 0.28233466 -0.10677463 -0.069327354
000030 e4 9d 20 3e ad 2e 52 3e 5e ea 39 3e 83 c4 4d be
       0.1568523 0.20525618 0.1815581 -0.20094495
000040 07 78 8f 3e 0a 3c df bc 0b 90 96 3e a5 a1 af 3d
       0.2802126 -0.027250309 0.2940677 0.08575753
000050 bd 9b 95 3e 59 22 8d be 95 40 3d be e7 ab b2 be
       0.2922038 -0.27565268 -0.18481667 -0.34896776
000060 9b a4 63 bd 7f 6d 59 3e f0 02 6b be c4 19 24 be
       -0.055576902 0.21233176 -0.2295034 -0.16025454
000070 d9 43 7b 3e 8e ef 93 3e d3 bc 4d 3e 9e 57 7b 3d
       0.245376 0.28893703 0.20091562 0.061362855
000080 b2 87 9a be 0d a7 f4 bd b3 6d 4b be 44 b5 ad be
       -0.30181652 -0.11945925 -0.19866066 -0.33927357
000090 b6 05 4a 3e c6 0b 7e be 4e b9 8c 3e 86 b7 3f be
       0.19728741 -0.24809179 0.27485126 -0.18722352
0000a0 67 7c b7 be be c4 8e 3e 1f d8 ca 3c 44 14 82 3e
       -0.358371 0.27884477 0.024761258 0.25406086
0000b0 91 04 23 3e 5a ad 58 3e b5 d0 72 3e bb 1f b5 3d
       0.1591971 0.21159878 0.23712428 0.08843943
0000c0 eb c0 8e 3e eb 2a df 3e 5a df 94 3e e1 6a 3c be
       0.2788156 0.4358743 0.29076654 -0.18400146
0000d0 dc 7e 8d 3e 63 54 b2 be 17 77 6e be 39 e3 8f 3e
       0.2763585 -0.34830007 -0.23287617 0.28103045
0000e0 86 09 5e be f8 93 69 3e 34 1c c4 3e cc 98 51 be
       -0.2168332 0.22810352 0.38302767 -0.20468444
0000f0 a0 54 77 3e 9d 71 a6 be e5 52 10 be 7e ee 12 be
       0.24153376 -0.32508555 -0.14094122 -0.1434879
000100 0b b9 df be 84 8e 96 3c 13 d3 9f 3e 99 0c 00 bf
       -0.43695864 0.018378504 0.31215724 -0.5001922
000110 1b 0c e5 3e 0b d5 f4 be 8f ac 38 bf 66 cc 01 3f
       0.44735798 -0.4781879 -0.72138304 0.5070251
000120 60 ca 29 bf 91 1d c5 3c a2 b1 9b 3e a1 c2 ce 3e
       -0.66324425 0.02406195 0.3040896 0.40382865
000130 b6 f1 3e 3e d5 24 2a bf 1e 33 23 3e c5 e3 95 3e
       0.18646893 -0.6646245 0.15937468 0.29275337
000140 1e ec 5d bf 4b c7 f9 be 8b b7 3c 3e 3f 7e 8b be
       -0.8668841 -0.4878486 0.18429391 -0.27244756
000150 9d 54 8e bd 6e 3c f5 be fd 20 13 3f a1 83 4f bf
       -0.069497325 -0.47897667 0.5747221 -0.81060225
000160 f2 08 f5 3e 83 83 e5 be 1b 1b b8 3d 3d 96 09 3f
       0.47858387 -0.44826898 0.08989545 0.5374487
000170 d1 78 9e 3e ca 07 db 3e 4f 0c 1a bf 06 7f b4 3e
       0.3095155 0.4277938 -0.6017503 0.3525316
000180 d0 e0 1a 3e b8 bf df 3d 9a 09 6d bf 58 ef 72 3d
       0.15124822 0.10925239 -0.92592776 0.059310287
000190 bf ee 08 bf 5a 4e 51 3e 47 43 fd 3e e0 3e fe 3d
       -0.534893 0.20440045 0.4946539 0.12414336
0001a0 6d 38 a1 3e 79 4b 38 bd d0 b3 e4 3e 4d 21 c1 3e
       0.31488362 -0.04499385 0.44668436 0.3772072
0001b0 24 cb cf 3e 0d 86 7d bd 81 18 cd be 2e 16 41 3e
       0.40584671 -0.06189542 -0.40057757 0.18856117
0001c0 f1 04 01 3e 3e ed 3a bf f1 fb d6 bd c6 b7 3f bf
       0.12599541 -0.7301825 -0.10497273 -0.7488979
0001d0 b7 6f b8 bd 86 5f 8c 3e 84 75 a9 3e 45 de f3 3d
       -0.09005683 0.2741663 0.3309747 0.11907629
0001e0 bd 14 97 3e 4e 47 96 be e1 e5 20 bf 32 d8 a1 3e
       0.2950801 -0.29351276 -0.6285077 0.31610256
0001f0 49 ad 29 bf 08 72 21 be 7f 27 f7 be 88 2a 3b bf
       -0.6628004 -0.15766156 -0.4827232 -0.7311177
000200 a0 5e 55 3e 6a 86 87 be 99 82 7c 3e 5a 0d 36 3e
       0.20836878 -0.26469737 0.24659194 0.1777853
000210 21 7f 60 be a4 16 58 3e 49 71 ab be fd 0b ee bd
       -0.21923496 0.21102387 -0.33484867 -0.1162338
000220 27 03 37 3e 31 50 9b be e2 06 8a be 05 89 82 be
       0.17872296 -0.3033462 -0.26958376 -0.25495163
000230 72 b0 b5 be 9f 28 54 be 25 46 be be 92 67 e6 3d
       -0.3548618 -0.2071862 -0.3716289 0.11250223
000240 1e 65 49 3d ff 95 46 3d b0 55 91 be e8 07 6a 3e
       0.0491687 0.04848289 -0.28385687 0.22854578
000250 e9 59 97 be 15 79 1c 3e 30 1f 46 bc ea 3d 0b 3e
       -0.29560784 0.15280564 -0.012092397 0.13597837
000260 78 ed e9 bd c0 46 7a be 6c 7d a6 bd 2a f5 08 be
       -0.11422247 -0.24441051 -0.08129391 -0.13374773
000270 19 d9 6c be 92 1a 60 be 56 49 f9 3d de 92 d0 3c
       -0.23129691 -0.21885136 0.12172191 0.025460657
000280 4e fa 54 3e 06 e6 84 be 32 ad 7c 3e 66 fa 33 3e
       0.20798609 -0.25956744 0.24675444 0.17575988
000290 1b 52 8f be 9a 36 56 3e a4 20 32 be 20 79 e4 bd
       -0.2799233 0.20919266 -0.17395264 -0.11155915
0002a0 94 31 05 3e 21 cd 90 be 0e 93 91 be 2b bb 8d be
       0.13007194 -0.282815 -0.28432506 -0.2768186
0002b0 47 b2 b7 be eb 34 88 be 14 da bf be 42 d1 09 bf
       -0.35878202 -0.26602873 -0.37471068 -0.5383493
0002c0 06 c1 8f 3c 83 51 2a 3d 90 b0 8e be e5 9f 63 3e
       0.017548095 0.041581642 -0.27869081 0.22228964
0002d0 db 25 89 be 58 0f 24 3e 52 26 60 bd d5 a8 05 3e
       -0.26786694 0.16021478 -0.054724045 0.13052686
0002e0 3a d5 a2 be 85 b1 86 be 1b 9b 90 be 50 3a 5d be
       -0.31803304 -0.26307312 -0.28243336 -0.21604276
0002f0 cb a2 1f 3e ee 5b 05 3d d6 c8 f4 3d b7 f8 2f bd
       0.15589444 0.032558374 0.11952369 -0.042961802

linear_layers.2.bias f4 [6]
000000 e3 f9 86 3d 54 0d 9b bd a0 40 d5 bc 8a 2e 8c bd
       0.06590631 -0.075709015 -0.026031792 -0.06844814
000010 4a a0 4b 39 50 9b 0a bc
       0.00019419301 -0.008459881
