LTNtorch/LTN_IoMT/LTN_reduce_19classes.pth (torch, 25738 bytes, 6 tensors)

linear_layers.0.weight f4 [64, 46]
00000000: a6d1 e63c 98f7 1dbe 6db1 91bd d70b 8d3d
00000010: db13 a7bd c582 dc3c a8a3 de3d f8af 52bd
00000020: 83a1 3abe c840 043e 041e 493e e580 72bc
00000030: c085 983d c971 983c 226e 123d 246a 19be
00000040: dbb2 ee3e af62 283e d3f4 e73d 9c64 103d
00000050: f1ae 2cbd cd8d 00bd c7e5 47bd b9a9 fdbc
00000060: b14e c2bd aefe a63d 4625 083d d05f d53d
00000070: 2799 9f3e 0d83 abbd 9d0d 343d 99c6 53bd
00000080: 2d6c 82be ae93 06be e1df 4e3d 87f5 d5be
00000090: 3d98 85bd 36e0 04bf ed78 a73c 6f5d 01bd
000000a0: 4dcd 81be d074 843d fb06 f2bc 2f1d 033f
000000b0: a4bd afbd a7de dc3e 74f6 813d adf0 a1bd
000000c0: 3f3a a03a d85b 72bd 640b d73d affd cd3c
000000d0: 5b67 733d e4b5 e8be 8cb9 e1be dcb1 28be
000000e0: 41ae c8bd f4eb c5bd 82cf 0e3e fa31 ac3d
000000f0: 8977 e3bd e046 d0be eef0 62be 19d4 a9bd
00000100: e3e8 b4bb 4d87 b83d e4d7 bebc b654 943c
00000110: 5fa9 26bd 47c9 65bd 30fc c13e 25d9 51be
00000120: 212e 17be d3a9 cfbd 2423 bebe 6912 763d
00000130: 8d9a f9bd 1438 c23c a222 fcbd 3231 00be
00000140: 2030 8b3c 8e54 8b3c a186 c4bd 25a0 813c
00000150: 79cd 07bd 7136 8c3d 9762 543e 12f8 7c3c
00000160: 136b b93c be92 87bd 76fa 9a3b be80 3b3f
00000170: 57bc ad3d ae22 3c3e b1de 3d3e 49eb ddbd
00000180: b4c7 f6bd 1b7e 13be 5c91 aabe c415 a33d
00000190: a728 0dbe 7e26 123e 05df 18be 4a8b 95be
000001a0: 278b e5be 2bc5 00be ac4d 1ebe 29b2 b33d
000001b0: af47 383c ebbf b6bc b883 023e d653 1b3d
000001c0: c83c cfbd 769f 09be d8b7 97bd 6dc1 df3d
000001d0: ca07 8a3e e36a b33c e45f 46be 34f5 193e
000001e0: 83dc 4bbe c086 bf3d 0cf0 d0bd c0c0 eb3d
000001f0: a8a7 57bd 6cbe 39bd 7b9f 62bd 52a9 f0bd
00000200: 7448 69bb c2b4 7c3c 5629 853d 8cd1 07bd
00000210: 601c b73d c4db 093e b142 81bc aceb cfbd
00000220: e352 54bc d0ac 27bf 7710 f23d 9fc3 8abd
00000230: fc81 99bd e931 0cbf 0015 eebe 96c3 74bd
00000240: 47aa 263d eebd cf3e 5bb2 873e 31d2 02be
00000250: d83e c93d be13 b53b 6fa7 3d3d b6b5 c63b
00000260: f473 4d3e 0c95 97be 3864 863d 1537 3b3c
00000270: ea1e 63bd 4829 9dbc 2631 d83d a1b8 503d
00000280: 7ae0 763d 89d4 01be 0361 bbbc d879 3c3e
00000290: 02b0 87bd 3a25 67bb 1155 943d 5b06 60bd
000002a0: 91d9 9c3b a8a9 91bc 98b5 1e3d 3066 2cbd
000002b0: 22c3 513e 7b44 37be 120d 883c 8959 b0bc
000002c0: 22c8 31bd 421e d8ba f8e0 adbd 3541 69bb
000002d0: fdb2 043d 136c a83e 2872 2dbe 18ff 1c3f
000002e0: ce52 40bd d9b1 70be fb45 723d 216b fdbd
000002f0: 7380 193d bcc5 47bd 78ba adbd 44d1 12be
00000300: edcc 19bd b756 153c a668 25be 783d 123e
00000310: ee26 923d 544b 1b3e cf7f f0bd 286e 49bf
00000320: 653b 57be ee8c 1bbe 8a21 6bbe a80a 44be
00000330: c470 2f3d c82b f8bd 77bc 38bd 094f 343e
00000340: f4fa c0bd 9cbd 8cbe 8fd0 013e a6c9 36be
00000350: 08e3 8e3e d9e9 46bd ad16 cfbd 6683 dfbc
00000360: 9ee0 14be 26c6 613d 2b99 71bd d3e4 ca3d
00000370: 5320 e73c d347 0fbe 0037 bcbc fae2 f83d
00000380: 7f62 713d cae7 a23d 0506 02bd d5b4 85be
00000390: 1dc8 a2bd 0827 79be 344c 7ebb 6b45 893d
000003a0: cae3 8fbd a0e2 2f3d 503e b6bd 80b5 053e
000003b0: 4cb6 13bd 80b9 debd 349d 0abc f9d7 ed3d
000003c0: f6ee f83d de2f 1cbe 0c34 a43d 4eb1 c33d
000003d0: a712 ca3d 830f df3e fe8e 5e3d d770 aa3d
000003e0: b9fb 673e d3a4 c43b 0d88 5cbd 8f90 87bd
000003f0: 58ce 21bd ec67 813c 35cf 28be a81a 2d3e
0.02817614 -0.15426481 -0.071139194 0.06887024 -0.08158084 0.026917825 0.10871059 -0.051437348
-0.18225674 0.12915337 0.19640356 -0.014801239 0.07447386 0.018608944 0.035749562 -0.14981896
0.4662083 0.16443895 0.113259934 0.0352522 -0.042159025 -0.03138523 -0.048803117 -0.03096472
-0.094876654 0.08154045 0.03323867 0.104186654 0.31171533 -0.08374605 0.043958295 -0.05170307
-0.25473157 -0.13142273 0.050506476 -0.41788885 -0.06523178 -0.5190462 0.020443404 -0.031583246
-0.25351945 0.06467593 -0.029544344 0.51216406 -0.08581093 0.4313862 0.06345835 -0.079072334
0.001222439 -0.05916962 0.105002195 0.02514538 0.05942474 -0.45451272 -0.44086874 -0.16474098
-0.09798861 -0.09664145 0.13946345 0.0840797 -0.11106784 -0.40679073 -0.2216222 -0.082924075
-0.0055209263 0.090101816 -0.023296304 0.0181068 -0.04068887 -0.056100156 0.37887716 -0.2049299
-0.1476369 -0.10139813 -0.37136185 0.06007615 -0.12187681 0.02370838 -0.12311293 -0.12518767
0.016990721 0.017008092 -0.09595991 0.015823433 -0.03315494 0.068463214 0.20740734 0.015440004
0.022634065 -0.06619786 0.0047295643 0.7324332 0.084831886 0.18372604 0.18541981 -0.10835893
-0.12049809 -0.14403574 -0.33314025 0.07963136 -0.13785039 0.14272496 -0.14928825 -0.29207832
-0.44832727 -0.12575214 -0.15459317 0.08774216 0.011247559 -0.02230831 0.12745559 0.03792175
-0.10119015 -0.13439736 -0.07408112 0.10925565 0.26959068 0.021901553 -0.19372517 0.15034944
-0.19908337 0.093518734 -0.10202035 0.115113735 -0.052650124 -0.045347616 -0.055327874 -0.11751045
-0.0035596164 0.015423955 0.06502025 -0.033158824 0.08940959 0.1346274 -0.015778871 -0.10152373
-0.012959215 -0.65498066 0.11819547 -0.06775593 -0.07495496 -0.54763657 -0.46500397 -0.059756838
0.040689733 0.40574592 0.26503262 -0.12775494 0.098264396 0.005526035 0.046302255 0.006064142
0.20063764 -0.296059 0.06562084 0.011426707 -0.055449404 -0.019184723 0.10556249 0.050957326
0.06027267 -0.12678732 -0.022873407 0.18405855 -0.06625368 -0.0035269991 0.07242788 -0.05469356
0.004786678 -0.017781094 0.0387474 -0.04208964 0.20484594 -0.17897217 0.016607795 -0.021527069
-0.043403752 -0.001648851 -0.08490175 -0.0035591845 0.03239726 0.32894954 -0.16938078 0.6132674
-0.04695397 -0.23505343 0.05914877 -0.12373949 0.037476014 -0.04877256 -0.08482832 -0.14337641
-0.037548948 0.009114913 -0.16153201 0.14281261 0.071363315 0.15165454 -0.117431276 -0.7868371
-0.21018751 -0.15190479 -0.22962013 -0.1914469 0.04283215 -0.121177256 -0.04510161 0.17608275
-0.094228655 -0.2748841 0.12677215 -0.1785036 0.27907586 -0.04856286 -0.10111747 -0.027284335
-0.1453881 0.05512061 -0.058983963 0.09906926 0.028213656 -0.13992243 -0.022975445 0.12152667
0.058931824 0.079543665 -0.031744022 -0.26114526 -0.07948325 -0.24331295 -0.0038802745 0.067026936
-0.07025869 0.042940736 -0.08898604 0.13057518 -0.036062524 -0.10875225 -0.008460332 0.11613459
0.12154953 -0.15252635 0.0801774 0.095553026 0.09866839 0.43566522 0.054335587 0.08322304
0.22654618 0.006001094 -0.053840686 -0.06619369 -0.039503425 0.015796624 -0.16485293 0.169047

linear_layers.0.bias f4 [64]
00000000: b95d e1bd 07b8 01be 30d3 c13e 195d 50bc
00000010: 5686 4b3e db56 95be 5db8 853e 31d3 cebd
00000020: a209 693e a7fb 3d3e ed37 05bd 58e0 753e
00000030: 2ae9 6cbb 234a 8e3e 8efc 513e c2a3 873e
00000040: 4a48 9f3e 76c4 0b3d 834d 15be e65e c7be
00000050: 0844 1d3e f4e8 cc3e a371 09be 054b cfbd
00000060: cb80 5c3e a48c 853e e061 a1be 04c3 ed3e
00000070: ba51 a33d 766b 11be d398 2dbd 786b 9b3e
00000080: 2e43 a23e 43d3 1a3e d850 c63d 58bc aabc
00000090: 6ef6 2e3d 9b1e 193e f308 36bd d2f0 a13e
000000a0: 0bc9 c83d 9fcb 2f3e f3d2 8a3e 251a 3f3e
000000b0: 524a 91ba 2b4c 813d 92ac dfbd c62d 83bc
000000c0: 6aa3 8d3c cb4b b83d 650c 223e 4b5b 22bd
000000d0: 069a aa3e 05a9 843e 6857 973e 0260 4c3e
000000e0: 2b29 163e 0e5d 57bd 0add b03c ca24 403e
000000f0: 4100 c03e 9c68 06bd bec1 cfbd 7959 85be
-0.11004204 -0.12667857 0.37856436 -0.012717509 0.19875464 -0.29167828 0.2611722 -0.10098875
0.22757581 0.18553029 -0.032524038 0.24011362 -0.0036149719 0.27790937 0.20506498 0.26492125
0.3110984 0.034122907 -0.1458035 -0.3893959 0.15357983 0.4002148 -0.13422255 -0.10121731
0.21533506 0.26083863 -0.31519985 0.46437848 0.079745725 -0.1420115 -0.042382073 0.3035543
0.3169188 0.15119652 0.096833885 -0.020841762 0.042715482 0.14953081 -0.04444213 0.31629044
0.09803971 0.17167519 0.27114066 0.18662317 -0.0011084771 0.06313356 -0.10921587 -0.016013037
0.017289836 0.08998831 0.1582504 -0.039637845 0.33320636 0.25910202 0.29558873 0.19958499
0.14664142 -0.05257898 0.021589775 0.18764034 0.37500194 -0.032814607 -0.10144375 -0.26044825

linear_layers.1.weight f4 [32, 64]
00000000: 9c94 15be a2bf 1dbc 3db5 57bc d921 cabd
00000010: 0b42 073f 74f1 d9bd f47d 27be 13e2 b93d
00000020: 5710 62bd 9c9a f93d 3287 7a3e 6a1f a0bd
00000030: 2b22 09bd b7b1 fa3d 6b36 af3e dfee 14bd
00000040: 4a8b a03d 2db1 a93d 47c7 f3bd 2a85 6f3c
00000050: 8912 75be a803 5a3e 19ce 2fbc 6188 9fbe
00000060: 95d3 293f e684 c4bd de3c 473e 4399 85b9
00000070: c743 423e 7e93 97bd 50b7 83bc d17b 29be
00000080: 4d61 bf3e b042 863e d5c3 5cbd ce17 0e3e
00000090: 1ec1 543e b97a 26bd a0fd a3be dfdf f63d
000000a0: 9bc6 d03e 8680 673e a00a d93a 1801 8d3d
000000b0: d388 bbbe 468f 003f 1e6d 6ebf 32e5 4dbd
000000c0: d1d6 003e 79ec 6c3d ba83 6dbe f1d9 b73d
000000d0: c7c5 b1bc 1c38 533e fee6 6c3d 1fba 78be
000000e0: a758 d6bc d9b9 01bf 3963 9bbe 1f9e c83d
000000f0: 14f0 603d 7d82 e4be a3fd 7c3d 4121 0e3e
00000100: 62ff 503e b790 92be 5444 bf3d 8c96 b53e
00000110: 7c3e 7dbe dc93 0e3d ef49 1e3e ace2 1b3e
00000120: 277c 893e d72f 2cbe 73ac 8e3d 70ad a43d
00000130: 9292 98bc fde3 a0be 897e 38be 6182 3a3e
00000140: f86c e6bd 396f d7be b662 30be ab26 bf3e
00000150: 0742 9d3e 6da9 d5bd 6d0f fd3d 2f8c 31bd
00000160: 15cd ec3d 3189 603e 84c3 64be b612 a63e
00000170: c31f 573d b18c da3d 32e2 e4bd e90c 9c3c
00000180: e22f 04be 5b1d 383d 13e0 223e b642 bd3e
00000190: 04a7 103e 2fe4 763e 2dfc 403e d946 ab3d
000001a0: 6203 0fbc 1d4c c73e 0d72 db3e fe70 953e
000001b0: eca2 a03e 7b54 123e 30ba 883e 0730 bcbe
000001c0: d1c3 f8bd dd87 3dbe ecb5 a23e 8c69 f2bd
000001d0: 15d1 8b3c 0502 34bd eb64 8d3e b377 463d
000001e0: a87e 7c3e d665 f63d 4ffb 5b3e 8f6c bcbd
000001f0: 9bd3 dc3d 8657 b23e 4761 75be cb99 86be
00000200: 8d65 16be b835 913e dbb4 233f 74e2 e2be
00000210: 00b6 83bd f056 b7ba 456f 09be f0b5 bcbe
00000220: a5c0 8f3e f5ec 753e 95b9 283d eddf 0a3e
00000230: 86cf 34bd 46f4 193f b955 123d 60ed c53c
00000240: 46d6 a63e fd1e 1f3e 3198 0ebe 3307 783e
00000250: 0d9b 543d 4869 f93e 2929 48bd e4d2 853c
00000260: fd10 e53e 00be 113e 7e92 5cbe e0c6 233e
00000270: a4ed 87bb 0fc6 ab3d 67e3 903e 15ff 053f
00000280: 29b8 d73e 2894 783e 1e77 d1bd 9be2 cd3e
00000290: 6c0f 1bbe d8e8 423e bc29 58be b0b5 083e
000002a0: 5c9c 55bd 7a9f 3f3d 6b4d 413e 9c6c 92be
000002b0: 515c 59bd 899d 503e a529 c0bd 946d febc
000002c0: 79ab a23e 2e1d 663d 1d79 debd beca c33d
000002d0: 1d25 d13e 12a3 c2bd ebab 403d 61a2 053f
000002e0: e3f6 3c3e 532a 993e cc10 acbc 4091 9a3e
000002f0: af4b fd3e f98c efbe f8fb e33d 29fb 55be
00000300: dce4 fd3b 8642 843d 5b09 6fbe 0d6b 923e
00000310: 87c9 84bd eeed d73c 11f6 273e 2310 093e
00000320: 9b45 1bbe 5693 c2be 6e5e 14be 4e0a 23be
00000330: e0b4 9b3e 2312 f33c 7e4f cebe 3a79 5f3e
00000340: 2479 c33c 06e8 6fbe b949 58be db9c 04be
00000350: d8d1 4f3d b97f 9fbe 0e50 093e a01e 733e
00000360: e015 3fbf 711c 153d 8a11 95bd ab85 043e
00000370: 6d2e e13c ec63 a1bb 1bb7 adbe 2a34 07be
00000380: 061d ccbe fdb0 763c cf67 573e e7ce 473d
00000390: 9259 6d3e 017d d53c 1ebd 403e 8692 c83d
000003a0: 3306 083d 6633 173e a364 f43c fb5f 703d
000003b0: dd3e 9c3e 8e5a 0cbe 9f2b 5f3e e9f7 893d
000003c0: fbe3 11be 4e91 a6be 0d9e 393e 5fdf 7fbe
000003d0: 2230 77b9 74b0 183e 7c1a 8a3e 92ce a1be
000003e0: 0bcf aabe 76e0 9cbd 0de9 8f3d b49e 29be
000003f0: 45e3 cebe 357b 483e def8 cfbd 255d f6bc
-0.14607471 -0.009628208 -0.013165769 -0.09869737 0.5283515 -0.10641757 -0.16356641 0.09076323
-0.055191364 0.121876925 0.24465635 -0.07818492 -0.03347985 0.12240928 0.34221205 -0.036360618
0.07839067 0.08285747 -0.119032435 0.014619151 -0.23932852 0.21290457 -0.01073029 -0.31158736
0.66338474 -0.09595661 0.19456813 -0.00025481926 0.18971168 -0.07401179 -0.016078621 -0.16551138
0.37378922 0.26222754 -0.053897697 0.13876268 0.20776793 -0.04064438 -0.32029438 0.12054419
0.40776524 0.22607622 0.0016558953 0.06884974 -0.36627826 0.5021862 -0.9313525 -0.050267406
0.12581946 0.057842705 -0.23194781 0.08977116 -0.021700753 0.20626873 0.05783748 -0.2428975
-0.02616532 -0.50674206 -0.30349138 0.09795784 0.054916456 -0.44630805 0.061765324 0.13879873
0.20409921 -0.28626034 0.093392044 0.3546642 -0.24730867 0.03480898 0.15457891 0.15223187
0.26852533 -0.16815124 0.06966486 0.08040893 -0.018624578 -0.3142394 -0.1801702 0.18213798
-0.11251253 -0.42077044 -0.17225155 0.3733419 0.30714437 -0.10432706 0.12356458 -0.04334658
0.11562554 0.21927334 -0.22340208 0.3243615 0.052520525 0.10671366 -0.11175956 0.019049125
-0.12908891 0.04494987 0.1590579 0.3696496 0.14126211 0.24110483 0.18846197 0.083631225
-0.008728834 0.38925257 0.4286045 0.2918777 0.313743 0.14290039 0.2670455 -0.36755392
-0.12146724 -0.18508859 0.3177942 -0.11836538 0.017067472 -0.04394724 0.27616057 0.048453998
0.2465769 0.120311424 0.21482585 -0.092003934 0.10782548 0.348324 -0.2396289 -0.2628921
-0.14687176 0.28361297 0.6394784 -0.44313395 -0.06431198 -0.0013987701 -0.13421352 -0.36857557
0.28076664 0.24016173 0.04119261 0.13561983 -0.044143222 0.60138357 0.035726283 0.02416104
0.32585353 0.15539165 -0.13925244 0.24221496 0.05190568 0.48713136 -0.04886738 0.016335912
0.44739524 0.14232635 -0.21540257 0.15993834 -0.004148202 0.08387386 0.28298494 0.5234235
0.4213269 0.24275267 -0.10227798 0.4021195 -0.15142602 0.19034135 -0.2110967 0.13350558
-0.05215107 0.046782948 0.18877189 -0.28598487 -0.053066555 0.20372595 -0.09382943 -0.03105811
0.31771448 0.05618017 -0.10862944 0.095601544 0.40848628 -0.095037594 0.047038954 0.52200896
0.18453555 0.29915103 -0.021004103 0.30188942 0.49471804 -0.4678724 0.111320436 -0.20896591
0.0077482294 0.06458001 -0.23343413 0.28597298 -0.06483751 0.02635857 0.1640246 0.13385062
-0.15163271 -0.38003033 -0.14489147 -0.159219 0.30411434 0.029671734 -0.40295023 0.21823588
0.023861475 -0.23428354 -0.21121873 -0.1295046 0.050737232 -0.31152132 0.13409445 0.23742151
-0.74642754 0.036404077 -0.07278736 0.12941615 0.027487958 -0.0049252417 -0.3392876 -0.13203493
-0.39865893 0.015056846 0.21035694 0.0487813 0.231787 0.026060583 0.18822142 0.09793572
0.033209037 0.147657 0.029833144 0.058685284 0.3051671 -0.13706419 0.21793984 0.06736738
-0.14247124 -0.32532734 0.18126698 -0.24987553 -0.00023573686 0.14911062 0.2697333 -0.31602913
-0.33361086 -0.0766 0.07026873 -0.16564447 -0.40407768 0.1957825 -0.101548895 -0.030073712

linear_layers.1.bias f4 [32]
00000000: b109 133e 1d24 2b3e 715b a13e 55c7 003d
00000010: cb82 dc3d ae77 253c c9be 0e3e 1ce1 ac3d
00000020: 3623 993d 4e46 b73d e74f ff3c d63b 283e
00000030: 99d2 093e 967b c23d 415c d23d 0449 01be
00000040: 6323 0e3e 2f1a 6f3e 75ee 87bd 9e81 f43e
00000050: 8311 a63d edbb fb3d b030 073e d29a 00bd
00000060: 092c 063f ab7e 14be 051b 2a3e da51 6b3d
00000070: ffcd ae3d c2d8 143f f23e b33e 8f85 c33b
0.14359166 0.16712995 0.31515077 0.031440098 0.10767134 0.010099335 0.13939966 0.08441374
0.07477419 0.089489564 0.03116603 0.16429076 0.13459243 0.094962284 0.10271502 -0.1262551
0.13880686 0.23349832 -0.06637279 0.4775514 0.08108809 0.122917034 0.13202167 -0.03139765
0.5241094 -0.14501445 0.1661187 0.057451107 0.085353844 0.58143246 0.3500896 0.005966849

linear_layers.2.weight f4 [19, 32]
00000000: 09f7 803e 138b 7b3d 1a98 27be 86a4 5c3e
00000010: a1c3 b8be f4c7 0d3e 5c71 093e 1c92 013d
00000020: 242c 773e 03ac 593e 2543 a53d e764 9d3e
00000030: 755e 88bd 6b29 d13e de36 d1be 3b63 a93e
00000040: 60e7 853e c74b b5be 1717 e0be 25d2 5d3e
00000050: ff1d 87be a029 a7be 04c9 09be 413e 7f3e
00000060: 22ac c6be 4be9 1abf c8ea 823e cb53 79be
00000070: 2379 b53e f8ff e73d 7b77 fdbe 9408 61bd
00000080: 5cb7 82be 70b9 a23d 24fc 063e 6472 f8bd
00000090: 52ed 7fbc 6894 493e cfc7 f2be 4849 9a3e
000000a0: ca4d fa3d 4378 aabe f9f6 c73e ff96 4abe
000000b0: 4e2f 4d3e 3322 c0be e4cb a83d 9441 7c3e
000000c0: d8e3 8ebe f36c 0abf c6eb 86be af64 083e
000000d0: bc70 65be a8b8 863e d8a5 cd3e f7a8 c23e
000000e0: 11de 35bf 86ec eebc 472f 26bf 84fd a4be
000000f0: cdf9 9fbd 9930 2c3e 28d8 ab3d c375 41be
00000100: 9f65 d1be e038 b23d 9093 a63c 0a80 613e
00000110: b60d 2dbe 91d5 2e3e ee5f b5be 7f7c 3d3e
00000120: bc5e 813e 8219 3f3e 5256 823c bb1c 9cbe
00000130: ca52 463e d90e 12bf 4e5a 613d b026 af3e
00000140: aac8 7d3e 8499 2fbd be18 913e 8c70 543e
00000150: 53a5 13be 0f47 6bbe 4683 e1be 86f3 903e
00000160: 5c51 ffbe 75d9 12be d474 703e 69ba a3be
00000170: 107b 6e3e aeb3 0d3e df5b 393d 9e2f 63be
00000180: 43d6 d33d 35b2 57bf fcda 113e 248a a5be
00000190: 426b f93c 4048 01bf 4e26 45bf e856 f6be
000001a0: 41f5 fabe 8eab efbe cef6 e53b 7237 90be
000001b0: 5b04 193e 84dd b23d b399 4cbf ca01 b4be
000001c0: 8195 28be 0bf4 1f3d 3f3f d9be 9331 3e3e
000001d0: 0bad 13bf 4f4a 363e f61a 0bbf 01bc 493d
000001e0: 57ff 52bf 81e0 a3be c1ea d23d ec56 1ebf
000001f0: b1b2 943d 7f57 413e 0426 f23d 8d98 97be
00000200: 725e 5abe 89a5 27be 932c 8fbe 6c76 03be
00000210: 9167 2cbe 3604 2b3d 66cb 30be 8137 183d
00000220: a5ff 2cbe acba 24be 8512 15be f7e9 86be
00000230: 6f55 19be 236d 7bbe 602f 80be da4b ab3d
00000240: 84ed d9bd 0606 41be f9cd 7dbe 8ccd 9abe
00000250: 51d3 9abe 655f 82be 195e 30be f16b 7b3d
00000260: 8314 ddbe 4dcd b8be 6ef2 18be efab 98bb
00000270: 3605 c5bd df1a a2be 638f 09bf cb50 15be
00000280: 5c28 913c 7577 463e ce60 ea3d cc5f c83d
00000290: ee5f 503e db99 813d b547 343e 3ded c03d
000002a0: 75ef 023e 5797 943e a644 21be 89f0 cdbe
000002b0: d863 273d e4bb c43d 7f1c 3f3e 5130 b1bc
000002c0: cd03 a5be 0798 623e 8a01 7cbe 7740 3f3e
000002d0: 230d 8fbe e2eb 06bd f14b b53d bdba 8dbe
000002e0: dafd 6d3d eea5 9dbe 4af0 0fbe 34cb c93d
000002f0: a99b 97be 5039 373e 0d36 033e bfcd c7be
00000300: 5698 953d 3620 433e 55f8 f13d 1c11 7cbb
00000310: 985d 383e 4205 823d efff 553e bc76 913c
00000320: 6d84 d53d cbf6 933e 0284 3d3e 76fd 83be
00000330: 8cc9 733c edff d53d b5f4 3a3e 9d50 48be
00000340: 5220 c3bd 0670 6c3e 94f2 7fbe bbf4 3a3e
00000350: be5d 72be bd41 153b fc07 533d 49a3 bfbe
00000360: 4ab5 893d d842 9ebe 4025 493d 0dff 81be
00000370: 9f3b 9abe be31 373e 2588 e33d f30b adbe
00000380: 57dd 42be 854e ecbd 57d8 a0be fa9a f2bd
00000390: 061a 51bd 8b8b 2bbd ed03 91be f8ca 723d
000003a0: c706 0abe 6cdc 97bd c71e 2abe e08c 8cbd
000003b0: 878c 85be 833c 12be 4719 13be 5f26 a1bc
000003c0: d3e6 2abe c82f 92be 64b1 80bd 3895 a0be
000003d0: 693d 6fbe 2cd3 2cbe 0e2b 51be 2398 4ebc
000003e0: b632 bfbe 30a6 debd 8734 9ebe 6720 343b
000003f0: e417 57be 4629 88be 8e05 04bf 5479 83be
0.25188473 0.06141193 -0.16366616 0.21547136 -0.36086753 0.13845807 0.1342215 0.03163348
0.24137932 0.21257024 0.080694474 0.30741045 -0.06658641 0.40851912 -0.40862173 0.3308352
0.26153088 -0.35409376 -0.43767616 0.21662195 -0.26390073 -0.32648945 -0.13455588 0.24926092
-0.38803202 -0.60512227 0.2556975 -0.2434837 0.35443982 0.11328119 -0.4950522 -0.05493982
-0.25530517 0.07945526 0.13182122 -0.12131193 -0.015620546 0.19685519 -0.47418067 0.30134034
0.12221868 -0.33294877 0.39055613 -0.19784163 0.20037577 -0.37526092 0.08242014 0.24634391
-0.27908206 -0.54072493 -0.26351756 0.13319658 -0.22406286 0.26312757 0.4016559 0.38019535
-0.7104197 -0.029165518 -0.6491589 -0.32224667 -0.078113176 0.16815414 0.08390838 -0.18892579
-0.40897843 0.08702254 0.020334035 0.220215 -0.16899762 0.17073657 -0.3542475 0.18504523
0.2526759 0.18662074 0.015910301 -0.3049067 0.19367519 -0.57053906 0.055017762 0.34209204
0.24783579 -0.042871013 0.2833919 0.20746058 -0.14418535 -0.22976325 -0.44045466 0.28310794
-0.4986676 -0.14340766 0.23482066 -0.31978157 0.23289132 0.13838074 0.04525363 -0.22186133
0.103436016 -0.842563 0.14243692 -0.32331955 0.030446652 -0.5050087 -0.77011573 -0.4811318
-0.4901524 -0.46810573 0.007017947 -0.281673 0.14943068 0.08733657 -0.79922026 -0.35157615
-0.16463281 0.039051097 -0.42431065 0.18573599 -0.5768592 0.17801784 -0.54338014 0.04925156
-0.8242087 -0.3200722 0.10298682 -0.6185138 0.07260645 0.18881033 0.11823657 -0.29608575
-0.2132509 -0.1637174 -0.27963695 -0.12838143 -0.16836382 0.041752063 -0.1726509 0.037162308
-0.16894396 -0.16086835 -0.14557846 -0.26350376 -0.14973997 -0.24553351 -0.25036144 0.08364077
-0.10641006 -0.18849954 -0.24785604 -0.30234945 -0.30239347 -0.25463405 -0.17223395 0.061382238
-0.43179712 -0.36094132 -0.1493623 -0.004659168 -0.096201345 -0.31661126 -0.53734416 -0.14581601
0.01771944 0.19381507 0.11444245 0.09783897 0.20349094 0.06328174 0.17605479 0.094202496
0.12786658 0.29021713 -0.15748844 -0.40222576 0.040866703 0.0960615 0.18663214 -0.021629484
-0.32229462 0.22128306 -0.24609962 0.18676935 -0.2793971 -0.0329398 0.08852375 -0.27681533
0.05810342 -0.30790657 -0.14056507 0.09853211 -0.29610947 0.17892957 0.12813587 -0.3902416
0.073044464 0.19055256 0.11814944 -0.0038462346 0.18004453 0.06348659 0.20898412 0.017756812
0.10425649 0.28899226 0.18507388 -0.25779313 0.0148795955 0.104492046 0.18257411 -0.19562002
-0.09527649 0.23089609 -0.2499488 0.1825742 -0.23668572 0.0022774779 0.051521286 -0.37429264
0.06724031 -0.30910373 0.04910779 -0.253899 -0.30123612 0.17890069 0.11109952 -0.3379818
-0.19029747 -0.11538414 -0.31415054 -0.11845966 -0.05105021 -0.041881125 -0.28323308 0.059275597
-0.13479148 -0.07415089 -0.16613303 -0.06862807 -0.26083776 -0.14280896 -0.14365111 -0.019671617
-0.16689615 -0.2855208 -0.062838346 -0.31363845 -0.2336327 -0.1687743 -0.2042658 -0.012609514
-0.37343377 -0.108715415 -0.3089945 0.0027485134 -0.21005207 -0.2659399 -0.51570976 -0.25678504

linear_layers.2.bias f4 [19]
00000000: 7d81 d93d ed2e 6ebe 0c8d 193e 32a9 373e
00000010: d5c1 bcbe a55c dd3d f4c4 38bb aa50 60be
00000020: 9ca4 24bf 1446 343d 7647 f23d 4880 f23c
00000030: 386c ce3d 62eb 41bd 92dd 513e bc13 45be
00000040: 439e c2bd eb85 17bf ff87 443e
0.10620401 -0.23260088 0.14995211 0.17935637 -0.36866632 0.10808686 -0.0028193565 -0.21905771
-0.64313674 0.044012144 0.11830036 0.029602185 0.10079235 -0.04734362 0.20494679 -0.1924581
-0.09502842 -0.5918872 0.19192503
