LTNtorch/LTN_IoMT/LTN_reduce_19classes.pth (torch, 25738 bytes, 6 tensors)

linear_layers.0.weight f4 [64, 46]
-0.11346311 0.019502567 -0.01608287 -0.002755462 -0.053951662 -0.10250259 -0.19453952 0.3936409
0.42543453 -0.18483876 -0.63085437 0.051499434 0.20815851 -0.48760158 -0.87332004 -0.06414209
0.035393395 0.0063042184 -0.07249269 -0.040579107 -0.0033235683 -0.020484507 0.0125618465 -0.10667215
0.39022106 -0.0065032574 -0.016729364 -0.035451382 -0.2445584 0.06457798 0.022935707 -0.0051983646
-0.01977136 0.38029888 0.2805812 -0.10208447 0.009587451 -0.21684703 0.055570714 0.01653713
-0.29974827 0.023041537 -0.061881825 0.17514229 -0.048186 0.34604222 -0.060597695 0.41347292
-0.06700174 -0.10226513 -0.075549774 0.036213465 -0.036835257 0.06960697 0.045551315 0.3615012
0.09205578 -0.10066201 -0.0016078895 -0.14582944 0.07219578 0.10895629 0.26760247 0.033759493
0.13209197 0.015171629 -0.037248228 0.017380929 0.06545512 -0.025617443 -0.1643718 0.36666232
-0.14291373 -0.0350437 -0.22702052 0.0131814 -0.06215347 -0.025202194 -0.4024541 -0.44007605
0.22252971 -0.77309865 0.14061873 -0.5718025 0.12542742 -0.11485663 -0.7325576 0.17296645
0.124189004 0.21990298 -0.044441435 0.72714424 -0.14778589 -0.0065270388 -0.001933405 -0.009358395
0.04307863 -0.14277168 -0.5575896 -0.037510354 -0.123664185 0.12015721 -0.29742506 0.051674865
-0.04081318 -0.51153135 -0.065282986 0.6347292 0.17292392 0.069395915 0.001874062 0.005911383
-0.11147472 0.032478426 0.009155289 0.03996352 0.12809761 -0.053580098 0.028351733 -0.10867012
0.09620095 0.11073078 -0.16040261 0.063265 0.03590363 -0.013352316 0.13453794 0.16351403
0.05907627 -0.02952152 0.021082252 -0.04965679 -0.09240907 -0.03049004 -0.04357455 -0.08037116
0.041883893 -0.8793922 -0.42956483 -0.20854624 0.02156944 0.011055361 -0.044354755 0.05861922
-0.489797 0.053258833 -0.038169984 0.04679474 0.292762 0.19003019 0.12621792 -0.6447615
0.2520493 -0.7919547 0.5293817 0.11060229 -0.21397129 0.06784061 -0.02324785 -0.0740208
0.015424588 0.009404676 -0.25092366 -0.00859487 -0.012500393 -0.06368495 0.30769762 0.04380401
-0.059494972 -0.016890733 -0.010440503 -0.08302528 0.0004141235 0.10624953 -0.0029476946 -0.025449691
0.05847013 -0.09198306 0.1356913 -0.14048353 -0.2343123 0.040720016 0.02874631 -0.49851933
0.0135471 0.14944693 -0.06715316 -0.058910735 0.009934331 -0.14154342 -0.5499556 0.24660848
0.24008107 0.15432093 -0.0918245 0.017139602 -0.0035813877 -0.72644067 -0.1176295 -0.3032141
0.029220544 0.050316032 0.07768763 0.0010067067 0.031917114 -0.02359744 -0.021790417 0.068140864
0.14683117 -0.06117477 0.10156062 -0.06217449 -0.08118163 0.17747478 -0.055115253 -0.027916603
0.013004724 0.009145845 -0.053919174 0.06684194 0.14812171 -0.18965401 -0.007423295 -0.10451543
-0.014379911 -0.0022531638 -0.06302765 -0.2834264 0.14014764 -0.8133896 -0.11869085 -0.07281136
-0.1402327 0.09884678 -0.08963953 -0.050240718 -0.19276552 0.19082499 0.11618261 -0.10698588
-0.25812188 0.018895535 0.042350072 -0.07361752 -0.2609796 0.1496945 0.12500109 -0.097883545
-0.019827744 0.02948164 -0.25884 0.048215076 0.0617429 -0.35690287 0.16099262 0.13325684
00000000: 595f e8bd d9c3 9f3c 39c0 83bc fb94 34bb
00000010: 6bfc 5cbd e1ec d1bd 5e35 47be 4d8b c93e
00000020: 8ed2 d93e 5f46 3dbe ac7f 21bf 12f1 523d
00000030: 8127 553e eaa6 f9be e791 5fbf ee5c 83bd
00000040: aaf8 103d 9e93 ce3b 0c77 94bd 4736 26bd
00000050: 39d0 59bb 20cf a7bc 34d0 4d3c ee76 dabd
00000060: 0ecb c73e 4719 d5bb 050c 89bc 7835 11bd
00000070: 846d 7abe 7641 843d aae3 bb3c 0b57 aabb
00000080: 8cf7 a1bc 89b6 c23e 57a8 8f3e aa11 d1bd
00000090: af14 1d3c 260d 5ebe 1e9e 633d e078 873c
000000a0: 9b78 99be 9bc1 bc3c cc77 7dbd 8058 333e
000000b0: af5e 45bd 722c b13e 4a35 78bd b9b2 d33e
000000c0: 3538 89bd 6170 d1bd d7b9 9abd 9254 143d
000000d0: 91e0 16bd 198e 8e3d 0494 3a3d af16 b93e
000000e0: be87 bc3d e227 cebd d2bf d2ba 5054 15be
000000f0: 62db 933d 7a24 df3d 3103 893e 6547 0a3d
00000100: 1e43 073e 6d92 783c 9991 18bd 7362 8e3c
00000110: 550d 863d acdb d1bc 1551 28be 2abb bb3e
00000120: fa57 12be fc89 0fbd 1178 68be ccf6 573c
00000130: a394 7ebd d574 cebc 770e cebe a651 e1be
00000140: d4de 633e cbe9 45bf 5bfe 0f3e a661 12bf
00000150: 0c70 003e f439 ebbd e588 3bbf 1e1e 313e
00000160: ce56 fe3d 3f2e 613e 3908 36bd 2026 3a3f
00000170: 2f55 17be c5e0 d5bb 4e6a fdba f453 19bc
00000180: 3873 303d bd32 12be 31be 0ebf 75a4 19bd
00000190: a643 fdbd fc14 f63d 1948 98be 06a9 533d
000001a0: b92b 27bd b8f3 02bf 16b3 85bd 9d7d 223f
000001b0: f812 313e 721f 8e3d 16a3 f53a 46b4 c13b
000001c0: dc4c e4bd 1908 053d 1100 163c cab0 233d
000001d0: 052c 033e ce76 5bbd e541 e83c 718e debd
000001e0: 0105 c53d d2c6 e23d 9540 24be 1591 813d
000001f0: af0f 133d acc3 5abc 50c4 093e 3970 273e
00000200: f5f9 713d 1dd7 f1bc b0b4 ac3c eb64 4bbd
00000210: f740 bdbd 40c6 f9bc 3a7b 32bd a299 a4bd
00000220: 728e 2b3d d91f 61bf ecef dbbe 258d 55be
00000230: 65b2 b03c 8b21 353c 55ad 35bd b51a 703d
00000240: acc6 fabe ef25 5a3d 2158 1cbd d7ab 3f3d
00000250: e7e4 953e 4697 423e 453f 013e 170f 25bf
00000260: 9b0c 813e 8bbd 4abf 8f85 073f 7483 e23d
00000270: 4a1b 5bbe 05f0 8a3d 4672 bebc 3898 97bd
00000280: 69b7 7c3c 1216 1a3c 1179 80be 7fd1 0cbc
00000290: 73ce 4cbc 416d 82bd 8b8a 9d3e d56b 333d
000002a0: 00b1 73bd 6f5e 8abc a50e 2bbc 2809 aabd
000002b0: b71e d939 5b99 d93d 1c2e 41bb df7b d0bc
000002c0: 607e 6f3d 9d61 bcbd a9f2 0a3e eada 0fbe
000002d0: 90ef 6fbe 08ca 263d 627d eb3c ed3d ffbe
000002e0: a8f4 5d3c 9e08 193e 9987 89bd 624c 71bd
000002f0: 9bc3 223c c2f0 10be e4c9 0cbf ef86 7c3e
00000300: d0d7 753e 4e06 1e3e 7c0e bcbd 5a68 8c3c
00000310: b7b5 6abb 04f8 39bf bce7 f0bd e13e 9bbe
00000320: ec5f ef3c 2f18 4e3d b11a 9f3d 79f3 833a
00000330: 85bb 023d 6b4f c1bc d181 b2bc 708d 8b3d
00000340: e95a 163e 6592 7abd 04ff cf3d aeaa 7ebd
00000350: 8e42 a6bd f3bb 353e 88c0 61bd 5cb1 e4bc
00000360: c411 553c 74d8 153c 5ada 5cbd 6de4 883d
00000370: 38ad 173e a934 42be 1d3f f3bb 300c d6bd
00000380: b899 6bbc d1a9 13bb a414 81bd 441d 91be
00000390: dd82 0f3e 4d3a 50bf 3014 f3bd 1f1e 95bd
000003a0: 2999 0fbe 2e70 ca3d ee94 b7bd 36c9 4dbd
000003b0: 5364 45be a067 433e 26f1 ed3d 6a1b dbbd
000003c0: 8d28 84be cfca 9a3c 4577 2d3d c8c4 96bd
000003d0: 1e9f 85be 8449 193e 4900 003e 2b77 c8bd
000003e0: cb6d a2bc 7b83 f13c ad86 84be 2c7d 453d
000003f0: 20e6 7c3d f9bb b6be 40db 243e 7b74 083e

linear_layers.0.bias f4 [64]
-0.07835293 0.07956496 0.39359736 0.019824767 -0.18976662 0.5228995 -0.57247686 -0.44285136
0.33793154 0.07742975 0.25620523 0.26705337 0.16265826 -0.18491687 -0.16289985 0.049726464
-0.062230863 -0.08615092 -0.62845445 -0.57962626 0.012407851 0.36097553 0.09873404 0.40993145
-0.41038847 0.33041123 0.054476883 0.029466126 0.029246137 -0.27499965 -0.34101212 0.33201838
0.3575821 0.065914586 0.25069046 0.05497384 -0.015486337 0.26409292 -0.19707964 -0.48290485
-0.08953495 0.19166452 -0.31510326 -0.095861785 -0.21883987 -0.82175565 -0.101096176 0.035804715
-0.16671956 0.44874042 -0.12931563 -0.05428513 0.061526854 0.3065754 -0.26236808 -0.66908133
0.05036314 -0.027308656 0.12089965 -0.14624819 -0.29390225 -0.2438003 -0.37418282 0.42845142
00000000: 8077 a0bd f4f2 a23d 9885 c93e 8d67 a23c
00000010: 2e52 42be bedc 053f d88d 12bf 6abd e2be
00000020: 5d05 ad3e 7d93 9e3d 552d 833e 38bb 883e
00000030: e38f 263e d95a 3dbe 38cf 26be faad 4b3d
00000040: cae5 7ebd e56f b0bd 64e2 20bf 6362 14bf
00000050: 4d4a 4b3c c9d1 b83e 1335 ca3d 89e2 d13e
00000060: 701e d2be a92b a93e 2723 5f3d f262 f13c
00000070: 9895 ef3c c1cc 8cbe 2499 aebe 50fe a93e
00000080: 0015 b73e 3afe 863d 805a 803e 402c 613d
00000090: 68ba 7dbc 3037 873e 3fcf 49be 4e3f f7be
000000a0: 1a5e b7bd b443 443e 3755 a1be 2f53 c4bd
000000b0: 8f17 60be 945e 52bf 830b cfbd f7a7 123d
000000c0: 88b8 2abe 4ec1 e53e 516b 04be 165a 5ebd
000000d0: 9503 7c3d 73f7 9c3e 1c55 86be ea48 2bbf
000000e0: 9449 4e3d 67b6 dfbc 3c9a f73d 16c2 15be
000000f0: 5b7a 96be c9a6 79be e494 bfbe fc5d db3e

linear_layers.1.weight f4 [32, 64]
0.21942627 0.5057299 -0.19421405 -0.8920733 0.101320125 0.047469456 0.05895441 -0.30409038
-0.14097735 -0.0340032 -0.5732664 -0.18399265 0.041532326 -0.20297743 -0.66530013 -0.059066907
0.21031886 0.17660777 0.122567795 -0.0023569744 0.2510617 0.03933747 -0.02201446 -0.15604047
0.0058753337 0.043491997 0.04603454 -0.12374727 0.040373843 0.16410734 0.32094857 0.124659896
-0.26462972 -0.19231789 -0.007726112 -0.04881508 -0.26093784 -0.05948586 0.025482895 -0.11677517
0.26840645 -0.12798913 0.19861639 0.115479775 -0.60180676 0.15004951 0.28537092 0.010534104
-0.13681301 0.22244477 0.08284804 -0.0023708807 0.09664426 0.046830546 0.053698592 0.18616481
0.03837778 -0.017915186 -0.5611956 0.17448004 -0.01438527 0.18148254 0.38305876 0.01196007
-0.016190078 -0.15737632 0.16633062 -0.60659486 -0.055907547 0.19429994 0.24741751 -0.2549537
-0.0016626791 -0.059319813 -0.32728693 -0.14997439 0.06754879 -0.09329847 -0.10866251 0.29685983
0.1476505 -0.006822384 0.031709813 -0.36754707 -0.18110825 -0.01912913 -0.94932234 0.035260472
0.034209836 -0.15025714 0.053685255 -0.008038735 0.3357603 0.14227843 0.65032 -0.0458579
-0.034838755 -0.113301076 -0.14785628 0.114924625 0.48639214 -0.09705589 -0.0016142266 0.10529705
0.4314875 0.26790908 -0.16782221 -0.20156126 -0.5661729 -0.18980928 -0.01684742 0.003259519
0.32318994 0.003847586 -0.09548752 0.103692144 0.15245323 -0.1062482 -0.15305002 -0.22287886
0.03670996 0.113600284 0.13792361 -0.33075172 0.3546898 -0.014420268 -0.11604351 -0.09669617
-0.054275353 0.041169945 -0.10893484 0.039372437 -0.2853882 -0.060244136 -0.66621274 0.037299804
0.57834893 -0.41870004 -0.0366025 -0.12686753 -0.069532834 0.011282555 -0.19144142 -0.35362872
0.82648647 -0.022598756 0.061418958 0.07325889 -0.14359307 0.14962567 0.15211815 -0.095038705
-0.048089318 0.12249284 -0.7004461 0.062685035 -0.5738956 0.16795217 0.21574785 0.2052724
0.08377221 0.27712047 0.19710152 -0.08353214 -0.044754297 -0.34337744 0.10029115 -0.045997716
0.0024162864 -0.0017116887 -0.2699029 0.021080086 0.028910996 -0.05055608 -0.08351956 -0.06819864
-0.20167644 0.21211642 -0.4086773 0.4148949 0.31603342 -0.20913136 0.17191978 -0.09003749
0.23186119 -0.15480186 0.036810666 -0.22478803 -1.05662 0.026557272 -0.14170793 0.070662834
0.0004902014 0.26674283 -0.37968898 0.47860643 -0.15613976 -0.04991942 0.095687814 0.073982745
-0.073936105 -0.18561561 0.18922238 -0.17329074 -0.17373018 0.0011109347 -0.22081722 -0.52073586
0.07695321 -0.40246648 -0.109036505 0.067418076 0.32078522 0.06926954 0.78692347 0.023601983
-0.29781815 -0.020826364 -0.061812628 -0.024036497 -0.2728087 0.12745152 -0.37922028 -0.01155389
-0.096826784 0.0016976828 -0.09475675 -0.3557999 -0.4564411 -0.0058321906 0.2246501 -0.13852805
-1.1383637 -0.2372768 0.49586502 0.014739895 0.55669105 0.0034712427 0.196033 0.08155783
-0.021659086 0.04172464 0.23176534 -0.11463251 -0.1105599 0.06498846 0.092974015 0.10147276
-0.1257545 0.100689426 -0.30173972 0.36475524 -0.22542648 -0.1483348 0.23193707 -0.027138067
00000000: 48b1 603e 8477 013f 0ce0 46be ea5e 64bf
00000010: ed80 cf3d 556f 423d 2e7a 713d bcb1 9bbe
00000020: 5e5c 10be f046 0bbd 96c1 12bf 9268 3cbe
00000030: cd1d 2a3d 51d9 4fbe 1c51 2abf 24f0 71bd
00000040: d45d 573e abd8 343e d304 fb3d 7877 1abb
00000050: 298b 803e 5420 213d ab57 b4bc 13c9 1fbe
00000060: df85 c03b aa24 323d b78e 3c3d 356f fdbd
00000070: 0b5f 253d c10b 283e 5f53 a43e b04d ff3d
00000080: 8c7d 87be fbee 44be 532b fdbb 52f2 47bd
00000090: a599 85be 72a7 73bd 81c1 d03c d227 efbd
000000a0: 926c 893e 950f 03be 1862 4b3e a980 ec3d
000000b0: 0210 1abf 94a6 193e 231c 923e 3c97 2c3c
000000c0: b618 0cbe 90c8 633e 3cac a93d c760 1bbb
000000d0: 6ded c53d 63d1 3f3d 0ef3 5b3d fda1 3e3e
000000e0: 0532 1d3d dec2 92bc 84aa 0fbf e5aa 323e
000000f0: 32b0 6bbc 8fd6 393e 4720 c43e 2bf4 433c
00000100: 0ea1 84bc 4227 21be 9352 2a3e cd49 1bbf
00000110: 50ff 64bd 90f6 463e 045b 7d3e 4b89 82be
00000120: 41ee d9ba 55f9 72bd 2792 a7be e392 19be
00000130: 0557 8a3d 4513 bfbd 738a debd 03fe 973e
00000140: b131 173e 4e8e dfbb 26e2 013d 212f bcbe
00000150: 7174 39be b1b4 9cbc ca06 73bf 496d 103d
00000160: 9d1f 0c3d 02dd 19be 12e5 5b3d e6b4 03bc
00000170: c6e8 ab3e 70b1 113e 5f7b 263f 7ed5 3bbd
00000180: 15b3 0ebd 650a e8bd a367 17be 9a5d eb3d
00000190: 6408 f93e 3dc5 c6bd 7594 d3ba fba5 d73d
000001a0: eeeb dc3e 612b 893e 96d9 2bbe 1366 4ebe
000001b0: b5f0 10bf 5d5d 42be 9a03 8abc a89d 553b
000001c0: 2779 a53e c827 7c3b f68e c3bd 8c5c d43d
000001d0: b31c 1c3e a898 d9bd 25b9 1cbe 5b3a 64be
000001e0: 2f5d 163d 44a7 e83d d93b 0d3e 4a58 a9be
000001f0: e799 b53e fd42 6cbc 38a8 edbd a408 c6bd
00000200: d54f 5ebd d1a1 283d 3b19 dfbd fe44 213d
00000210: 671e 92be 8ec2 76bd eb8c 2abf aec7 183d
00000220: ad0e 143f da5f d6be 81ec 15bd 90e9 01be
00000230: 3b67 8ebd 77da 383c 3809 44be d30e b5be
00000240: 9e94 533f 0721 b9bc 7292 7b3d c208 963d
00000250: 100a 13be 7937 193e dcc4 1b3e a7a3 c2bd
00000260: 4ef9 44bd 87dd fa3d 7050 33bf 0361 803d
00000270: d2ea 12bf a7fb 2b3e 01ed 5c3e ee32 523e
00000280: c490 ab3d bce2 8d3e fbd4 493e e612 abbd
00000290: 4850 37bd 2bcf afbe 7265 cd3d 1a68 3cbd
000002a0: 8f5a 1e3b be5a e0ba b730 8abe 25b0 ac3c
000002b0: c1d6 ec3c e413 4fbd 4e0c abbd bbab 8bbd
000002c0: 4584 4ebe 0c35 593e 273e d1be 1b6d d43e
000002d0: 22cf a13e 8826 56be bd0b 303e 9365 b8bd
000002e0: 056d 6d3e 6184 1ebe c8c6 163d d52e 66be
000002f0: 533f 87bf a38e d93c e21b 11be adb7 903d
00000300: dc80 003a 8492 883e 9866 c2be e70b f53e
00000310: 1ae3 1fbe 4e78 4cbd f9f7 c33d 4484 973d
00000320: d06b 97bd 0512 3ebe 83c3 413e 2173 31be
00000330: 53e6 31be c89c 913a e91d 62be f24e 05bf
00000340: a599 9d3d 1610 cebe 884e dfbd 7d12 8a3d
00000350: f63d a43e 30dd 8d3d d173 493f f258 c13c
00000360: 9f7b 98be 0d9c aabc 3d2f 7dbd 30e8 c4bc
00000370: 95ad 8bbe a782 023e 2929 c2be 874c 3dbc
00000380: 1f4d c6bd c884 de3a d40f c2bd 682b b6be
00000390: a6b2 e9be f61b bfbb ad0a 663e 4cda 0dbe
000003a0: e7b5 91bf b1f8 72be 05e2 fd3e 9a7f 713c
000003b0: 4e83 0e3f ca7d 633b e0bc 483e cb07 a73d
000003c0: 656e b1bc 75e7 2a3d e553 6d3e 73c4 eabd
000003d0: 3b6d e2bd ab18 853d 2969 be3d f3d0 cf3d
000003e0: cac5 00be 4236 ce3d a17d 9abe 33c1 ba3e
000003f0: 33d6 66be 14e5 17be e980 6d3e a750 debc

linear_layers.1.bias f4 [32]
-0.43097714 0.15008307 0.3930248 0.023481552 0.17696707 0.13941751 0.39901096 0.2805564
0.30320546 -0.2852712 0.46350738 0.30043325 0.5822751 0.19058496 0.6097409 -0.8959995
-1.0967045 -0.07534139 -0.8250619 -0.311862 0.29973942 -0.5667891 0.343466 -0.14645049
-0.47186565 0.32053012 0.030876296 -0.72098744 -0.31532872 0.3183593 0.001597249 0.12986225
00000000: 09a9 dcbe 60af 193e 8c3a c93e 625c c03c
00000010: db36 353e 77c3 0e3e 2a4b cc3e 17a5 8f3e
00000020: bf3d 9b3e 110f 92be d750 ed3e 63d2 993e
00000030: fb0f 153f b428 433e fb17 1c3f 3960 65bf
00000040: d060 8cbf 964c 9abd 4237 53bf 60ac 9fbe
00000050: 7277 993e 1719 11bf c7da af3e 1ef7 15be
00000060: 6098 f1be 861c a43e 49f0 fc3c a292 38bf
00000070: c472 a1be fdff a23e c85a d13a 9cfa 043e

linear_layers.2.weight f4 [19, 32]
-0.41451 0.3178591 0.14600462 0.29659507 -0.74250925 0.12579969 0.06450474 -0.62046957
0.027223093 -0.61678964 -1.5816023 0.23434968 0.09108725 -0.18118891 -0.92312545 -0.2579819
-0.2091979 0.18070748 0.38780534 -0.1928723 0.1371807 0.3807755 -0.9191743 -0.6614488
-0.4676226 0.225866 -0.070238836 -0.31726766 0.3019288 -0.037540946 -0.21944761 0.32487187
-0.6963335 0.108911924 -0.5483301 -0.4028788 0.17156355 0.27005658 -0.9644396 -0.8211193
0.11769906 0.045289125 0.088690005 0.13390826 -0.93711644 -0.25746965 -1.2504601 0.045155946
-0.086441204 0.26997662 0.4091267 0.19119892 0.1120323 0.22667369 0.20149232 -0.21375388
-0.39348024 0.2337397 -0.6641061 0.046899877 -0.47132716 0.007100675 0.55009377 -0.53830713
-0.5213145 -0.11241408 -1.1166893 0.24530642 0.093425184 -0.08169159 -0.0049394835 -0.78660303
0.032078147 0.16092262 -0.101472706 0.21625285 0.004900853 -0.75527024 -0.8798197 0.42240474
-0.21415761 -0.6491282 0.40428883 0.15205835 0.1316823 0.37185615 -0.100883946 -0.5045961
-0.45309502 0.21148348 -0.58205044 -0.09390099 0.24161804 0.14982232 -0.41999665 0.3139759
-0.3939228 -0.34378147 -0.27997714 -0.49922633 0.14741634 -0.7417399 -0.8471279 -0.23777437
-1.2195079 -0.32556155 -0.9281515 -1.460189 -1.2849529 -0.02257814 -0.20925598 -0.11241082
-0.17597431 0.24663173 0.32312894 -0.3479018 0.13892 0.3951478 0.18701807 0.15701018
-0.5326981 0.22166778 0.008710839 -0.13425776 -0.3048435 0.20004067 0.29042295 -1.2682804
-0.4175924 0.04622373 -0.113832824 -0.39090803 -0.030202767 -0.3372495 -0.78613836 0.08522816
-0.84533864 -0.48968616 -0.34546733 0.11981122 -0.0593049 -0.05270622 -0.18036133 -0.11772465
-0.20638806 -0.350824 0.31029928 -0.49500248 0.14675088 0.39190093 0.024602015 0.18854345
0.039565306 0.21585064 0.19773991 -0.10071309 -0.338757 0.2122172 -0.6943168 0.21110241
0.2164885 0.09829605 -0.21095768 -0.19566554 0.13299535 0.18158725 0.17501287 0.12695593
0.19953711 -0.02644226 0.053005792 0.21532488 0.18978529 -0.06450204 0.13253497 -0.2644864
-0.46260405 0.20533986 -0.6342104 -0.15515627 0.10721065 -0.5317756 0.20533894 0.051113892
-0.3475895 0.1351749 0.13286828 -0.23813316 -0.57542074 0.2831948 -0.31115294 -0.31516126
-0.05293408 -0.1501284 -0.11368497 0.02522739 0.13114329 -0.32048333 0.18338025 0.1515659
0.20478652 -0.116447 0.08448222 0.2214462 0.18966927 -0.062374227 0.12938097 -0.26619568
-0.4635962 0.21203811 -0.62121975 -0.084840685 0.10792392 -0.49012125 0.21799822 0.21396068
-0.41953874 0.13752203 0.042256173 -0.25215343 -0.559844 0.2800926 -0.22075193 -0.23484509
-0.5561396 0.10932887 -0.39338595 0.049000464 0.15084831 0.16154996 -0.2835831 0.1295403
-0.2835462 -0.6835273 0.098668456 0.19506754 -0.35422385 0.25130036 -0.21231902 -0.44234845
-0.61787933 -0.6576251 -0.44584912 -0.5220944 -0.581868 -0.6438213 0.2583023 -0.17860706
-0.69750553 0.0635227 0.13033518 0.4075163 -0.46287286 0.04834906 0.3651158 -0.19402948
00000000: a83a d4be 6ebe a23e 3c82 153e 4fdb 973e
00000010: 1615 3ebf a2d1 003e 101b 843d 18d7 1ebf
00000020: f702 df3c ede5 1dbf f271 cabf 5df9 6f3e
00000030: f48b ba3d 9689 39be f351 6cbf 3416 84be
00000040: f937 56be 620b 393e 6c8e c63e 5180 45be
00000050: 1979 0c3e 02f5 c23e 024f 6bbf b554 29bf
00000060: 3b6c efbe 6b49 673e 61d9 8fbd e870 a2be
00000070: 6996 9a3e 89c4 19bd e0b6 60be 9b55 a63e
00000080: ea42 32bf 370d df3d 5d5f 0cbf 2146 cebe
00000090: 5bae 2f3e db44 8a3e 83e5 76bf e034 52bf
000000a0: 340c f13d 1781 393d 1ba3 b53d 3f1f 093e
000000b0: dde6 6fbf 10d3 83be 140f a0bf 71f5 383d
000000c0: 1608 b1bd 603a 8a3e 0e79 d13e a6c9 433e
000000d0: 3171 e53d 261d 683e 0154 4e3e 4ce2 5abe
000000e0: 3e76 c9be 7659 6f3e db02 2abf 161a 403d
000000f0: cb51 f1be c7ac e83b f2d2 0c3f 7fce 09bf
00000100: de74 05bf 5a39 e6bd adef 8ebf 9b31 7b3e
00000110: b455 bf3d ec4d a7bd 64db a1bb d15e 49bf
00000120: 6064 033d e6c8 243e ecd0 cfbd 6371 5d3e
00000130: 5697 a03b 6459 41bf dd3b 61bf 6f45 d83e
00000140: 224c 5bbe 442d 26bf f2fe ce3e 2fb5 1b3e
00000150: bad7 063e ee63 be3e 3e9c cebd 362d 01bf
00000160: 12fc e7be 208f 583e 4201 15bf 2a4f c0bd
00000170: b86a 773e 066b 193e cd09 d7be 73c1 a03e
00000180: 40b0 c9be 2004 b0be 2a59 8fbe 989a ffbe
00000190: 4ff4 163e abe2 3dbf 60dd 58bf 207b 73be
000001a0: d618 9cbf 01b0 a6be 569b 6dbf 79e7 babf
000001b0: 5679 a4bf cbf5 b8bc 3347 56be a537 e6bd
000001c0: 9c32 34be 078d 7c3e 2871 a53e 2f20 b2be
000001d0: 0b41 0e3e d050 ca3e aa81 3f3e 47c7 203e
000001e0: e75e 08bf e1fc 623e e8b7 0e3c de7a 09be
000001f0: 7214 9cbe 76d7 4c3e 51b2 943e 0357 a2bf
00000200: acce d5be 1855 3d3d 2f21 e9bd 1925 c8be
00000210: cb6b f7bc f7ab acbe 5d40 49bf 1a8c ae3d
00000220: 1d68 58bf 25b8 fabe 18e1 b0be 965f f53d
00000230: b2e9 72bd 7ae2 57bd a4b0 38be 9f19 f1bd
00000240: 6457 53be 349f b3be 8cdf 9e3e f770 fdbe
00000250: dd45 163e 3da7 c83e 2a8a c93c 8911 413e
00000260: 3b0f 223d f307 5d3e 557c 4a3e aa42 cebd
00000270: 8f71 adbe 774f 593e bfbe 31bf 3b2b 583e
00000280: 29af 5d3e 714f c93d 4a05 58be 8c5c 48be
00000290: ef2f 083e 02f2 393e 9336 333e bc00 023e
000002a0: 7553 4c3e 709d d8bc 9a1c 593d 207e 5c3e
000002b0: 1357 423e a519 84bd 3fb7 073e c36a 87be
000002c0: 70da ecbe 9d44 523e 9d5b 22bf 49e1 1ebe
000002d0: 4291 db3d 7222 08bf 5f44 523e cd5c 513d
000002e0: 40f7 b1be 4a6b 0a3e 9f0e 083e 2ed9 73be
000002f0: c64e 13bf e9fe 903e 704f 9fbe d15c a1be
00000300: 68d1 58bd 42bb 19be aad3 e8bd aca9 ce3c
00000310: 6d4a 063e 6416 a4be 08c8 3b3e 1734 1b3e
00000320: 8fb3 513e c47b eebd 0405 ad3d cbc2 623e
00000330: a938 423e 1e7c 7fbd 727c 043e cd4a 88be
00000340: 7b5c edbe 8520 593e 4208 1fbf f4c0 adbd
00000350: 3707 dd3d 2cf1 fabe ed3a 5f3e 8218 5b3e
00000360: c8cd d6be 93d2 0c3e cf14 2d3d 411a 81be
00000370: f051 0fbf 4c68 8f3e cb0c 62be 3b7b 70be
00000380: 2a5f 0ebf d1e7 df3d e269 c9be b6b4 483d
00000390: fb77 1a3e 5a6d 253e ce31 91be 36a6 043e
000003a0: f82c 91be a5fb 2ebf b012 ca3d c9bf 473e
000003b0: d45c b5be 71aa 803e 286a 59be 7f7b e2be
000003c0: 572d 1ebf 1e5a 28bf 5646 e4be fba7 05bf
000003d0: 4df5 14bf 79d1 24bf 3340 843e c5e4 36be
000003e0: b98f 32bf 3018 823d 9676 053e faa5 d03e
000003f0: acfd ecbe aa09 463d 75f0 ba3e aaaf 46be

linear_layers.2.bias f4 [19]
-0.058160022 -0.52677095 0.115330204 -0.06614109 0.3132867 0.21054213 -0.06973314 0.26493514
-0.9379547 -0.053530585 0.24528946 -0.03486677 -0.18497355 -0.80701286 -0.12476509 -1.2747476
-0.56856114 -1.6451118 0.36374897
00000000: 3439 6ebd 76da 06bf 3e32 ec3d fb74 87bd
00000010: 1d67 a03e 5b98 573e 40d0 8ebd 94a5 873e
00000020: cd1d 70bf e342 5bbd 292d 7b3e 75d0 0ebd
00000030: b569 3dbe 6598 4ebf d784 ffbd ee2a a3bf
00000040: 398d 11bf 0693 d2bf 4e3d ba3e
