LTNtorch/LTN_IoMT/LTN_reduce.pth (torch, 13670 bytes, 6 tensors)

linear_layers.0.weight f4 [32, 45]
000000 58 4d b7 bd 1b 5e ca bc e5 ea 12 3d 93 db 10 3d
       -0.08950299 -0.024703076 0.035868544 0.035365652
000010 0b 9b a4 3b ef b2 93 3d 4b b0 dd be d6 2b 03 3f
       0.0050233654 0.07211863 -0.43298563 0.51238763
000020 d0 b1 03 3f fb 51 93 3d 9a f0 14 be 78 97 cb 3d
       0.51443195 0.07193371 -0.14544907 0.09941
000030 49 75 71 3c 24 29 65 be 33 2b 7a be 7a 71 94 3e
       0.014737436 -0.22378975 -0.24430542 0.28992826
000040 01 72 52 be 6d c4 92 3d 7a 5f 88 bd bb c3 82 bd
       -0.20551302 0.071663715 -0.06658836 -0.06384989
000050 c3 63 8d 3d ee 51 dd 3d ad 52 b6 3d 6e 66 62 3d
       0.06903794 0.108066425 0.08902488 0.055273466
000060 78 ba 3a be 6c c7 15 3a 85 19 6d bd e6 0f 98 bd
       -0.18235195 0.0005713615 -0.057885665 -0.074249074
000070 ad 43 67 3c 77 a8 9f bc 87 7d 6d bd 2d 2c 77 3d
       0.014115256 -0.01948951 -0.05798104 0.060344864
000080 6b 0a 3a bd e4 28 7c bd f7 5a 37 bd aa 4d f4 bb
       -0.04542009 -0.061562434 -0.044764485 -0.0074555473
000090 f3 4d dc 3c 42 de a5 3c 6c be 8f 3d 22 0a f6 bc
       0.026892638 0.020247582 0.07018742 -0.030034129
0000a0 c6 e6 0f be 92 9d 32 3d 26 fc 01 bc 25 10 72 be
       -0.14052877 0.043607302 -0.007933652 -0.23638971
0000b0 48 8a 15 3c f2 c9 be be 12 37 6e bd a7 61 95 3d
       0.009127207 -0.37263447 -0.058157988 0.07294016
0000c0 cb e6 0b 3e 96 1e e5 3d 4e 48 95 bc 03 f7 de 3d
       0.1366226 0.111874744 -0.018222954 0.108869575
0000d0 7a 0b 8f bd d1 30 af 3d 20 5e 0d 3e d7 60 51 3d
       -0.06984611 0.08554233 0.13805437 0.051117744
0000e0 0e 93 d0 bd a3 b3 c8 3d 2d 36 2d 3d c7 f4 a4 3e
       -0.101842985 0.09799888 0.042287994 0.32218
0000f0 52 04 7a bf fa 14 43 be 08 3e 94 be 8f 94 cf be
       -0.9766284 -0.1905097 -0.28953576 -0.4054303
000100 80 6c 62 be 0b 41 33 bc 52 a4 28 39 dd a0 f1 3c
       -0.22111702 -0.0109408 0.00016082943 0.02949565
000110 00 02 1c 3d b6 9f 05 be af 9f fb 3c 2d cd 6d bd
       0.038087845 -0.13049206 0.030715792 -0.058057
000120 c1 7f 1b bd 9f c3 02 3e d2 0d 32 be f6 bf d7 3d
       -0.037963632 0.12769936 -0.17388085 0.105346605
000130 e1 77 0e 3d 44 10 d2 3b ef 4d a8 bd 7b c7 ab bd
       0.034782294 0.0064106304 -0.0821799 -0.08387657
000140 dd 60 8b 3d fb 1f 3d bd fb dd 3e 3e db ef a1 bd
       0.068055846 -0.046173077 0.18639366 -0.07907077
000150 1e e3 f9 bc 83 da 5f 3e c2 b8 01 bd ac 1b 1b bc
       -0.030503806 0.218607 -0.03167034 -0.009467047
000160 6a dd c4 be ff 29 01 3e 9e 14 15 bf 8f 51 c3 3b
       -0.38450176 0.12613676 -0.58234584 0.0059606503
000170 a4 32 61 bd 2d 22 7c bd c0 9d 99 3d d3 1b ff 3d
       -0.054979935 -0.06155603 0.075007915 0.12456479
000180 46 82 7c 3e 32 d5 fd 3c ea 11 c0 bd 65 e7 b6 3c
       0.2465907 0.030985449 -0.09378417 0.022327134
000190 b2 53 c5 3d b2 c3 76 bd 60 8a 96 3d 1e 99 01 3d
       0.09635104 -0.060245223 0.07350612 0.031640165
0001a0 b3 83 89 bd 1d 98 4b 3f a8 5f d0 3e 46 53 df bc
       -0.06714573 0.7952898 0.4069798 -0.027261388
0001b0 d7 f1 0e 3d 43 66 59 3c e7 71 a4 3d d2 3f a0 bd
       0.034898605 0.01326901 0.08029538 -0.07824673
0001c0 bd ba bc be b5 34 87 3d aa ac 89 3d ca 8a 6b 3d
       -0.3686122 0.0660185 0.06722386 0.057505406
0001d0 50 23 23 be 2d 37 d1 3c d7 8c 6c 3d b9 ea 28 3d
       -0.1593144 0.025539005 0.057751503 0.041239474
0001e0 d1 73 bc bd f9 8d f5 3d 6f 9c 8a be 95 b5 3b be
       -0.09201778 0.1198997 -0.27072474 -0.18330987
0001f0 d4 63 08 be 77 ef 2b be e5 e3 0a 3e 84 73 4a 3e
       -0.13319331 -0.16790567 0.13563497 0.19770628
000200 8c 63 4d 3c 3f 79 0c 3d a4 aa 2e 3e c4 db 4d 3b
       0.012535941 0.034295317 0.17057282 0.0031411508
000210 8f 53 ab bd 4d 5d 2f be bb fd 20 bc ea 85 11 3d
       -0.08365547 -0.17125435 -0.009826119 0.0355281
000220 e0 4a be 3d c7 6d aa bc 02 ce 63 3d 2a eb 6f bc
       0.09291625 -0.020804299 0.055616386 -0.01464347
000230 23 c9 f0 bd 40 d0 97 3e 3b 56 09 3e 20 8b f8 3d
       -0.11757114 0.2965107 0.134118 0.12135911
000240 08 76 aa 3d 06 4c fc 3d 12 a0 6f bd 8a ea 95 bd
       0.08323294 0.12319188 -0.058502264 -0.073201254
000250 57 67 26 3e 8d 6e 60 be 49 f6 28 3f e4 5d ec be
       0.16250359 -0.21917172 0.660008 -0.46165383
000260 4a 5d 9c bd cc b5 3a be 2b 30 0e 3d a9 98 93 3d
       -0.07634981 -0.18233413 0.034713905 0.07206852
000270 bd ec c1 3d fa be c2 3d f6 5d 63 3d e1 0f b4 bc
       0.09468982 0.09509082 0.05550953 -0.021980228
000280 1b 3d b5 bd b6 c6 34 3b 01 82 c0 3c fb f0 44 3d
       -0.088495456 0.0027584261 0.02349949 0.04808138
000290 b5 4a ca 3d 28 a6 e1 3d c2 d4 c4 3b a9 c2 81 3d
       0.098775305 0.1101802 0.006006808 0.063359566
0002a0 0c 51 ba bd 9c 23 4e bc 16 b4 8c bd fc ca af 3d
       -0.0909749 -0.012581732 -0.06870286 0.08583638
0002b0 99 d7 0f 3e 5b d3 98 3d 31 f3 ca bc 9c 6a 8e 3e
       0.14047088 0.07462188 -0.024774166 0.27815711
0002c0 f2 f7 f1 bd 13 17 92 bd a5 4d cd be 69 dd 1c 3b
       -0.1181487 -0.07133307 -0.400983 0.0023935682
0002d0 8f 3c 12 3f 61 2c f8 be 51 92 42 3d 69 0d 78 3d
       0.57123655 -0.48471358 0.04750282 0.060559664
0002e0 b0 4f b7 3d 94 b6 d6 3c f0 3d 43 3e 94 a3 98 3d
       0.08950746 0.026210107 0.19066596 0.07453075
0002f0 17 3a 8e bd 91 4d 99 bc ce 53 a6 3d 56 16 f5 bd
       -0.069446735 -0.018713744 0.08121453 -0.11967151
000300 19 61 2b be ae 5a 26 3e 01 ec c1 bd 82 5f 34 3f
       -0.16736259 0.16245529 -0.09468842 0.70458233
000310 8d 41 a4 be 50 1c 86 be 65 f4 4c bd b1 33 58 3c
       -0.3208126 -0.26193476 -0.05003776 0.013195918
000320 9d ba 80 3c 37 39 36 3d 26 72 83 3d d8 8f 84 3c
       0.015713984 0.044488158 0.064182565 0.016181871
000330 65 ec 84 3e 82 1a d7 be 79 af 0c 3c bf 62 b1 bc
       0.25961605 -0.4201241 0.008586758 -0.021653531
000340 ed a0 c5 3d 5d 5a 87 bb 7b 66 85 bd d9 5e b2 3c
       0.09649835 -0.004130645 -0.06513687 0.021773743
000350 0c 5c 0d bd 27 e1 a8 bd 0d 19 ba bd e9 c8 43 be
       -0.03451161 -0.082460694 -0.09086809 -0.1911961
000360 47 01 c0 3c 62 82 62 3e e8 bc 73 3d c8 24 52 bd
       0.02343811 0.2212005 0.059506327 -0.05130461
000370 c3 c4 c2 3e e9 45 49 3c e7 2b 81 bd df 88 3a 3c
       0.38040742 0.012284734 -0.06307202 0.011385172
000380 9f 3e bf ba ad 52 2f 3f 9a 24 87 3e 8f a9 ff bd
       -0.0014590806 0.6848553 0.26395112 -0.124835126
000390 f8 30 63 bf 4c 7c 3d bf a9 64 a7 bd 3c ef 68 3e
       -0.88746595 -0.74017787 -0.08173496 0.2274751
0003a0 26 ec 35 bc 87 e4 37 be bc 5e e1 bd c1 35 f1 bd
       -0.011103665 -0.1795827 -0.11004397 -0.11777831
0003b0 bd 55 3f 3d 47 c6 21 3e 30 53 3f 3e 45 fe 52 be
       0.046712626 0.15798293 0.18684077 -0.20604809
0003c0 b9 c9 53 3f 7d 05 dd 3d d9 b2 2b 3e 92 f5 be 3e
       0.8272968 0.107920624 0.16767444 0.3729673
0003d0 62 9c 06 3e 2f 4c ce 3c eb fb 49 3d b2 fc ba 3d
       0.13145593 0.025182812 0.049312513 0.09130229
0003e0 7f 51 69 3d 22 7a 33 bd 9b e4 9d 3e 96 aa 45 3d
       0.056962486 -0.043817647 0.30838475 0.048258387
0003f0 4c 82 12 be 4d e6 80 bd 43 2b 1a 3e 31 05 c5 3c
       -0.14307517 -0.062939264 0.15055566 0.024050327

linear_layers.0.bias f4 [32]
000000 cf d4 80 3d e2 85 c4 bd 0c 31 95 3d 53 4d 0a bd
       0.0629059 -0.095958486 0.072847456 -0.03376515
000010 6b 61 0f be a5 d7 9b be 61 b3 0f 3e 56 d4 ce 3d
       -0.14002006 -0.3043796 0.14033271 0.100990936
000020 7a 9d 3b be c9 e4 31 3e 91 a7 c1 be f8 2e 62 bd
       -0.18321791 0.17372431 -0.37823156 -0.055220574
000030 c0 62 80 3e a7 55 2b 3e d9 76 a5 bc 65 0b f9 3d
       0.2507534 0.16731893 -0.020198273 0.121603765
000040 10 60 70 be ea 54 aa 3d 52 44 b5 bd e0 f1 34 be
       -0.23474145 0.08316977 -0.08850922 -0.17670393
000050 45 e0 b4 3c c8 e1 d0 3d a3 3c 89 be 0e 07 98 be
       0.022079596 0.10199314 -0.26804075 -0.29692882
000060 96 11 2f be 25 a6 39 be 3a 06 86 be 50 48 8e 3d
       -0.17096552 -0.18129785 -0.26176625 0.06947386
000070 01 86 4e bc f6 84 2f bd 95 9a 9f bd f1 e8 1d be
       -0.012605191 -0.04285141 -0.07793156 -0.15420891

linear_layers.1.weight f4 [32, 32]
000000 ee e9 fe be af d3 92 3d b6 ca b0 bc ce 52 19 be
       -0.4978785 0.07169282 -0.021581035 -0.14972994
000010 19 97 93 3e 72 ab 39 3c 0b 11 64 bf 14 c8 e4 3e
       0.28826216 0.01133238 -0.89088506 0.44683897
000020 8f 88 1e 3e 4f 39 42 3e c8 fa a3 3e 09 e1 d8 be
       0.1548178 0.18967174 0.32027268 -0.42359188
000030 01 78 0e bf 3f f2 51 3e cd 08 67 3e 82 ec 5a 3f
       -0.5565186 0.20502566 0.22561951 0.8551713
000040 0b c2 72 bd 5c d0 db be 5a 5c 02 bf 60 1a 2b bd
       -0.059267085 -0.42932403 -0.5092217 -0.0417732
000050 c4 d1 c9 3e 93 a0 98 3b 78 ca c9 3d e8 48 20 bd
       0.3941785 0.004657814 0.09853071 -0.03913203
000060 1b 33 b4 3d 5d 76 84 bd 34 03 af 3b 34 26 a1 3e
       0.0879881 -0.064678885 0.005340958 0.3147446
000070 bb cf 03 3f c9 7b 4f 3c 0b 7e 10 bf 4d 55 79 be
       0.51488847 0.01266379 -0.56442326 -0.24348946
000080 98 4c 71 3d 29 d6 37 3e d2 25 05 bf 70 72 5c be
       0.058910936 0.1795279 -0.52010834 -0.2152803
000090 71 70 d6 bd 4a 3f 85 be 20 78 3e 3d 0b 0c 52 be
       -0.10470665 -0.26024848 0.04650128 -0.20512407
0000a0 41 6e 1b 3e 83 1b 30 bf 97 e5 4e 3e b9 cd ee 3b
       0.15178777 -0.6879198 0.20204769 0.0072877076
0000b0 3c 3e a9 bd d1 56 cc 3e 97 5f ce ba 40 f4 7c 3e
       -0.082638234 0.39909986 -0.0015745041 0.24702549
0000c0 cd 1d 55 3f 95 27 39 be 8d f2 84 3e 95 97 93 be
       0.832486 -0.18081506 0.25966302 -0.28826585
0000d0 03 79 ea be 7e c1 f6 bc a8 47 fb bd 1f 10 8f bd
       -0.4579545 -0.030121561 -0.12269527 -0.06985497
0000e0 ec a0 32 bf 77 a1 19 bd 99 1e 85 3e 1f 7d a8 bd
       -0.697768 -0.0375075 0.25999907 -0.0822699
0000f0 29 1f d9 3e 1a 78 36 bd b8 8d c2 be d2 ee 0d 3f
       0.42406586 -0.04454813 -0.37998748 0.55442536
000100 b1 55 db bd 48 cb 9f bb cf de 44 3f 6f 93 aa 3e
       -0.10709704 -0.004876528 0.7690248 0.33315608
000110 88 45 91 3f a9 6a dc be 28 4f e0 3c e1 39 0a 3e
       1.1349344 -0.43050125 0.027381495 0.13498642
000120 82 b6 2d bc a6 0a ef 3d 5a bd b0 bd 70 ce 20 3c
       -0.010602595 0.11671953 -0.08629866 0.009814844
000130 11 b3 d5 bc 5e a2 d0 bd 14 e4 df 3e f5 20 9d bc
       -0.026086362 -0.10187219 0.43728697 -0.019180754
000140 94 e0 5d bb c9 71 2d 3e 59 e1 92 be 52 c1 8e bb
       -0.0033855783 0.16937937 -0.28687552 -0.0043565417
000150 2a 55 24 3e bb 9f fd be f2 ed 0f bf 30 69 16 bf
       0.16048113 -0.49535927 -0.5622245 -0.58754253
000160 36 74 8e 3f 3a c8 81 3f 13 f6 83 be 69 d7 8a bd
       1.1129215 1.0139229 -0.25773677 -0.067793675
000170 f1 0c 59 be 1b 69 96 be ae 25 45 be 7e 67 32 bf
       -0.21196343 -0.29377064 -0.19252655 -0.69689167
000180 3c b0 83 bd 05 a0 6a 3f c2 0c b4 be 95 42 98 bd
       -0.064300984 0.9165042 -0.35165983 -0.074345745
000190 ad 0b a2 be 7e 3c fc be 25 8f 83 bc c5 2e a1 be
       -0.31649533 -0.49264902 -0.016059468 -0.31480995
0001a0 17 4f cb 3d cc 4b 14 bf 2a e9 a8 bc d0 59 7f bd
       0.099271946 -0.57928157 -0.020618994 -0.06234151
0001b0 9c 37 d6 3d 83 88 7a 3f 85 e3 a0 be 65 f5 38 bd
       0.104598254 0.9786455 -0.31423584 -0.0451559
0001c0 7e c5 1a 3f 33 c5 83 3c e4 0a 0c 3f 99 d2 25 bf
       0.604576 0.016085243 0.5470412 -0.6477447
0001d0 38 bb 02 be a3 74 05 3e 97 ba 83 be c0 49 67 3d
       -0.12766731 0.13032775 -0.25728294 0.056466818
0001e0 a9 4f 4a be fd 77 9a bd 79 30 ac 3e fc 39 6e 3e
       -0.1975695 -0.07542417 0.33630732 0.23264307
0001f0 e0 16 48 3e 5e ca 8b be e0 3b 9a 3e ac 9f e0 3e
       0.19539976 -0.2730283 0.30123806 0.4387182
000200 d5 82 62 be 53 4a f9 be 36 14 ba be 9b 1b 25 bf
       -0.22120221 -0.48689517 -0.36343545 -0.6449525
000210 16 63 b6 be 9e 9c 81 3e b9 28 d8 be d8 ed 6c 3e
       -0.35622472 0.25314802 -0.4221857 0.23137605
000220 6e 09 52 be 5f 30 86 3e a9 d6 98 3f 83 82 97 be
       -0.2051141 0.2620878 1.1940509 -0.2959176
000230 b0 3f f8 be b2 08 3e be 3a 8c 8f be c4 33 da bd
       -0.4848609 -0.18558004 -0.28036672 -0.10654405
000240 c8 de a6 bd 1b 20 3f bf 72 33 21 bd 22 32 48 3f
       -0.08147961 -0.74658364 -0.039355703 0.78201497
000250 ad 9c d0 3d 86 d5 22 be ad d8 1b 3e a9 3c 11 3f
       0.101861335 -0.15901765 0.15219374 0.56733185
000260 39 7d cc be cc 91 c3 be dd 15 6b bd e4 55 3d be
       -0.39939287 -0.38197172 -0.057393897 -0.18489796
000270 10 9b 34 bd db b1 90 3e ec 8d 6b be 87 da 21 3e
       -0.04409319 0.28260693 -0.23003358 0.15806018
000280 a1 4d 84 be 87 62 25 be 08 3d 9c be 85 a9 8a be
       -0.25840476 -0.16150866 -0.30515313 -0.27082458
000290 a0 ef 86 be b4 b2 e7 3e c6 17 b5 bd 0d 79 9b 3e
       -0.26354694 0.45253527 -0.08842425 0.30365792
0002a0 b9 48 1e be 97 9c 97 bd 55 44 0f 3f 10 d5 89 be
       -0.15457429 -0.07402914 0.5596364 -0.26920366
0002b0 6d 0d b9 be a3 dd 2b bd e3 a1 00 3e 6e 5d e1 3d
       -0.36143056 -0.041959416 0.12561755 0.110041484
0002c0 67 61 ac bd 2f d9 46 bf 5e 12 9d 3d 52 8a 34 3e
       -0.084170155 -0.77675146 0.07669519 0.1763089
0002d0 4c d6 a6 bb 1f c5 c6 3c 3d ed d4 3e d5 06 cf 3e
       -0.005091464 0.024263917 0.41587248 0.404349
0002e0 e7 c7 19 bf 4f 0c 29 bf 75 46 77 3d b1 a2 55 3e
       -0.6007065 -0.66034406 0.060369927 0.20862843
0002f0 fd e3 87 3e 6c e8 99 3e a4 a4 a2 be 0e 99 8f 3d
       0.2654113 0.30060136 -0.31766236 0.07011615
000300 71 e5 6b bb 24 98 bd be 80 02 f3 3e 42 35 ea bd
       -0.0035994912 -0.37030137 0.47462845 -0.11435939
000310 37 dd 38 3f a3 40 82 bc d2 ca b7 be 5c 83 11 3c
       0.7221255 -0.015899962 -0.35896927 0.008881416
000320 b5 4e fb 3d 84 cc 94 3e c8 50 14 be 3a 2f 8d be
       0.122708715 0.29062283 -0.1448394 -0.27575094
000330 2a 00 d3 bd 33 ed c9 bc 74 8a 5c 3e d2 eb 22 bd
       -0.10302766 -0.024649238 0.2153719 -0.039775677
000340 25 79 b4 be 7c 14 ab bd 25 5e 59 be 01 91 2f be
       -0.35248676 -0.083535165 -0.2122732 -0.17145158
000350 20 0e d0 3e d4 60 59 be 95 76 21 be 6a f7 86 be
       0.40635777 -0.21228343 -0.15767892 -0.26360637
000360 6e 4d 29 3f 27 c8 df 3e e4 7b 97 be 20 a8 00 3e
       0.66133773 0.43707392 -0.2958671 0.12564135
000370 6d 95 83 be 82 19 96 be 9d 5e fd 3d 01 9c dd be
       -0.2569994 -0.29316336 0.12371562 -0.43283084
000380 7b 78 85 3d ee fe 43 3d dd 1e 0c 3e 77 01 0d bd
       0.065171205 0.04785054 0.13683648 -0.034425225
000390 ae 9e ca be 33 03 5c bd f6 75 57 be c0 da 0a bf
       -0.39574188 -0.05371399 -0.21041092 -0.54240036
0003a0 05 b3 66 be bb 34 41 be 91 2d 82 3d 95 0e 8d bd
       -0.22529228 -0.18867771 0.06356347 -0.06887547
0003b0 44 34 1f 3e 88 c7 ef 3e cd 2a 27 be 64 60 da be
       0.15547282 0.46831918 -0.16324921 -0.42651665
0003c0 e2 2b d6 bc ed fc a4 3c 4b 6b d6 3f 46 ba 54 bc
       -0.026143972 0.020140136 1.6751493 -0.012983864
0003d0 fd a8 b0 3e 6f 2f 5e be a2 c6 24 bd f1 e8 b3 3e
       0.34503928 -0.21697782 -0.040228494 0.35138658
0003e0 ad fd ea bd 25 13 dd bd 89 f7 2b 3f f1 1d c9 bd
       -0.11474166 -0.10794667 0.67174584 -0.09820164
0003f0 5a 0b 82 bc 51 4b 10 bd 25 b1 4f 3f 68 97 1b 3f
       -0.015874553 -0.035228077 0.81129676 0.607779

linear_layers.1.bias f4 [32]
000000 df 38 59 3e 5d 90 87 3e 27 24 49 bc d2 a0 24 bd
       0.21213101 0.26477328 -0.012276686 -0.040192433
000010 f9 be 82 3d 6a 1c 0a 3e 66 61 be be dc d2 d1 bd
       0.063840814 0.13487402 -0.37183684 -0.10245296
000020 70 e3 97 3e 4f 92 ad 3d aa f1 3c 3e 64 ba 88 be
       0.2966571 0.08475172 0.18451563 -0.26704705
000030 7b 3e 80 bc 3c 68 1c 3d 57 e8 35 3e 06 b4 7a be
       -0.015654793 0.038185343 0.17764412 -0.24482736
000040 55 8c bf 3d b5 75 df 3d c5 6b 48 bd 62 a4 b4 3e
       0.09352938 0.10911123 -0.048930902 0.35281664
000050 ee b6 7b 3e 51 1c 9d be b8 8b 4d be e9 89 b0 3d
       0.24581501 -0.30685666 -0.2007283 0.08620054
000060 a3 5a 1d 3c 77 35 e8 3d 61 2b c6 bd b7 83 39 bd
       0.009604129 0.113383226 -0.096762426 -0.04529163
000070 64 c5 3c 3e 3f db ea 3d 47 f6 57 3c 0d b8 37 3e
       0.18434674 0.11467599 0.013181276 0.17941304

linear_layers.2.weight f4 [6, 32]
000000 4b 4f 50 3e 72 de fe bc 4d 7e 79 be 1d 59 0a be
       0.20342748 -0.03111193 -0.24364586 -0.13510557
000010 cd 74 84 3e 8c 06 55 3e 6b 2b 1c bd b2 d1 8d be
       0.25870362 0.20803279 -0.038127344 -0.27699047
000020 38 e1 8f 3e 02 4e c4 be 6a 2a f9 be 3b 5c 8a be
       0.28101516 -0.38340765 -0.48665172 -0.2702349
000030 59 ec f1 bb d8 0a b5 be 95 30 bd 3e 3b fb 98 3d
       -0.007382911 -0.35359836 0.36951128 0.074697934
000040 2f 3b 6a 3e a9 4d 9a 3e 65 a8 ca bd e5 1f a2 3e
       0.22874139 0.30137375 -0.098954 0.3166496
000050 10 a5 63 3e e6 f6 a7 be 5c 88 2a be 4e 98 aa 3e
       0.22230935 -0.32805556 -0.1665358 0.33319324
000060 80 64 d8 3a 9c d6 89 be 72 1a ba 3d a3 00 92 be
       0.0016509444 -0.26921546 0.09087075 -0.2851611
000070 57 45 a2 3e b3 06 f9 be 30 03 56 3e 85 79 8d bd
       0.31693527 -0.48637924 0.20899653 -0.06907944
000080 2e 28 61 3e a5 8e 06 be df 06 a5 be 2a 09 98 bd
       0.21987984 -0.13140352 -0.32231805 -0.07423623
000090 cd 4c 7f 3e b5 da 4d 3e 45 1f 3c be e3 3b 67 3e
       0.24931641 0.20102961 -0.18371303 0.22581439
0000a0 6f ac 8a 3e 0f 96 d2 be 84 75 f9 be be f9 b8 be
       0.2708468 -0.4113011 -0.4872247 -0.36128038
0000b0 58 b2 1e be e8 96 05 3e 41 6f ce bd bc 4b 81 3d
       -0.1549772 0.13045847 -0.10079814 0.06313273
0000c0 83 7b 49 3e 70 2f 73 be d5 30 b9 3e ed 71 a2 3e
       0.19676022 -0.23748565 0.36170068 0.31727543
0000d0 47 b7 98 3e 31 d8 9f be 9c 79 ce 3e 09 73 ac 3e
       0.2982733 -0.31219628 0.40327156 0.33681515
0000e0 26 c8 43 3e a0 cf 7e 3d 86 99 0d bd 42 b8 93 be
       0.1911932 0.062209725 -0.03457024 -0.28851515
0000f0 a1 a8 9f 3e b9 2a ff be a7 01 4e 3e 28 3e 09 3e
       0.3118334 -0.49837282 0.20117818 0.13402617
000100 d6 97 c3 3d db 22 2e bf 95 3b de 3e dc bd e2 bd
       0.09550445 -0.68021935 0.43404832 -0.11071369
000110 74 62 77 bf 56 16 ad bf 3c 94 26 3f 2f 8e e1 be
       -0.966346 -1.3522441 0.6506994 -0.4405379
000120 98 46 96 bf 96 5a 12 bf bd 51 9c 3e 6a b9 db be
       -1.1740294 -0.57169473 0.3053111 -0.42914897
000130 e8 41 b2 3e 8c 4e 2d bf 4f fd 71 be c6 7d 1e 3f
       0.34815907 -0.6769798 -0.23631786 0.61910665
000140 44 52 80 be 6d b5 ec be c9 3b 78 be 0b 8e 5d 3e
       -0.25062764 -0.46232167 -0.24241556 0.21636216
000150 95 02 a3 3e fb 90 d6 3d c3 9a 7e 3e a4 c8 33 3e
       0.31837907 0.104768716 0.24863724 0.17557007
000160 41 98 1a 3f c1 ac e2 bd 13 7a c4 3e aa f4 14 bf
       0.6038857 -0.110681064 0.38374385 -0.5818583
000170 1e d7 3c 3d a2 23 17 bf e2 fa db be 27 1d 5f 3e
       0.04610359 -0.59038746 -0.42964846 0.21788464
000180 8b ba 03 bf f6 d2 71 bf 32 c2 e7 3d 52 15 76 bf
       -0.51456517 -0.94462526 0.11316337 -0.9612628
000190 c1 31 2f bd 11 e6 9b bd 9c c0 45 3e dc 20 18 bf
       -0.04277206 -0.07612241 0.19311756 -0.5942514
0001a0 44 be 17 3e 09 df 19 3e 99 43 5c 3e fb 58 0b bf
       0.14818674 0.15026487 0.21510161 -0.5443265
0001b0 07 95 b3 3d 49 8c 07 3f e1 ad 99 3e db 60 f9 be
       0.08768659 0.52948433 0.30015472 -0.48706707
0001c0 97 5a 17 bc c4 08 86 be 7a 8d 34 be 1e c8 9c be
       -0.009237907 -0.26178563 -0.17632094 -0.30621427
0001d0 fa 00 08 bf 35 19 60 bf 3b f2 ce be 6f e7 07 bf
       -0.5312649 -0.8753846 -0.40419182 -0.53087515
0001e0 c7 6f 03 be c6 0f 4d bf 56 a0 54 bf fd 39 69 3e
       -0.12835608 -0.80102193 -0.83057153 0.22776027
0001f0 b1 e5 67 be 7d 63 25 3e da 1a 84 3d df 91 8b bf
       -0.22646214 0.16151233 0.06450434 -1.0903891
000200 33 86 87 be 7d 28 56 3e 68 30 0b 3d 61 14 85 3e
       -0.26469573 0.20913883 0.03398171 0.2599211
000210 a1 f0 38 be 9d 49 ee ba fb f0 9e be 51 9a 0b 3e
       -0.18060543 -0.0018179897 -0.31043229 0.13633086
000220 49 4f 31 bd f7 33 1c 3e f0 98 02 3e dc c6 33 3e
       -0.043288503 0.15254198 0.12753654 0.17556328
000230 7c d0 23 3c d1 d3 ab 3d ba d3 d2 bd a4 93 ab bd
       0.009998437 0.0839001 -0.1029429 -0.083777696
000240 93 01 ca be 5f 2c a3 3d f7 e5 db 3c 04 d9 d1 be
       -0.39454326 0.079674475 0.026843054 -0.40985882
000250 12 d3 5b be d1 52 83 3e 71 e2 3a bd d8 26 8c be
       -0.21467236 0.2564912 -0.045626108 -0.27373385
000260 c7 14 de be 25 fa 73 3e c8 d0 60 be c8 1d 84 3e
       -0.43375227 0.23825891 -0.21954644 0.2580397
000270 42 34 86 be 58 e9 10 3e 77 ad ca be 86 d9 fa 3d
       -0.26211745 0.14151514 -0.39585468 0.122485206
000280 e7 ed 78 be 8c 5f 50 3e 62 a3 2b be ba bb 84 3e
       -0.24309503 0.20348948 -0.16761544 0.25924474
000290 04 df 3f be e4 3b 20 bd b8 ad a3 be 47 98 ff 3d
       -0.18737417 -0.039119616 -0.31968474 0.124802165
0002a0 de df 10 be 61 70 1d 3e d7 9d 0f 3e 15 88 36 3e
       -0.14147899 0.153749 0.14025055 0.17825349
0002b0 44 41 35 be 63 72 c0 3d 3e 00 17 be d2 c3 2a be
       -0.17700678 0.093968175 -0.14746186 -0.16676262
0002c0 e6 66 8b 3e 60 32 ad 3d ff eb 8a be c3 da d4 be
       0.27226943 0.08456874 -0.27133176 -0.41573152
0002d0 be 2f 45 be 1d 25 85 3e c4 c9 22 be 2f 01 90 be
       -0.19256493 0.26004878 -0.1589728 -0.28125903
0002e0 d8 20 79 bd 38 69 76 3e 45 0c 40 be 31 0a 85 3e
       -0.060822338 0.24063575 -0.1875468 0.25984338
0002f0 fe ab 8b be 2a 7c 11 3e 1b f5 54 3e 3d cb 03 3e
       -0.27279657 0.14207521 0.20796625 0.12870498

linear_layers.2.bias f4 [6]
000000 6f d3 67 3e 91 0f 26 be 4a 9d 38 bf 8a df 75 3d
       0.2263925 -0.16216876 -0.72115004 0.060027637
000010 3c 93 47 3d f3 44 ee bd
       0.048724398 -0.11634245
