LTNtorch/LTN_IoMT/LTN_big_6classes.pth (torch, 23714 bytes, 6 tensors)

linear_layers.0.weight f4 [64, 45]
000000 25 4c 65 3d 0e 20 be bd 3f 84 8f bf 99 90 f2 bd
       0.05598082 -0.09283458 -1.1212233 -0.11843986
000010 66 96 f4 3d a7 e6 47 bd e7 19 7d be ba 14 44 bc
       0.11942749 -0.04880395 -0.24716912 -0.011967832
000020 07 0e 2f 3e e9 e2 7a ba c4 82 50 bc 0d e2 e7 bd
       0.17095195 -0.00095705554 -0.012726489 -0.11322413
000030 f8 f8 26 bd 36 47 32 3e 34 a5 df 3c 72 c1 a5 bf
       -0.04076478 0.17409977 0.027300455 -1.294966
000040 35 51 c8 3e 86 37 0f 3e 09 65 6d be 57 c6 c5 bd
       0.39124456 0.13986024 -0.23183073 -0.09656971
000050 30 ad 8e 3c 24 81 4c bc 98 40 4f b9 29 00 81 bc
       0.017416567 -0.012481961 -0.00019765121 -0.015747147
000060 1e 3a e2 bd fb 5c db bb 3e f3 c7 bd ca 3e 59 be
       -0.11046241 -0.0066944337 -0.09763192 -0.21215358
000070 d2 b7 eb bd 0c 5f 19 3e 90 60 8c bd 44 c8 ad 3d
       -0.1150967 0.14977664 -0.06854355 0.08485463
000080 b0 77 4f 3e eb f5 32 3b 5a 1f 9d 3e ae 0e ea 3d
       0.20260501 0.0027307223 0.30687982 0.11428581
000090 d6 4d 35 be 77 3f 91 3e f8 ac 80 3d b9 4b 0c bd
       -0.17705473 0.28368732 0.06282991 -0.034251902
0000a0 39 51 69 be 44 61 90 3d 8a 39 a9 bd 4c 6d db 3d
       -0.2278489 0.07049802 -0.08262928 0.10714206
0000b0 27 e0 50 bd fa c6 36 bd fd 02 4b 3e a0 5c 99 3c
       -0.05099502 -0.044623353 0.19825359 0.018720925
0000c0 64 c1 dc be ca 63 f7 be 04 b4 32 bd d5 c3 93 bc
       -0.43116295 -0.4831832 -0.043628708 -0.018037716
0000d0 63 c9 90 3e f5 97 0b 3f ac cf 52 3e 9d 20 99 be
       0.28278646 0.54528743 0.20587033 -0.29907694
0000e0 f7 b1 19 bd 6b db 39 bd c1 fb 0c bf 6d c9 09 be
       -0.037523236 -0.04537527 -0.55071646 -0.13455744
0000f0 e0 2b db 3d 01 a1 a5 3c 0c ea 9d 3e 56 7b cf be
       0.10701728 0.020218374 0.30842626 -0.40523785
000100 e0 5f 7e 3b ea 18 23 3e 06 b8 c5 3d 53 62 40 3d
       0.003881447 0.15927473 0.0965424 0.04696877
000110 6b 53 81 3d e4 be 0e 3e a4 34 e0 3d 9f 3f f1 3b
       0.06314739 0.13940006 0.109475404 0.0073623206
000120 3e c0 f8 3c fe c0 dd 3d 06 0c 18 3e fb 74 a0 3d
       0.030365106 0.10827826 0.14848337 0.07834812
000130 b5 e2 af bd 54 c4 4c 3d 50 70 13 be cd fd cf bd
       -0.08588163 0.04999192 -0.14398313 -0.101558305
000140 75 17 c6 bd 5f 83 be bd 7c b4 ba bd 98 da cd bd
       -0.09672443 -0.09302401 -0.09116456 -0.10051459
000150 4b fa 3b 3d 5c 35 13 3e 3a ba 4d 3d 20 ff 85 be
       0.045892995 0.14375824 0.050226428 -0.26171207
000160 09 5d 12 3d 8a 17 b9 3d 2b 53 f6 bd f0 2c b3 3d
       0.035733256 0.09037693 -0.12027582 0.087488055
000170 25 eb 1e 3e d3 16 08 bf c7 2b 1a bf 88 c2 05 3e
       0.15519388 -0.53159827 -0.6022305 0.13062489
000180 4f 32 b0 bd 66 0d 99 be ce 9a 6d be a1 c7 3a be
       -0.086033456 -0.29893035 -0.23203585 -0.18240215
000190 d2 b2 0c bf 12 da 8f 3c 79 d9 89 bd 86 99 a1 3b
       -0.5496036 0.017560039 -0.06730933 0.0049316315
0001a0 2b a3 13 3f 2c 8f 3d be 7e 9d 97 3e e5 9b c4 3e
       0.5767085 -0.18511647 0.29612345 0.38400188
0001b0 68 f6 83 be 39 2a 26 3e f9 2e 21 3c 83 e7 60 bd
       -0.2577393 0.16227044 0.009837859 -0.054908287
0001c0 d4 28 09 bc 9f 29 72 3c 43 26 94 bd 74 0b af bc
       -0.008371551 0.014780431 -0.0723386 -0.021367766
0001d0 bf 4b 23 bc a0 c5 80 bd d2 8b 21 3c 86 f7 0c 3e
       -0.00996679 -0.06287694 0.009859996 0.13766298
0001e0 75 96 f5 bd 40 2f b8 bc a9 90 de bd 79 ea ce bd
       -0.11991588 -0.022483468 -0.108674355 -0.10103316
0001f0 12 76 09 3e 0c 49 12 bd 4d f3 d7 3c 8e ce 79 3d
       0.13423946 -0.035714194 0.026361132 0.060988
000200 fe b5 2f bf 89 84 5c bf 39 ab 1e bc d5 08 c8 bd
       -0.68637073 -0.8613973 -0.009684377 -0.097673096
000210 c0 e6 3c be 47 cc 10 3d 71 97 68 bf 7f b4 52 3c
       -0.18447399 0.035351064 -0.9085608 0.012860416
000220 ae 4d 3d ba ee ff 3b bd 49 81 01 be 9f d5 59 bd
       -0.0007221353 -0.04589837 -0.12646975 -0.05318224
000230 ce 52 f5 bb 7c 5b 11 bd 3b eb 50 bf ad ce 24 bf
       -0.0074866777 -0.035487637 -0.81608933 -0.6437786
000240 f6 91 92 3d 83 95 86 bd 68 78 58 3d 4c 43 0f bd
       0.07156746 -0.06571486 0.052849203 -0.03497629
000250 0b 74 e6 3e 30 e2 7c be 06 1d 85 be 1b d8 c1 3e
       0.4501041 -0.24695659 -0.25998706 0.37860188
000260 17 33 79 3e 8e 61 f9 3d 83 12 62 bc d2 04 6e 3a
       0.24335895 0.1217681 -0.013798359 0.0009079698
000270 ca 41 fc 3c 71 9e 21 3c 97 30 b1 ba 56 1c 2e be
       0.03079309 0.0098644355 -0.0013518509 -0.17002997
000280 97 53 98 bd e0 01 41 3d 60 8b cc bd be 08 be 3c
       -0.074378185 0.04712093 -0.09987521 0.023197528
000290 3a 7d 85 3e dc 7b 8d 3d e9 31 0d be 96 e0 e8 bd
       0.26072103 0.0690839 -0.1378857 -0.11370961
0002a0 b8 14 56 3c 52 fe f9 3d 94 cb 13 3e f0 7f e6 bd
       0.013066463 0.12206711 0.14433128 -0.11254871
0002b0 59 a4 b2 bd 5b 38 68 3d d9 15 e3 bc 32 09 36 be
       -0.08722753 0.05669437 -0.027720379 -0.17776945
0002c0 69 43 a3 bd e2 34 68 3e fa 54 c8 3d 13 57 19 bc
       -0.07971842 0.22676423 0.09781833 -0.009359139
0002d0 12 1d 02 bf 53 e8 08 3e 78 1a a6 3c 8d e5 f4 be
       -0.5082561 0.13369875 0.020276293 -0.47831383
0002e0 73 52 0f bf 2c d4 97 bd 1e 1a 25 be 6c 7a 7f bd
       -0.5598518 -0.074135154 -0.16123244 -0.06237261
0002f0 8f 57 f2 3d 7b b6 d3 3c 1b 2e bf bc f5 1c ae 3d
       0.11833107 0.02584385 -0.023337414 0.08501617
000300 0c be 30 bd fc 95 0b 3e 8d b3 e3 3d f8 57 83 bf
       -0.043149993 0.13631433 0.11118231 -1.0261221
000310 7a 99 80 3f f3 5e 9d 3e 76 e9 73 bd 53 7d b9 be
       1.0046837 0.30736503 -0.059548818 -0.36228427
000320 d9 87 ec 3c e2 c7 07 bd b4 53 07 3d 3c 80 4e bc
       0.028873371 -0.033149607 0.03303881 -0.012603816
000330 05 3f 1b 3d d9 69 59 3d e2 71 d9 3c 8f bd e0 3c
       0.037901897 0.05307946 0.026543561 0.027434139
000340 36 ac a0 3d 7c 9e 60 3e 6b 78 b9 bc d4 98 84 3c
       0.07845347 0.21935457 -0.022640428 0.016186155
000350 a7 ce e2 bc 50 82 c4 3c 82 53 33 bd eb 9c 3d 3e
       -0.02768643 0.02398792 -0.04378081 0.1851689
000360 70 5f 19 be cd 67 03 3c d7 f7 1e 3d 46 43 a8 3d
       -0.14977813 0.0080203535 0.038810577 0.082159564
000370 3c 54 ef bd d6 b0 3e 3c 29 9f e5 3d 24 5e f6 3c
       -0.11685988 0.011638841 0.11211998 0.030074187
000380 91 aa d8 bd d4 ed 0c 3f 73 9f 26 bf 12 8c 00 3c
       -0.10579408 0.55050397 -0.6508705 0.007845895
000390 07 07 9c 3d a5 68 38 3e c4 63 79 bd 84 70 03 3f
       0.07618528 0.18008669 -0.06088616 0.5134356
0003a0 2c 27 9c 3c 19 d9 5b be 87 f9 d4 3d 31 fc 9a 3e
       0.019061647 -0.21469535 0.10399156 0.30270532
0003b0 98 3a 88 3d fc a1 fe 3d e9 50 0e 3f 8e 8a e2 3d
       0.06651801 0.1243324 0.5559221 0.110615835
0003c0 6d be 9b 3f 6e 7f 61 bf 98 80 90 be 00 7d 30 3d
       1.2167488 -0.8808507 -0.2822311 0.04308796
0003d0 99 22 32 bd c0 68 2c 3d 24 f0 8a 3d ef 9a d9 bd
       -0.043490026 0.042092085 0.067840844 -0.10625254
0003e0 65 44 fc 3d 1d 74 ae 3e 56 a4 6c bf 73 c6 79 3d
       0.12317733 0.34072962 -0.92438257 0.06098027
0003f0 f4 3d c9 bd a5 a2 31 3e 43 05 c4 3d 38 bf b4 bd
       -0.0982627 0.173472 0.09571316 -0.088255346

linear_layers.0.bias f4 [64]
000000 78 d2 a6 bd 4e 4f 3e be db b2 50 bf eb 00 09 bf
       -0.081456125 -0.1858494 -0.8152291 -0.53517026
000010 7a 29 48 be bd f4 bc be 3f 8f 09 3e d9 f9 66 3d
       -0.19547072 -0.3690547 0.1343355 0.056390617
000020 20 42 8d be 8c de f3 bd aa a1 ef 3e a5 b8 38 be
       -0.27589512 -0.11907682 0.46803027 -0.18039186
000030 2d b9 5c bd ea fc 64 bf 17 d4 cd bd 91 74 06 be
       -0.053887535 -0.89448416 -0.100502186 -0.13130404
000040 6d 91 8f 3d 47 7a b7 be a2 c2 10 3d fb 28 47 3e
       0.0701016 -0.35835478 0.035341866 0.19449227
000050 db 42 37 bf 62 1d 4c be 3a 9d ce be 64 09 48 be
       -0.7158639 -0.19933084 -0.4035433 -0.19534832
000060 3b b6 68 bd e6 54 c8 3e da c0 ab bd 1f 5f cc 3c
       -0.056814414 0.39127272 -0.08386393 0.024947701
000070 c5 b0 b3 3d 8a 69 10 bf 28 63 98 3d f7 02 da bd
       0.087739505 -0.5641104 0.074407876 -0.10645097
000080 5c 98 9b be 08 3f 56 bf 9c c4 d8 3d 31 3d 6a bc
       -0.30389678 -0.8368993 0.10584375 -0.014296816
000090 de 4d e6 bd 08 bf 8b bf 2e 10 5d bf 37 6f 84 be
       -0.11245321 -1.0917673 -0.86352813 -0.258661
0000a0 c2 4e 85 be 41 77 30 bc 29 6c 8d be f1 b5 13 bf
       -0.2603665 -0.01077062 -0.27621582 -0.57699496
0000b0 ba 52 4a 3d 43 e2 1e bf 74 fb c7 be 4c 05 92 3e
       0.0493953 -0.62064 -0.3905903 0.28519666
0000c0 18 46 8c be 71 66 3f be 32 70 a1 bd f8 e1 f3 bc
       -0.27397227 -0.18691422 -0.07882728 -0.029770836
0000d0 b4 57 08 bf 1c 35 27 be 9f ce b6 3d 2f cc ce 3d
       -0.53258824 -0.16328853 0.089261286 0.10097539
0000e0 55 7a 9f be 7e 49 a7 be 56 f2 8a ba 7c 1d 4a 3e
       -0.3114802 -0.32673258 -0.0010600786 0.1973781
0000f0 53 6c 61 be 9f 0f 5a be b3 62 5a be 0c 03 dd 3d
       -0.22013979 -0.21295021 -0.21326713 0.10791597

linear_layers.1.weight f4 [32, 64]
000000 63 ac bf 3d f5 7d e3 be b6 07 e6 3c 53 1e 99 3f
       0.09359052 -0.44432035 0.028079849 1.1962379
000010 2e 3b a0 3d f2 ad dd 3d d3 5b 6f bc e8 7c 27 be
       0.07823788 0.10824193 -0.014609295 -0.16356242
000020 39 42 8f 3d 00 21 35 3e ce e4 bd be ab 95 bd 3d
       0.06995053 0.1768837 -0.37088627 0.092570625
000030 b5 c7 16 3e 6a 55 89 3d 92 21 80 3d ba ab 2d 3e
       0.1472462 0.067057446 0.06256403 0.1696004
000040 0d e7 40 be 4f 37 cf ba be 1a b6 3d 82 f1 80 bd
       -0.18838139 -0.001580933 0.088918194 -0.06296064
000050 a5 0e 29 3c 7f d4 a2 3e 41 da 96 3e 9a 70 ce bd
       0.010318433 0.31802747 0.2946339 -0.10080071
000060 40 a2 aa 3d 34 d8 f2 be dd 46 dd bd 2a f8 15 3e
       0.08331728 -0.47430575 -0.10804532 0.14645448
000070 53 fb 24 3d 95 26 d5 bb 07 71 a1 bd e3 e5 9b 3c
       0.040278744 -0.0065048435 -0.078828864 0.019030517
000080 fe 77 63 3e bc 1c b6 3d b2 82 37 3e 48 d6 a5 3d
       0.22213742 0.088921994 0.1792095 0.080975115
000090 78 45 0b 3e 51 25 80 bc 6a 20 29 bc fa 32 ae 3d
       0.13600719 -0.015642794 -0.0103226695 0.08505817
0000a0 66 ae 06 3e 96 94 61 bd 55 58 36 bc bc 7e 18 3f
       0.13152465 -0.055073343 -0.011129458 0.5956838
0000b0 59 ed 70 be 52 b4 13 bc cf 08 1c 3d ac cc 1a bf
       -0.23528041 -0.00901516 0.038094338 -0.60468554
0000c0 db 00 ee 3e 29 f2 0a 3d 09 0b 4c 3d 1d e1 51 be
       0.46485028 0.03392235 0.04981521 -0.2049603
0000d0 29 9c 86 3c ae ef 4d 3d 77 a4 80 3d 70 e5 9f 3d
       0.016431885 0.050277404 0.06281369 0.078074336
0000e0 e7 73 53 3d 1c 49 d7 bc 24 8c 91 bd d6 7d 8f bf
       0.051624205 -0.026279978 -0.07106808 -1.1210277
0000f0 78 9a 2b 3e cd 14 73 3e 69 23 0f 3d c6 62 3b 3d
       0.16758144 0.23738404 0.03494588 0.045748495
000100 fb ab bd bd e8 38 5c bd 0f 26 ce 3d 44 5b ac be
       -0.09261318 -0.053765208 0.10065853 -0.3366338
000110 73 8f de 3e aa b4 c9 be cd 47 27 be f9 0f c9 be
       0.43468818 -0.39395648 -0.16335984 -0.3927
000120 54 95 96 3d 5c 3d 02 3e 5b 55 83 3e fe 97 6b be
       0.07352701 0.12718719 0.2565106 -0.23007199
000130 8e 8a cb 3d 2c d7 c4 3d 65 f0 3e 3e cb 1e e0 3e
       0.099385366 0.09611353 0.1864639 0.43773493
000140 ac 06 09 be 65 3f a2 3d 0c b1 a4 bd 41 a4 ae 3e
       -0.13381451 0.07922248 -0.080415815 0.3410969
000150 6b 30 6d 3c 77 76 9b 3e 2c c5 3d be 75 05 dc 3c
       0.014476876 0.3036382 -0.18532246 0.02685807
000160 26 2d bf be ee 51 09 3e 30 17 07 be 13 6b 14 be
       -0.37339133 0.1341016 -0.13192439 -0.1449397
000170 71 ae b2 3d 9d 29 17 bc 0f 86 25 be fc 82 51 be
       0.08724678 -0.00922623 -0.1616442 -0.20460123
000180 0c de 23 bd 8d 61 46 3d 1e 41 2e 3e 27 6b cf 3e
       -0.040006682 0.048432875 0.17017028 0.40511438
000190 2a 78 09 3d 0f c6 83 3d d9 f5 be 3c 5c 57 10 3d
       0.033561863 0.06434261 0.023310589 0.035239562
0001a0 30 96 9d 3d f4 a9 3b 3e 9e 76 f7 3c c0 00 92 bd
       0.076946616 0.1832655 0.030207928 -0.07129049
0001b0 ab 59 67 be 45 d7 1b 3d b1 e0 85 be c7 f2 19 bd
       -0.225928 0.038047094 -0.26147988 -0.037585046
0001c0 08 06 e1 be 45 dd 1e 3e 0d 00 40 ba d0 64 ae 3e
       -0.43949914 0.15514095 -0.00073242263 0.3406129
0001d0 7c 32 8f be 02 8d 01 3e 47 e4 97 ba 97 e4 96 3e
       -0.27968204 0.12651446 -0.0011588418 0.29471275
0001e0 75 05 87 3d 0e 80 d8 3e 01 b7 1f be ec 34 c9 3c
       0.06592838 0.42285198 -0.15597154 0.024561368
0001f0 16 fb 21 bd dd 50 20 3f 88 08 95 3d 15 c3 ae 3e
       -0.039546095 0.6262339 0.07277018 0.3413321
000200 6a 01 f1 3c 69 b3 f2 be 69 79 40 bc b6 5c a7 3e
       0.02941962 -0.47402504 -0.011747696 0.3268792
000210 1b e6 84 be a9 46 10 3e 9c d8 8d be 30 a7 30 bd
       -0.25956807 0.14089455 -0.27704322 -0.043128192
000220 0d 21 8c 3d b1 23 de bd 40 3b 60 be b0 7e 10 3f
       0.068422414 -0.10846651 -0.21897602 0.5644331
000230 5a d5 5f bc 72 32 27 bc 46 a6 55 3e 01 bf 24 3e
       -0.013661707 -0.010204898 0.2086421 0.16088487
000240 c9 9e 8b bd 23 5f 02 3e 03 c0 8d 3e da 94 cc be
       -0.06817395 0.12731604 0.27685556 -0.39957315
000250 4a 4c 4f 3c 0d dc 20 be 42 80 26 3d 50 51 d4 3e
       0.012652466 -0.15708943 0.04064966 0.41468287
000260 d6 f4 8c 3d c6 46 12 bf f1 17 7c be 54 dc 65 bd
       0.06882636 -0.5713924 -0.24618508 -0.056118324
000270 24 d8 06 be c7 df d1 bd 8c aa d1 bd 6c 2a cd 3e
       -0.13168389 -0.1024776 -0.10237607 0.40071428
000280 a3 da 39 bd 2b 9a 68 3b bc 31 80 3e 4c 47 4b 3e
       -0.045374524 0.0035492282 0.25037944 0.19851416
000290 6a 0e c8 3e 47 11 63 3c 83 86 55 bc a8 e1 82 be
       0.39073497 0.0138591 -0.013032558 -0.25562787
0002a0 4a dc 45 3e ce 73 58 3e 8e 3f 38 bd dc e8 dd 3e
       0.19322315 0.21137926 -0.044982485 0.4334172
0002b0 b2 02 e9 3d 9e f7 00 3c 6a 91 3a bd b0 a6 9f be
       0.11377467 0.007871537 -0.045548834 -0.3118186
0002c0 99 53 56 be fd 32 9d 3d 87 7d 69 bd c3 d6 5b be
       -0.20930327 0.07675741 -0.057004478 -0.21468644
0002d0 18 20 b7 bd da c0 8c be 2a 38 69 3e 6c 38 2f 3e
       -0.08941668 -0.27490884 0.22775331 0.17111367
0002e0 94 72 35 3e 72 f3 9f 3d 5c 0a 1a be 88 15 dc be
       0.1771949 0.078101054 -0.15043014 -0.42985177
0002f0 c8 6e 83 be b2 b7 4d be c5 4a 35 bd 2b 00 f6 3e
       -0.25670457 -0.20089605 -0.04426076 0.48047003
000300 aa 65 65 bb 68 69 de 3c 84 f8 c3 3d 30 ad f7 bc
       -0.0035003223 0.027149871 0.09568885 -0.03023395
000310 78 c1 52 3e e2 ba 25 be 99 83 61 3e b6 e5 50 bd
       0.20581615 -0.16184571 0.22022857 -0.05100032
000320 b0 8a c6 3d 5b 5e c6 be 2c dd 14 3e 9c 95 e9 bd
       0.09694421 -0.38743863 0.14537495 -0.11405489
000330 d1 74 05 3d cd 10 0e 3d f8 b2 80 bd 14 b6 7c be
       0.032582108 0.03468399 -0.062841356 -0.24678832
000340 0a 2a f3 3c 9b 31 52 3d 7e fd fb 3b 69 7d e2 3c
       0.029683132 0.05131684 0.0076901307 0.02764769
000350 2c c7 10 3c 73 af 3a be 71 ed 3a bc cd 3e d1 3d
       0.008836549 -0.18230991 -0.0114091495 0.102170564
000360 66 9a 2e be 92 75 16 bd 50 51 57 3d c1 f9 88 be
       -0.17051086 -0.036733218 0.05256778 -0.26753047
000370 8b 34 a3 bd 0c b3 6c bd 68 c1 98 3e 84 b5 76 be
       -0.07969006 -0.05778794 0.29835057 -0.2409268
000380 02 eb 3c 3b b2 5e 31 3d dd 31 11 bd 48 54 81 be
       0.00288266 0.0433032 -0.035447944 -0.25259614
000390 e6 e6 16 bf 29 4d a0 3d 36 97 77 3c 07 63 67 3e
       -0.58946073 0.07827217 0.015111735 0.2259637
0003a0 4c 1a 85 bd b7 e8 6c 3d 14 12 ad b9 ae 44 6b bd
       -0.06499156 0.05783912 -0.000330106 -0.057438545
0003b0 9c 6b 03 bd 0f c2 25 3c cf 91 49 3d bd 28 a5 bd
       -0.032085046 0.010117068 0.04921132 -0.08064411
0003c0 da 8f c1 bd b0 fe d9 bd 28 d8 ab bc d8 69 fc bd
       -0.09451266 -0.10644281 -0.020977095 -0.123248756
0003d0 44 a8 10 be 08 db 65 3d e2 74 6b 3b 93 37 14 3e
       -0.14126688 0.056117088 0.0035927822 0.14474325
0003e0 43 76 90 be 0a db 51 be 6c 30 cc 3c 76 41 1b be
       -0.28215227 -0.20493713 0.024925433 -0.1516169
0003f0 e3 7d f9 3c 1f a8 88 be 98 eb 99 3e 5f f5 30 be
       0.030455535 -0.26690766 0.30062556 -0.17281102

linear_layers.1.bias f4 [32]
000000 47 70 f3 bd 65 2b 8f be 53 9f 9d bc 88 04 ca be
       -0.118866496 -0.27962795 -0.01924101 -0.39456582
000010 d3 2e 48 3e 26 f6 d3 be 79 1b 0b be 8a 83 83 3d
       0.19549112 -0.41398734 -0.13584699 0.064215735
000020 d9 02 53 bd 5e 6c 89 be 99 19 17 3d 3f f0 f7 bd
       -0.051516388 -0.2684049 0.036889646 -0.1210637
000030 f7 47 af bc cd bc d9 bd 71 1f 16 3f 72 22 a5 be
       -0.02139662 -0.10631714 0.58641726 -0.32252842
000040 9d 7e af bb e9 28 fc 3d 49 d9 b3 be 42 af 4b bf
       -0.0053556697 0.123124905 -0.35126713 -0.795643
000050 5f cf 98 bd db bf 71 bc c6 ee 66 bd cd 47 95 3e
       -0.07461428 -0.014755215 -0.056380056 0.29156342
000060 73 3d a1 3d 3b 0c 85 bd 82 38 74 be d5 cf c9 bd
       0.07873049 -0.064964734 -0.23849681 -0.09854094
000070 83 80 71 3e 03 6a 18 3e d1 90 44 bd 39 17 d3 be
       0.2358418 0.1488419 -0.04798967 -0.41228655

linear_layers.2.weight f4 [6, 32]
000000 de e4 65 3e 8b 43 50 be 5b ad 02 3e 4e f9 90 3e
       0.22450587 -0.20338266 0.12761442 0.28315204
000010 b2 84 94 3d 67 8d 2f 3e 15 59 26 3e 5a c4 44 3e
       0.07251872 0.17143784 0.1624492 0.19215527
000020 33 13 e5 bd f2 9f b3 be c5 54 e9 be eb 28 65 be
       -0.111853026 -0.35082966 -0.45572487 -0.2237889
000030 12 23 2b bc 83 0b b4 3d de 9a a6 be 44 be a4 3b
       -0.010445373 0.08791258 -0.3254003 0.0050275642
000040 23 97 0c 3e d1 bd 44 3e 39 85 d1 bd de 00 49 be
       0.13729529 0.19213034 -0.10230488 -0.19629237
000050 02 83 0e be d1 6a d4 be 4f e2 e0 bd 80 d8 25 3e
       -0.13917163 -0.41487744 -0.10980665 0.1619587
000060 b2 f6 65 3e c7 07 90 be f8 05 cf be 3b d7 1b 3e
       0.22457388 -0.28130934 -0.4043424 0.15218823
000070 2f fe 48 be 85 9a b0 bd 8b 23 1c bd 8d 70 30 3d
       -0.19628213 -0.08623222 -0.038119834 0.043076087
000080 8b e4 5d 3e 8e b6 fa 3c 2a c3 35 3e ea ad 93 3d
       0.21669213 0.030604627 0.1775023 0.07210906
000090 02 ea fe bd 4f 8d 39 3e a9 c4 25 3e da 86 7d be
       -0.12446977 0.18120311 0.16188301 -0.24758473
0000a0 47 e8 a4 be 3d 2c c5 be 2d 85 d3 be ce 7d 62 be
       -0.32208464 -0.38510314 -0.41312543 -0.22118303
0000b0 fd 2f a1 3c 37 0e fd 3d ff 42 60 bd 02 e3 53 3e
       0.019676203 0.12356227 -0.054751392 0.20692065
0000c0 50 5b 40 bd 65 51 40 3e 72 ad d6 bc 4d 63 69 be
       -0.046962082 0.1878105 -0.026205752 -0.22791786
0000d0 8f 5c 1b 3e 82 ea d6 be c6 5c f2 bd 70 26 26 3e
       0.15172027 -0.4197579 -0.118341014 0.162256
0000e0 8c 5f 5e 3e c5 b3 21 3e 86 e9 d6 be 5a d3 30 be
       0.21716136 0.15791233 -0.4197504 -0.17268124
0000f0 24 8d b0 be 60 7f a2 be 65 98 f6 bd 22 03 e4 3d
       -0.34482682 -0.31737804 -0.12040786 0.1113341
000100 8f 3c ea be a2 5f 3c 3e da ec d8 3e 4b 0c 3f bf
       -0.45749328 0.18395856 0.42368203 -0.7462813
000110 61 f4 bd bf 78 46 6e bf 09 d8 59 be 85 3f 3e 3f
       -1.4840204 -0.93076277 -0.21273817 0.74315673
000120 2c dd 0e 3f 86 c3 77 bf d6 2a 65 3e b9 d7 46 bf
       0.5580623 -0.9678272 0.22379622 -0.77672917
000130 c5 d2 74 3e 5c 4f e4 bd 92 a1 db 3d b5 62 28 3e
       0.23908527 -0.11147949 0.107241765 0.16443904
000140 de 88 19 3f 91 98 91 be d6 fa e3 3e 4b 34 ec 3f
       0.5997447 -0.2843671 0.4452731 1.8453459
000150 e5 b7 f2 be b7 26 9e 3e 6e 2d 08 3d a5 e4 1c bf
       -0.47405925 0.30888912 0.03324645 -0.61286384
000160 6b e5 81 bf c6 83 3c 3e 8c b3 33 3e e9 90 03 bf
       -1.0148138 0.18409643 0.1754896 -0.5139299
000170 cb 07 7c bd c8 91 ad be ed 25 bf 3d 1a f4 be 3c
       -0.06153087 -0.33900285 0.09333406 0.023309756
000180 ee fc 45 bf f8 d5 42 3e ce 22 bc be c7 42 85 3e
       -0.77339065 0.19026935 -0.36745304 0.2602751
000190 f4 1d 60 3d 53 67 31 bf e1 b4 ae be 4a e9 d9 bd
       0.054716066 -0.69298285 -0.34122375 -0.106401995
0001a0 01 7e 1b 3e cb 85 1c be 36 bf 87 3e fd 10 f1 3d
       0.15184785 -0.15285413 0.2651307 0.117708184
0001b0 82 0f b0 3d fa b4 a4 3d 5f 4a 00 bf 07 27 92 3d
       0.08596708 0.08042331 -0.5011348 0.0713635
0001c0 0e f7 8a bc 2b 91 3d 3e 95 7d f2 bd 1f 39 d7 bd
       -0.016963508 0.18512408 -0.11840359 -0.10508942
0001d0 cc db ab be 7d 87 03 bf 40 5a ff 3c 9c 2d 28 3e
       -0.3356613 -0.51378614 0.031170964 0.16423649
0001e0 f8 c1 5b 3e f9 1f 02 3e 4e 5f e1 be 69 fb 34 3e
       0.21460712 0.12707509 -0.44018024 0.1767403
0001f0 6a b7 e3 be 4a 23 0d 3d 11 07 dc 3c 33 7c 90 3c
       -0.4447587 0.034457482 0.026858838 0.017637348
000200 40 52 c4 bd 89 27 5e be 9b 98 91 be 43 7d 91 be
       -0.095860004 -0.21694769 -0.2843674 -0.2841588
000210 ff 20 04 3e f7 e7 76 be 8a 50 be be fe 54 ba 3d
       0.12903212 -0.24111925 -0.3717082 0.09098242
000220 5a 41 fd bd b6 d1 24 3e 92 ae 6e 3e 22 5c 87 3e
       -0.123659804 0.16095623 0.23308781 0.2643748
000230 6c ff b1 3e fe 00 3b be 05 52 8b 3e d6 93 44 be
       0.34765184 -0.18262097 0.27211013 -0.1919702
000240 fe 1a d0 be 0d c1 16 bf 5a fa 21 3e a2 32 73 be
       -0.40645593 -0.5888832 0.15818158 -0.23749784
000250 70 ad 4b 3e cd e1 99 3e 20 4a 47 3d 16 17 15 bf
       0.1989038 0.30055085 0.048654675 -0.5823835
000260 56 c3 62 be 41 c4 09 bd ad 42 91 3e 25 0f 0b 3e
       -0.22144827 -0.033634428 0.28371182 0.13579996
000270 b5 bb 47 3e d9 d9 b5 3d 2e 92 8d b9 b7 f9 09 be
       0.19505198 0.08879442 -0.00027002528 -0.13474165
000280 0e 56 d6 bd 57 b5 2b be 35 02 9f be 06 75 72 be
       -0.104656324 -0.16768394 -0.3105637 -0.23677453
000290 5e 2a 08 3e 30 57 60 be 42 aa 9d be 67 62 40 bd
       0.13297412 -0.2190826 -0.3079396 -0.046968844
0002a0 02 31 ee bd 04 5b 21 3e a0 fe 73 3e 24 e9 85 3e
       -0.11630441 0.15757376 0.238276 0.26154435
0002b0 0a e0 18 bf 0c f7 dd be 66 63 8b 3e ed 73 f2 bd
       -0.59716856 -0.43352544 0.27224272 -0.11838517
0002c0 41 29 cd be b5 92 5b be e4 16 07 bb b4 e8 64 be
       -0.40070537 -0.21442683 -0.002061301 -0.22354394
0002d0 43 eb 53 3e e5 89 9c 3e 2a cc fd be c5 30 11 bf
       0.20695214 0.30573955 -0.49569827 -0.5671504
0002e0 20 22 02 bf ab 93 f4 bd 33 93 93 3e 5e df 14 3e
       -0.5083332 -0.11942228 0.28823242 0.14538333
0002f0 80 bd 43 3e 22 18 c0 3d b3 f1 27 be 1e 6e cd 3d
       0.19115257 0.09379603 -0.16400795 0.10030769

linear_layers.2.bias f4 [6]
000000 2e 5c 76 3e 3e ae 12 3e 77 0f 8e be 29 38 89 be
       0.24058601 0.1432428 -0.27746174 -0.2680066
000010 4f 08 11 3e 50 6d 8e 3e
       0.14163326 0.27817774
