LTNtorch/LTN_IoMT/LTN_big_6classes.pth (torch, 23714 bytes, 6 tensors)

linear_layers.0.weight f4 [64, 45]
000000 aa 00 85 3d 0e 8f d0 39 2c 4d 3b 3e fe 6c 82 3c
       0.06494267 0.00039779436 0.18291157 0.015921112
000010 b3 01 9a 3d 6a 7a e3 bd 85 54 5f bc 0a 74 2c 3d
       0.07519855 -0.11107333 -0.013630991 0.04210285
000020 46 16 df 3d fc 27 81 3d 82 fc 46 3d 08 30 26 bc
       0.1089292 0.063064545 0.048580654 -0.0101432875
000030 38 fb 75 bd 1c 48 39 3d 25 6c dd bd ab 6e a0 3e
       -0.060054034 0.045234784 -0.108116426 0.31334433
000040 3d dc ef bb b7 bd 70 3e 81 28 e4 bb 1e 25 db b9
       -0.0073199556 0.2350987 -0.0069628363 -0.0004179859
000050 69 fe fb bd 31 ed 3b 3e 0a 6c 1d be 89 4b fd 3d
       -0.12304384 0.183522 -0.15373245 0.12367923
000060 7c 91 fe bd 67 95 03 be 95 31 0a bd f9 08 05 3e
       -0.12430093 -0.12849961 -0.03373869 0.12991704
000070 44 21 3c 3d 2c 3d 07 bb ce ed c9 bc 49 a1 6a bd
       0.045930162 -0.0020635827 -0.024649527 -0.05728272
000080 6c 69 f1 3b 42 c1 c0 3d ef 9b 52 bd 10 94 08 be
       0.0073673036 0.09411861 -0.05141824 -0.13337731
000090 90 ae 84 bd 85 f2 0b be 3e 26 5c 3e 28 43 3d 3e
       -0.06478608 -0.13666733 0.21498963 0.1848265
0000a0 10 46 4d bd eb 72 12 3d c2 5a c8 3d 3c c0 e7 3d
       -0.050115645 0.035754126 0.09782936 0.11315963
0000b0 e8 f7 b7 3e 0d 8f 9c 3d 20 81 20 3e e7 82 6a bd
       0.35931325 0.07644472 0.15674257 -0.057253744
0000c0 b5 ec af 3d 87 f3 85 3d 9f cf e0 3d d4 48 a4 bd
       0.0859007 0.0654059 0.109771006 -0.08021703
0000d0 e6 d5 82 be 3f ce 36 be a5 eb 9a 3c 18 23 1f 3d
       -0.25553817 -0.17852114 0.018911192 0.038851827
0000e0 a1 ac 03 3e 44 4b 4b 3d f5 37 a2 3d 5f f9 90 3c
       0.12858821 0.049632326 0.07920829 0.017697034
0000f0 a9 03 8a be 78 0c 84 3e d9 31 50 3e 4d 6c f1 3d
       -0.26955917 0.25790763 0.20331515 0.11788235
000100 3f 34 2a 3e 5b 80 12 3d 62 be 80 bd f8 70 34 3d
       0.16621493 0.03576694 -0.06286313 0.044053048
000110 96 36 64 bb 7e e8 5e be 2e f1 82 3c 49 60 9a bd
       -0.0034822575 -0.21768376 0.015984144 -0.07537896
000120 fd e7 fb 3d ec 49 f5 3d 5c e3 e6 3d b5 3a 7f 3d
       0.12300108 0.1197699 0.11273834 0.062311847
000130 6d a6 5c 3d 38 d6 cf 3d d7 cc 48 3e ff 56 03 3e
       0.053869653 0.10148281 0.1960939 0.12826155
000140 f3 ac 89 bd cf 11 88 bd 57 62 41 3d e9 7e ad 3d
       -0.067224406 -0.06644022 0.047212925 0.08471472
000150 09 e0 00 be 7e 7a 38 3c 02 d9 7f 3b 1d e2 d2 bd
       -0.12585463 0.011259673 0.003903926 -0.10297034
000160 84 26 28 3e 7b 27 ef 3d 7f bf 72 bd a3 ee 15 bd
       0.16420943 0.11677452 -0.059264656 -0.036604535
000170 95 11 06 bc b0 9f 69 3d f4 55 14 3c 04 39 96 3c
       -0.008182903 0.057037055 0.009053696 0.018337734
000180 2b c3 4f be dd 41 60 3e 18 cc 68 3e 4c 62 98 bd
       -0.20289294 0.21900125 0.22734106 -0.07440624
000190 b1 e9 87 bd 0f a5 3d 3d b6 cf 0f 3e 87 84 56 bd
       -0.0663637 0.04629999 0.14044079 -0.05237248
0001a0 69 e1 da be a1 08 6d 3e 2f aa 88 3d e3 eb e3 b9
       -0.427501 0.23147823 0.06673085 -0.00043472563
0001b0 1a 00 82 bc 32 22 9c 3d 08 58 31 be ab 17 2c 3e
       -0.015869189 0.0762371 -0.17318738 0.16805904
0001c0 0f f1 45 bc cb fb 89 bd 99 f2 59 bd 31 25 b8 bd
       -0.012081399 -0.06737479 -0.053209875 -0.08991469
0001d0 62 46 90 bc eb 28 8c bd b9 df cf 3d 30 14 c8 3d
       -0.017611686 -0.06843742 0.101500936 0.097694755
0001e0 07 50 e6 bc d9 3b a7 3d 88 71 ba bd f3 e3 5a 3d
       -0.028114332 0.08165712 -0.091036856 0.053440046
0001f0 ea 0b 94 3d 24 07 17 3d df 2c e0 bc d4 ff d2 bd
       0.07228835 0.036872044 -0.027365146 -0.103027016
000200 47 90 da 3c 47 5d 43 3c 85 07 fb bd 30 83 9d 3d
       0.026680125 0.0119240945 -0.122572936 0.07691038
000210 fb 0a 30 3d 91 05 b6 bd da 30 b6 bd e1 15 3e be
       0.04297922 -0.088877805 -0.088960364 -0.18563034
000220 61 9d a2 3c 10 6d 16 3e e6 5a 8b bc 3d 65 93 bd
       0.019850435 0.14690042 -0.017011117 -0.07197044
000230 6e 58 0f 3e e4 40 5b 3e 2c 23 35 be 73 af 9b 3d
       0.13998577 0.21411473 -0.17689198 0.07601824
000240 f8 ac 11 3e 21 56 59 3e 6d ab c1 3d f5 b1 40 3d
       0.14226139 0.21224262 0.09456525 0.047044713
000250 9a 69 88 3e 62 f1 98 bd e1 5b a3 3e dc 6e 87 3d
       0.26643068 -0.07467915 0.31906036 0.066129416
000260 f2 cc 1b 3e 9e e7 8b 3d 71 c6 b0 3d 6c 6c 11 be
       0.15214899 0.06831287 0.086316 -0.14201516
000270 37 23 3d be 1e ec 42 be e4 69 c0 bb 05 6b 1e 3d
       -0.18470465 -0.19035384 -0.005871998 0.03867628
000280 df 22 ec 3d a8 cb 9a 3d 7a 1e 23 3d c9 fa 99 bd
       0.11530089 0.075583756 0.039823987 -0.075185366
000290 75 da 97 3d a6 65 a3 3d 5e 6d de bd 0c c0 5b 3d
       0.07414714 0.07978372 -0.10860704 0.053649947
0002a0 9b a1 8b 3d 79 6a 00 bd 2b c2 01 be 52 b2 96 bd
       0.06817933 -0.03135154 -0.12671725 -0.07358231
0002b0 1b 7d f7 3d 8c 1a 26 be c8 68 9a bc 48 32 9e 3d
       0.12084409 -0.16221064 -0.018848792 0.07724434
0002c0 97 b1 e1 3d 21 03 cd bd e2 0e 21 3e 90 76 e4 3c
       0.11020201 -0.100103624 0.15728334 0.027888566
0002d0 8e 5e 89 bd f7 0c 21 3b 61 b1 5d bd 94 e4 16 3d
       -0.06707488 0.0024574378 -0.05412424 0.036839083
0002e0 12 e9 29 be 53 e1 af 3d fa 0e 6f be 89 6c 78 3d
       -0.16592816 0.08587899 -0.23345557 0.060650382
0002f0 69 33 85 3e d0 73 0e be e1 6e 1e be 59 11 c1 3d
       0.26015785 -0.13911366 -0.15471984 0.09427137
000300 4b 2b 67 bd f4 51 ca bd d8 36 47 3e 0c 1f 21 be
       -0.05643777 -0.098789126 0.19454515 -0.157345
000310 3a 93 4f bc b5 35 03 be f0 51 e1 3c f7 0f f9 bd
       -0.012669379 -0.12813456 0.027504891 -0.12161248
000320 2d 59 cd bc 14 8f 7f 38 32 c4 1d 3d 5b fe 1a 3b
       -0.025066936 6.092999e-05 0.038517185 0.0023650143
000330 99 c5 a3 3d e2 7f ef bb a8 7c d4 bd 7c 9b 2b 3d
       0.07996673 -0.007308946 -0.10375339 0.04189633
000340 de 54 f6 bc 09 f4 78 3d 15 2a c1 3b 7e 8d dc 3d
       -0.030069765 0.060779605 0.005894909 0.10769175
000350 58 6f 96 bb 15 5f 71 3d 7c ef 81 bb d0 4a 9a 3c
       -0.00459091 0.058928568 -0.0039653163 0.018834502
000360 64 0b aa 3d 61 76 d0 3d 68 b6 ef bb e0 90 97 3c
       0.08302954 0.10178829 -0.0073154457 0.018501699
000370 79 99 b3 3d 3d 2a 9a bd 5b 58 64 bc ab 2b 3e be
       0.08769507 -0.075275876 -0.013937081 -0.18571346
000380 4f ef c7 3d ca bc ba bd 8d 43 ea 3d ea 9d b6 3d
       0.09762441 -0.0911804 0.114386655 0.089168385
000390 90 01 46 bd cd 49 83 3c d8 9c ad 3d 18 38 ce 3d
       -0.048341334 0.016026402 0.08477181 0.10069293
0003a0 4e b8 b6 be 0b 26 7f bc 71 fc 59 bd c6 b6 4b 3e
       -0.35687488 -0.015573035 -0.053219263 0.19893941
0003b0 00 99 78 b9 05 46 0a be 2e 15 70 3d b3 25 80 bd
       -0.0002370812 -0.13503273 0.05861395 -0.062571906
0003c0 fe 66 13 bc c3 82 b4 3e 28 06 81 3e 6a 46 28 3d
       -0.008996723 0.35256013 0.2520001 0.041082777
0003d0 0c df df 3d 91 0b f9 bd d3 19 c9 3d 20 2a fa bd
       0.10931215 -0.12160409 0.09819379 -0.12215066
0003e0 9e 9b 02 be 34 09 06 be 93 80 43 bd 2c 58 48 3c
       -0.12754676 -0.13089448 -0.04773004 0.012228053
0003f0 30 8d 0d bd f0 7b ee bd 8a 5a c8 3d e4 05 91 bd
       -0.034558475 -0.11644733 0.09782894 -0.07081202

linear_layers.0.bias f4 [64]
000000 50 7e 89 be 84 6c 11 be 20 e6 98 bc 18 c0 8d 3d
       -0.2685418 -0.14201552 -0.01866442 0.069214046
000010 8f 82 89 3d 49 b4 5a bd 4e 57 17 bd a5 c1 c8 3d
       0.06714355 -0.05339459 -0.036948495 0.0980256
000020 f7 3f 72 bc cd 5d e5 3d 7c 70 3f 3d 0f d7 4e bd
       -0.014785758 0.11199532 0.046738133 -0.050498065
000030 85 62 cb 3d bd 46 f7 3d c5 db d3 3c f8 e5 b3 3d
       0.099309005 0.12074039 0.02586163 0.087840974
000040 ef 1b 24 3e 72 fa c0 bd d9 ac fe 3d 10 87 41 3e
       0.16026281 -0.09422769 0.12435312 0.18899179
000050 c9 83 49 3e 59 90 35 be 03 51 75 bd 44 ac bc 3d
       0.19679178 -0.17730846 -0.059891712 0.092125446
000060 96 9f 2f be 51 18 ce 3d eb ea bb bc 94 26 8c 3d
       -0.17150721 0.10063232 -0.022939166 0.06843296
000070 b2 7c 14 3e 9a 73 a3 bc dd fc f2 bd f1 74 02 be
       0.14500692 -0.019952584 -0.11864636 -0.12739922
000080 46 ef 77 bc 87 88 b1 3c 52 45 05 3e 8b 0e 34 3e
       -0.015132731 0.021671547 0.13014725 0.17583673
000090 e7 f4 5c 3d 14 29 b8 bd 7e 06 58 3d ce b5 b6 be
       0.053944495 -0.0899221 0.052740566 -0.3568558
0000a0 de 17 81 3d 41 57 b4 bd 27 5f 29 bd 5f 0a 01 3e
       0.063033804 -0.08805705 -0.04135051 0.12601613
0000b0 7b 16 37 3e 99 1e 06 bd dc 00 8f bd e3 03 20 be
       0.1787967 -0.032744024 -0.06982586 -0.15626483
0000c0 ea 62 c8 39 af 4e 87 3d 8e a5 e9 3c 81 de 10 3d
       0.0003822067 0.066068046 0.028521325 0.035368446
0000d0 db 5b 0c 3c 43 35 0c 3e 91 44 5c 3e 65 8e be bc
       0.008566822 0.13692193 0.21510531 -0.023261258
0000e0 2a bc 79 bd 09 9b d9 bc ed c7 b2 bc 8b 1e 56 3e
       -0.060970463 -0.026563184 -0.021823848 0.20910089
0000f0 20 1d 32 be 3e 74 d7 3c 55 c1 46 3c 06 85 9a bd
       -0.17393923 0.026300546 0.012131055 -0.075449035

linear_layers.1.weight f4 [32, 64]
000000 4f 01 19 bd 1a 99 5c bd 74 49 cc 3d 0e c0 ca bd
       -0.037354764 -0.053856947 0.099749476 -0.09899913
000010 d1 69 c0 bd 20 3a 1a 3d 40 1e 18 be 8c b9 13 be
       -0.09395183 0.03765309 -0.1485529 -0.1442625
000020 c4 03 3b 3e a3 98 29 3e fb 5f b5 bd e0 93 ce bd
       0.18263155 0.16562133 -0.088561974 -0.10086799
000030 c9 54 31 3e 85 fa 90 3c 0d 73 58 3d 70 5b 8d 3c
       0.17317499 0.017697582 0.052844096 0.017255515
000040 6e da c9 3c 69 3a 06 be 5b 9f 5a bd 1c f1 04 3e
       0.024640288 -0.13108219 -0.05337463 0.12982601
000050 35 16 12 3d da ac 73 bd 5f 79 c6 bd 0e 07 83 bd
       0.03566571 -0.059491016 -0.096911184 -0.0639783
000060 09 e2 1f 3e c1 9f 07 3e c9 58 b1 bd 0c 40 29 3c
       0.1561357 0.13244535 -0.086595125 0.010330211
000070 27 bb 08 bd 19 ca 9d bd 41 84 bb 3d 46 40 0e be
       -0.033381607 -0.07704563 0.09156085 -0.13891706
000080 1e 51 11 be b5 db 9e 3d 29 9f 20 bd 1e 0d 32 be
       -0.141911 0.077567495 -0.039214287 -0.17387816
000090 63 b2 17 bd 72 f8 25 bc a5 01 83 bd c1 fe 00 3e
       -0.037035357 -0.010130035 -0.06396798 0.12597181
0000a0 61 a0 45 3d 5b d2 44 bd b2 8c 4a 3d fd f4 14 be
       0.048248652 -0.048052173 0.049450584 -0.1454658
0000b0 e7 29 5b be 51 c9 e9 bd d0 f6 06 3e 57 cf 0d bd
       -0.21402703 -0.11415351 0.13180089 -0.034621563
0000c0 06 c8 2f bd 22 87 17 bd dd 90 d8 bd 4e 46 72 3d
       -0.042915367 -0.036994107 -0.105745055 0.05914908
0000d0 11 bc b5 3c 54 e9 8f bd 72 2c 1a 3e 03 f4 2a 3e
       0.022184404 -0.07026926 0.15056017 0.16694646
0000e0 dd 4a 23 3e 38 25 a3 bc 98 22 9c 3d 99 c9 01 be
       0.15946527 -0.019915208 0.07623786 -0.1267456
0000f0 5a f9 da 3d ac bb af 3c 8b 99 31 3d cb 21 1c 3e
       0.10692091 0.021451794 0.04335932 0.15247266
000100 ed 38 df bc d4 4b 23 be ff 57 28 3e ba 04 74 be
       -0.027248824 -0.15946895 0.16439818 -0.23829928
000110 a5 1c 80 3d be 49 a9 be b4 a7 84 3e 5e a1 52 3e
       0.062554635 -0.33064073 0.25909197 0.20569369
000120 3b 4a 42 3e 4e ba 80 3d 9d 38 6e be 0e 4b b3 3d
       0.18973629 0.06285535 -0.23263784 0.0875455
000130 39 81 f8 3d c5 e9 69 be 9a d7 3d 3e ab f8 91 3c
       0.12134022 -0.22843082 0.18539277 0.01781877
000140 a6 c2 88 3e f6 73 98 bd 13 6f 55 3d 0e 91 0b 3e
       0.26711005 -0.07443993 0.05210788 0.13629553
000150 66 e5 0a be b0 d4 bf bd a6 5a 9f be f1 8b b1 3e
       -0.13564071 -0.09366739 -0.31123847 0.3467708
000160 1f 60 46 be 46 c8 33 bd d9 7f e2 bd 8f 3d 03 be
       -0.19372605 -0.043892168 -0.11059541 -0.12816451
000170 9e b0 3b be 26 bd 8b 3e 4a 45 4a be 90 36 8e be
       -0.18329093 0.27292746 -0.19752994 -0.27776003
000180 9b b9 33 be db 28 b8 bd f0 ac 02 3f 26 03 46 3e
       -0.17551272 -0.089921676 0.5104513 0.19337139
000190 15 e6 06 be 16 b9 91 be 40 e7 3d 3e f6 f1 1b 3d
       -0.13173707 -0.28461522 0.18545246 0.03807255
0001a0 1f da 6d be 1c 77 7e bd fb b4 54 be af 87 89 3e
       -0.23227738 -0.06212531 -0.20772164 0.2686133
0001b0 fb 48 95 3e 0c 56 ba 3d 84 4d f1 3d 45 67 b8 bd
       0.29157242 0.090984434 0.11782363 -0.09004072
0001c0 7b 88 1d be ff 03 21 bd 74 42 6d 3d 9d 18 bd 3d
       -0.15384094 -0.03931045 0.057924703 0.0923321
0001d0 0d 68 b4 3e 95 96 07 bd 5d fa 03 be 43 65 d3 3d
       0.35235634 -0.03310259 -0.12888475 0.103220485
0001e0 a1 c2 5b bd 99 88 1c 3e dd 10 0f 3d bb 65 a1 be
       -0.05365241 0.15286483 0.03492819 -0.31522927
0001f0 aa bf e5 bc 66 2e 7f be ff ba ea 3d 9b bf a4 3d
       -0.028045494 -0.24920043 0.11461448 0.08044358
000200 00 3e 40 bd bc 54 d3 bc b5 85 de bc a5 8e 22 3e
       -0.046934128 -0.02579724 -0.027163366 0.15874727
000210 79 10 42 be 36 80 42 3e 30 40 76 bd 79 9c ac bc
       -0.18951596 0.18994221 -0.060119808 -0.021070706
000220 90 f9 a8 bd dd 78 84 bd 82 94 9b 3e 3b 49 30 be
       -0.08250725 -0.06468365 0.3038674 -0.17215435
000230 23 93 dc 3c 14 c6 18 bd 00 ba ef b9 a5 72 fb 3d
       0.026925629 -0.037298277 -0.00045724213 0.12277726
000240 6f c2 97 bd 41 3b e7 3c b8 35 b5 3d f5 10 46 be
       -0.07410132 0.028226497 0.08848137 -0.19342406
000250 81 42 3d 3e 51 9e 0a be ef 3b da 3d 62 04 35 be
       0.184824 -0.13536955 0.10655963 -0.17677453
000260 60 b8 fb bd 5b 8b 58 3d 86 58 0d 3d 7e f3 94 3e
       -0.12291026 0.052867275 0.03450825 0.2909202
000270 1e b7 14 3d 06 41 b0 bd d0 da 50 3e 6e 2c 3f 3c
       0.036307447 -0.08606152 0.2039597 0.011668308
000280 27 2f 20 3e 2c 38 ca 3d 04 88 0f bd b0 86 4e 3d
       0.15642987 0.09873995 -0.035041824 0.050421417
000290 7f 6f 24 3e 05 05 ed 3d 80 b6 dd bd 3f 72 f3 3d
       0.16058157 0.11573223 -0.10825825 0.11887025
0002a0 3e 7f 1a 3e 98 aa dd bd 0c 2d d5 3d 48 cd ca bd
       0.15087602 -0.10823554 0.10408983 -0.099024355
0002b0 25 e3 53 bd 2a cd a0 3d 03 21 20 be e0 b5 76 3d
       -0.051730294 0.07851632 -0.15637593 0.060232043
0002c0 93 e2 ae 3d 8a 7e b6 3d 73 8b ab bd 34 b5 0d be
       0.08539309 0.08910854 -0.08376207 -0.13838655
0002d0 86 7d 38 be 38 2d 6f 3e f9 07 82 3e 5b 11 19 be
       -0.18016633 0.23357093 0.25396708 -0.14948027
0002e0 f6 45 26 be e8 27 41 be 1f f8 4b bd 0c 27 c0 3e
       -0.16237625 -0.1886288 -0.049797174 0.3752979
0002f0 21 e2 99 3d 51 7d 6a 3e 27 ab ff bd 6f 74 dc bc
       0.07513834 0.22899367 -0.124838166 -0.026910989
000300 ad bd 50 bd 02 df 6f be 15 bc ae 3d fc 97 a2 3d
       -0.05096214 -0.23424914 0.085319676 0.07939145
000310 76 27 65 bd a8 f3 1f bd 00 35 57 be 29 e0 53 be
       -0.055945836 -0.039050728 -0.21016312 -0.20690979
000320 1e 57 63 3c 43 45 3b be 88 8a 0f bd f9 12 47 3e
       0.013875751 -0.1828814 -0.035044223 0.19440831
000330 6f 89 5c be 35 09 55 be d2 47 b6 bd ac eb 3d 3d
       -0.21536802 -0.20804293 -0.089004174 0.046367332
000340 ef f7 14 3d 6b 74 64 3d 2e 85 5d be 29 1b 0e bd
       0.03636926 0.055775087 -0.21632835 -0.03469387
000350 02 d0 bb bd 03 be 82 bc 89 d9 82 bd 79 83 5a bd
       -0.09170534 -0.015959745 -0.06389148 -0.05334804
000360 72 f8 a8 3e d8 03 2b 3d ae 61 81 be b8 51 00 be
       0.3300205 0.041751713 -0.25269836 -0.12531173
000370 e5 7d d1 3d 98 34 83 3c 23 a9 1e be b6 b3 37 3e
       0.102290906 0.01601629 -0.15494208 0.17939648
000380 96 79 bd 3b ac 29 7b 3d d8 52 cd 3d ae 92 8f be
       0.0057823164 0.06131904 0.10025567 -0.28041595
000390 b0 c4 48 3e b7 2b 30 be d3 76 09 be 9d 13 90 3d
       0.1960628 -0.17204176 -0.13424234 0.07034991
0003a0 f0 59 82 3e f5 88 91 bd 5b 02 86 3e 97 45 01 be
       0.25459242 -0.071062006 0.26173672 -0.12624203
0003b0 26 dd b5 3c 1a 0d 5c be 49 3d 6d 3e 4f 6c 8a 3d
       0.022200178 -0.21489373 0.2316791 0.067589395
0003c0 ab b3 28 bd b1 2d c8 bd 04 28 6c be 7f 77 fc 3d
       -0.04118697 -0.0977434 -0.2306214 0.123274796
0003d0 04 9e 50 bd 00 6f 2a bc ef 56 25 3c 0e 8d c1 3d
       -0.050931945 -0.010402441 0.010091527 0.09450732
0003e0 12 2d 57 3e 24 d1 2d 3e 50 74 52 3e 80 7f 37 bc
       0.21013287 0.16974312 0.20552182 -0.011199832
0003f0 64 f7 34 be c0 59 97 3d 46 8f 0b 3e 75 c4 02 bd
       -0.17672497 0.07390165 0.13628873 -0.031925637

linear_layers.1.bias f4 [32]
000000 70 a9 4c 3d 9b 47 24 3e 35 86 9d 3d c0 d7 a6 3d
       0.049966276 0.1604294 0.076916136 0.0814662
000010 9c 01 96 3d e0 3e 2b bc c5 19 7f 3d 1a 4b 5f 3e
       0.07324526 -0.010452002 0.062280435 0.21805993
000020 47 2c f6 3d 1d cc a8 3d bd ac 04 3d c2 08 ae 3d
       0.12020164 0.082420565 0.0323913 0.08497764
000030 e0 55 01 3e fb ae 25 3e 9c 75 40 3e 2a eb 1e 3e
       0.12630415 0.16180031 0.18794864 0.15519395
000040 48 2c 0d 3e 42 99 00 3d cb 2d 37 3d da 52 a5 bd
       0.13786423 0.031396158 0.044721406 -0.08072443
000050 89 e4 bf 3d ed 9f 8d bc df a5 d4 3d 32 be 1a 3e
       0.093697615 -0.017288173 0.103832 0.15111616
000060 81 d3 fd bc ec e4 82 3d 84 5e 39 3e bc 31 2a bd
       -0.030984642 0.0639132 0.18102461 -0.041551337
000070 99 78 7d bd df 55 48 bd 5f cd f9 3d a3 bd bf 3d
       -0.06188259 -0.048910018 0.121973746 0.09362342

linear_layers.2.weight f4 [6, 32]
000000 f5 ba 4d 3e d9 0f 33 be ca 8f 19 3e 0d 14 34 be
       0.2009085 -0.17486514 0.14996257 -0.17585774
000010 9f 6d 7f be bf 40 2d be 8c 37 2d be d3 e6 b9 3d
       -0.24944161 -0.1691923 -0.1691572 0.09077229
000020 fe 9a 1a 3d d9 05 04 3e 4e 3a be 3c 7d 04 28 be
       0.03774547 0.12892856 0.023221161 -0.16407962
000030 bf bc cb bd 12 8e 50 be a0 fe 7f be 41 b6 bb 3d
       -0.0994811 -0.20366696 -0.24999475 0.091656215
000040 ab 9f 1f 3e a1 e4 45 be c4 db 28 be 0f b9 53 be
       0.15588252 -0.19325496 -0.16490084 -0.20676063
000050 4d d7 49 be 98 e0 2c be 5f cf 2a 3e 8f 2d 85 3d
       -0.19711037 -0.1688255 0.16680668 0.0650283
000060 64 bd 8c 3d ab 41 eb bd 19 df e7 3d 53 e3 40 bd
       0.06872061 -0.114871345 0.113218494 -0.047091793
000070 e8 5a 2a be 37 0b 4e 3e 07 46 e0 3d ed 79 78 be
       -0.1663624 0.20121466 0.10950857 -0.24265261
000080 d1 25 a1 be 25 7e 77 be 75 91 4d 3e c3 de b8 be
       -0.31474164 -0.24169214 0.20075019 -0.36107454
000090 0c 60 fc bd e2 f9 67 be 6a 34 fa 3d 01 e3 03 3e
       -0.12323007 -0.22653916 0.122170284 0.12879564
0000a0 82 5d 4a 3e e5 9c 04 3e 73 62 a7 3d ec 36 44 be
       0.19762233 0.12950476 0.081730746 -0.19161576
0000b0 de 3b cf 3b c9 29 53 be 4c ce 1b be 53 90 12 be
       0.0063242754 -0.20621409 -0.15215415 -0.14312868
0000c0 e0 cd 4c be 61 9f 54 3d d3 b2 94 be 2f 0d b7 bd
       -0.2000041 0.051909808 -0.29042682 -0.089380614
0000d0 b7 db f5 3d e2 01 13 be 68 50 58 3e 33 54 30 3e
       0.12004798 -0.14356187 0.21124423 0.1721962
0000e0 9f 1b 69 be d9 01 b6 3e 76 1c 48 3e 1e df d0 bd
       -0.22764443 0.35548285 0.19542107 -0.10198806
0000f0 d2 41 38 3e 09 35 98 3d 51 cd 13 3e 82 80 d1 3d
       0.17993858 0.07431991 0.1443379 0.10229589
000100 72 c3 17 bc 81 ff a8 be 8a 1b ce 3d fb 67 81 3e
       -0.009262906 -0.33007434 0.100638464 0.25274643
000110 18 bb 96 bc b3 06 d1 bc a7 50 fa 3b 9e 2a 70 3e
       -0.01839976 -0.02551589 0.007639009 0.23453757
000120 4b a6 9d 3d f5 73 2d bf cb 41 e4 be de cf 99 3e
       0.076977335 -0.6775506 -0.44581446 0.30041403
000130 82 9c 83 3e 8a 1c cb be c6 71 c7 be 65 13 f7 3d
       0.25705343 -0.3967021 -0.3895399 0.12064246
000140 7f 2a 8d 3e 65 4a 9a be 3c e2 28 be 68 6a 04 3f
       0.27571484 -0.30134884 -0.16492552 0.51724863
000150 26 9b 5e 3e 85 c0 09 3f 5f 43 1b bf 8a 3e b8 3e
       0.21738872 0.53809386 -0.60649675 0.35985214
000160 50 3d 30 3d c4 6d 02 bf 87 9b f2 be bf 81 09 bd
       0.043027222 -0.5094874 -0.47384283 -0.033571
000170 ed 19 41 3e 7c 71 ca 3d bf ba d7 be 0c a3 c7 3e
       0.18857546 0.09884927 -0.42134663 0.38991582
000180 ce 2c 84 bd 6a f2 48 3e e6 7f 95 be 62 f1 a3 3d
       -0.06453858 0.19623724 -0.2919914 0.080050245
000190 33 0c b8 be 4a c0 0f 3e 58 98 97 be fd 5f b5 be
       -0.35946807 0.14038196 -0.29608417 -0.35424796
0001a0 ba 70 29 3d 69 aa 42 3e 74 b5 8f be f4 8a 4a 3e
       0.04136727 0.19010319 -0.28068125 0.19779569
0001b0 9e 8e a2 be e8 8c 86 3e d2 a1 03 3e 1c 96 17 bf
       -0.31749433 0.26279378 0.12854698 -0.59213424
0001c0 6f af 6b 3c 57 d7 2c 3e c6 e9 3c 3e 3d 5e 9a 3d
       0.014385088 0.1687902 0.18448552 0.07537506
0001d0 0f fb 7a 3e 14 21 16 bf c9 dd 65 3e 5d 8f 37 be
       0.24509834 -0.58644223 0.22447886 -0.17925783
0001e0 1c 63 21 3e e0 05 64 be e9 8e ad be d5 d3 cf be
       0.15760463 -0.22267866 -0.33898094 -0.40591303
0001f0 91 63 e5 3d 7e e7 3e be 4e db 4f be 8b fe 26 3e
       0.112006314 -0.18642995 -0.20298502 0.16308038
000200 05 4d 41 3a 65 af 43 3e 06 82 00 be 60 fb 38 be
       0.00073738425 0.19109876 -0.125496 -0.18064642
000210 ea 89 91 3e e5 20 29 3e bf 87 57 3e 16 6b 2a be
       0.28425533 0.16516455 0.21047877 -0.16642413
000220 0b c9 8a be 71 ad 8b be c6 d8 3d be 78 14 81 3e
       -0.2710651 -0.27280763 -0.18539724 0.2521093
000230 7b f2 94 3e ab 73 66 3e 96 17 ff 3d 8b 8a 62 3e
       0.29091248 0.22505061 0.124556705 0.22123162
000240 be c8 80 be 98 d4 85 3e c8 95 03 be 07 3f e2 bd
       -0.25153154 0.2613876 -0.12850106 -0.11047178
000250 67 0d 0a be 14 51 06 3e 76 c0 45 be c7 58 12 be
       -0.13481675 0.13116866 -0.193117 -0.14291678
000260 25 2e 89 be fe 48 31 3e 7c 64 bd 3d c5 6c 39 3e
       -0.26793018 0.17313 0.092476815 0.18107899
000270 50 00 5a be 29 2d 83 be 7c f3 4b bd 23 c9 9f bd
       -0.21289182 -0.25620392 -0.04979275 -0.07802036
000280 68 33 0f be ed 88 3c 3e e1 80 37 be 19 fb 74 be
       -0.13984454 0.18411608 -0.17920257 -0.23923911
000290 eb c4 8b 3e 14 46 a8 3d c1 05 66 3e dc af c6 bd
       0.27298674 0.08216491 0.22463132 -0.09701511
0002a0 d7 b5 7b be eb 0b 8c be 0e f1 59 be ce 8c 87 be
       -0.24581085 -0.27352843 -0.21283361 -0.26474613
0002b0 53 d6 97 3e 79 9a 63 3e 6a 26 ec 3d 63 e1 5e 3e
       0.29655704 0.22226895 0.115307644 0.21765666
0002c0 25 44 81 be 45 15 82 3e 65 eb 0f bd 37 cb 74 be
       -0.25247303 0.25406852 -0.0351366 -0.23905645
0002d0 b7 39 78 be 6e 3e 86 3e 47 72 80 be 23 4f 19 be
       -0.24240766 0.26219505 -0.25087187 -0.14971595
0002e0 8d 13 a7 be cd 6b 30 3e ea 5b b2 3d 05 76 1f 3e
       -0.32632104 0.17228623 0.087089375 0.15572365
0002f0 96 79 76 be b3 2f 63 be c9 4e 03 be 98 df 61 be
       -0.24069819 -0.22186165 -0.12823023 -0.2205795

linear_layers.2.bias f4 [6]
000000 23 10 01 be ca cd b4 bd 42 f8 a9 bd db 0f 7f 3d
       -0.12603812 -0.08828314 -0.082993045 0.06227098
000010 0f 15 b4 bb 29 cf f4 3d
       -0.0054956744 0.11953575
